gt_eng_model_upper_two_hid_layer_emb1_block_size_50.pth (torch, 807144 bytes, 7 tensors)

_orig_mod.emb.weight f4 [83, 1]
00000000: 1d33 c33c 846b d03f d7d1 5bbf d23e 163f
00000010: 94b1 413f c41b 30be 8aad d23e 7c31 61bf
00000020: 225e 0f3f 2fa7 8d3e 2719 e03e 9634 c63e
00000030: 8f9a c43e 7743 ec3e a8bb ab3e 3e18 c03e
00000040: b2a6 d0be 538b 75be 289a 2abe 3726 c93e
00000050: f562 d63e f891 0b3f bead 453f 1203 d03d
00000060: be1e 42bf 7fa8 c43c 31ac cfbe dcd2 84bb
00000070: aa06 23bd 6b50 833e 75f4 003f 8d6b 0e3e
00000080: 2c83 e6bc 77eb 323d 2292 213e 9a14 303e
00000090: 8ead b73f 430e ea3f 460b f53f cd11 e33f
000000a0: d021 d1bd 691f c8bf add8 4e3f c54d a63e
000000b0: 60fd c8bf feb9 b63e 3781 473d 5ad4 ecbe
000000c0: 043c fc3e 8416 3b3f 70b3 123e 87bd 40bd
000000d0: 4d8d 07be e758 aabe d06b b7bd 76e1 c0bd
000000e0: 6fb3 883e 4c1e 8d3f 0827 7c3d e251 fbbd
000000f0: 9f93 573e 9897 473e 2b3e 833e 2eb6 b83f
00000100: 2ff3 e5bc aadc 323d 45de 6f3e 190b 04be
00000110: 89e6 b5bf b544 663f faa6 663b 906a 1cbe
00000120: 7f5b b0bd 1160 44be 47fb 803c 85b6 633f
00000130: 0d87 30bf e8c5 bcbe b72c 253f fd8a d63f
00000140: 69ee 2b3f ebc8 60bf 0b06 013f
0.023828084 1.6282811 -0.85867065 0.58689606 0.7566159 -0.17198092 0.41148025 -0.8796613
0.5600301 0.27666613 0.4376919 0.38711995 0.3839917 0.46145222 0.33541608 0.37518495
-0.40752178 -0.23978929 -0.16660368 0.39286968 0.41872373 0.54519606 0.77218235 0.101568356
-0.7582816 0.024006126 -0.4056106 -0.0040534567 -0.039801277 0.25647292 0.5037301 0.13908215
-0.02813872 0.043681588 0.15778401 0.17195359 1.434984 1.8285602 1.9144065 1.7739807
-0.10211527 -1.5634586 0.8079937 0.32481208 -1.5702324 0.35688776 0.048707213 -0.4625576
0.49264538 0.7308123 0.14326262 -0.047055747 -0.13237496 -0.33270952 -0.089561105 -0.09418003
0.26699397 1.1024871 0.06156066 -0.12271477 0.21052407 0.19491422 0.25633368 1.4430597
-0.02807006 0.043667473 0.23424633 -0.12894858 -1.4210979 0.8994859 0.003519474 -0.15275025
-0.086112015 -0.19177271 0.015744818 0.8895038 -0.6895607 -0.3686974 0.64521354 1.6761166
0.6716066 -0.87806576 0.50399846

_orig_mod.lin1.weight f4 [500, 50]
00000000: 2b38 fcbc 20c0 d53c 52a2 61b9 acaa 61bd
00000010: f569 613c d9de 0a3c 8809 8b3b b64a 0a3d
00000020: 4091 81bc d92f 473c 5541 083d 04ad 7dbc
00000030: 7b30 a03c fb1e f73c 4f2d 263d 3a5a a43c
00000040: fc24 213d fd8d dc3c 6084 0a3d 4ee6 3f3d
00000050: 9bb7 963c 66b4 463d 05a7 b9bb b713 c3bc
00000060: 1254 493d c84a 9ebc 11a3 7e3c 089f 2dbc
00000070: 3309 49bc 5a7b 42bc 7dad 773d 3a7c 933c
00000080: 358f 3e3d f7cf 0f3d 7bdb 323d 8fdc ce3c
00000090: ad91 1dbc 81fa d33c a39f d33d 64d1 693d
000000a0: 1843 213e 742a 043e 4a1b 21bd bc81 8dbc
000000b0: d2f0 39bd 4359 d4be 12cc 0dbf 3070 563e
000000c0: a6ea 8abf 2fe1 1dc0 d12f dabc dbbf ad3c
000000d0: c82a 72bc 884d e9bc 3253 d13c 931a 5fbc
000000e0: ff28 5d3d 91b1 193d b830 f0bc 8ef4 323a
000000f0: a533 9fbc d605 4d3c ac18 d3bc ac76 98bc
00000100: c3fb febc 05c2 ddbb 11f4 e7bc f402 ad3c
00000110: 6ab1 90bb a6e6 eebb dcec 7d3c c1c1 313c
00000120: a97d dfb9 1c13 723c 5745 b63b 62fb 793c
00000130: 71c3 63bc 8772 79bc 38d9 cd3c 63fd 7f3c
00000140: e5a3 1d3d 3bf3 07bd b7a4 aebc 1c51 e13b
00000150: f4b5 babc f71c 063c d464 2c3b d65b 5dbd
00000160: 778a 573b b6c7 733b 79b5 49bd d30f 633d
00000170: 4e2a 81ba e81b d23b 2e21 00bd 77c0 cbbc
00000180: 8ee9 543c 175a 853d e23c 4ebd ea3d 03bd
00000190: d1c6 fa3c e534 bbbc 17c1 8ebb 898f f23c
000001a0: 105e 17bd bf1d eabc dbb6 2fbc 8247 353d
000001b0: 2b3c 98bd 6e7c 40bd b737 793d 2b30 923d
000001c0: 846b 70bd 1d48 c43c 53fc 45bc b94e ddbb
000001d0: 0e05 23bd 5a9a 07bd 6310 5a3d e6ae a63d
000001e0: 6cdd cabc 167e f6bb f2b7 483d d3a1 2f3c
000001f0: ee8a 59bd c276 7b3d 4897 abbd 7c1e 78bc
00000200: a111 24bd 9271 afbd d54b 32bd 9c95 633c
00000210: ebe6 cabc 417a 0a3c 0dba 883c b99b 2cbc
00000220: f39c fabc 73fd ffbc 6849 f63c 14d7 7abd
00000230: 7be8 863d 134f 49bd 441f 8539 4b69 713e
00000240: 5930 073e 9224 93c0 fbbe 193e 4269 87be
00000250: 3726 f73d 9b49 713e 8cb1 7c3b 1efd ff3c
00000260: f40a 38bb acfa 78b8 67f1 2a3c 7ff7 c93c
00000270: aa50 8fbc 302a 39bd 5845 b03c 9be9 f0bc
00000280: 6f56 a03b 5c0e a83c 8a2d 86bc 9791 acbc
00000290: 142b b43c 68a5 e73b 9023 023c 7512 abbc
000002a0: bb6a 36bc 647d db3b c111 ae3c f382 0fbb
000002b0: 9b63 67ba 3c6a 8c3c bbfc 003d 5678 2abd
000002c0: 6fa5 74bb 62d3 c0bc e1c1 e23c dda8 183b
000002d0: b72d ae3c 6b87 673d 3aa8 d83c 4312 0c3c
000002e0: ee80 98bc 2af6 3d3c 6d6c 903c e448 a6bc
000002f0: 6935 0f3c 52d2 1d3c 2657 ab3b 2793 bbbc
00000300: ebaf adbb 8b7f 4a3c 615d f5bb 82f1 ab3c
00000310: f3ba 2a3d a2ed fa3c 6175 e3bc 5bfe 3bbc
00000320: 8a57 873c 1340 a73b 3e26 fabb 47c5 23bd
00000330: 2b76 2f3c b0e5 61bc 85e8 3fbc 3b85 df3c
00000340: 35c2 b83c 3de7 7dbd f235 913c 2c5e 673c
00000350: cd17 4dbd 619f c3bc 54f2 1ebd cbcf 47bc
00000360: 03d1 5bbb f398 4f3c d7e4 25bd d458 ce3c
00000370: b3f3 4c3c 7114 acbc 1636 a8bc 8e3e 6f3d
00000380: dbaf 41bc 2915 eebc 4372 98bc 374f e03c
00000390: e2a6 02bc 0e23 50bc ff72 bdbc a660 5f3c
000003a0: a740 6a39 b7e7 8b3b b1e7 a2bc 5672 d23c
000003b0: ad46 0b3a 8e7c 4c3c aedb 35b9 adc1 a93a
000003c0: 94d0 95bc 3ae7 033d 8b00 59bc 2823 0bbd
000003d0: 4fdc 083d 4b99 4abd 4806 ebbc 2052 373d
000003e0: 58b5 84bc 6e2e f9bc b01a 313c 8d7e fabb
000003f0: 77b0 873c fba9 e33b 0e6e bdbb 39d3 3fbd
-0.030788502 0.026092589 -0.00021518141 -0.055094406 0.013758172 0.008475983 0.0042430796 0.033762656
-0.01581633 0.012157404 0.03326543 -0.015483145 0.019554367 0.03016614 0.040570553 0.020062555
0.03934191 0.026923174 0.03381765 0.046850495 0.018398097 0.048511885 -0.005665662 -0.023813112
0.04915244 -0.019322768 0.015541808 -0.010596998 -0.01227026 -0.01187023 0.060468186 0.018003572
0.04652329 0.03511044 0.043666344 0.025251655 -0.009617251 0.025876286 0.10333183 0.057084456
0.1574825 0.1290682 -0.039332666 -0.017273776 -0.04539568 -0.4147435 -0.5538951 0.20941234
-1.0852859 -2.466869 -0.026634129 0.021209648 -0.014780708 -0.028479353 0.025552366 -0.013617176
0.053994175 0.037522856 -0.029320106 0.00068266026 -0.019433806 0.012513598 -0.0257686 -0.018611275
-0.031125909 -0.0067675137 -0.028314622 0.021119572 -0.0044156807 -0.007290679 0.015498366 0.010849417
-0.000426275 0.014775064 0.005562465 0.015257688 -0.013901577 -0.015225059 0.025127992 0.015624377
0.03848638 -0.033190947 -0.021318777 0.006876124 -0.02279184 0.008185617 0.0026305215 -0.05404266
0.0032888928 0.0037197894 -0.04924533 0.055435013 -0.0009854527 0.006412018 -0.031281643 -0.024872048
0.012995137 0.06511324 -0.05035103 -0.032041468 0.030612381 -0.02285237 -0.004356514 0.029609459
-0.03695494 -0.028578637 -0.0107247485 0.04425765 -0.07433351 -0.046993665 0.06084415 0.071380936
-0.058696285 0.023960168 -0.012084085 -0.0067537692 -0.039799742 -0.033106185 0.053238284 0.08138828
-0.024763785 -0.007522355 0.04900355 0.010719734 -0.05311101 0.061392553 -0.08378464 -0.015143987
-0.040055875 -0.08566584 -0.04352935 0.01389065 -0.024768313 0.008451999 0.016690278 -0.010535174
-0.030592417 -0.031248784 0.0300643 -0.06124027 0.06587311 -0.049147677 0.00025391032 0.23575322
0.13202037 -4.598214 0.1501426 -0.26447493 0.12067836 0.23563235 0.0038557975 0.031248625
-0.00280827 -5.9361264e-05 0.010433531 0.024654148 -0.017494518 -0.04520625 0.02151744 -0.029408267
0.004893116 0.02051466 -0.016379137 -0.021065516 0.021993198 0.0070692785 0.007943049 -0.020882824
-0.011133845 0.0066982973 0.0212487 -0.002189812 -0.0008826793 0.0171405 0.031491023 -0.041618668
-0.0037330051 -0.023538295 0.02768034 0.002329401 0.021262033 0.05652563 0.026447404 0.008549276
-0.018616166 0.011594335 0.017629826 -0.020298429 0.008740761 0.009632664 0.0052288948 -0.022897316
-0.005300512 0.01235951 -0.0074879383 0.020989183 0.041682195 0.03063089 -0.027765932 -0.011474217
0.016521234 0.005104074 -0.0076339534 -0.03998306 0.010709326 -0.013787672 -0.011713152 0.027285209
0.022553543 -0.061988104 0.017725918 0.014121573 -0.050071526 -0.023879709 -0.03880532 -0.012195538
-0.0033541329 0.012670743 -0.04050144 0.02518884 0.012509274 -0.021005841 -0.020533603 0.058409266
-0.011821712 -0.029062824 -0.018609172 0.027381523 -0.007974358 -0.01270367 -0.023126123 0.013633883
0.00022340064 0.004269566 -0.01988587 0.025689285 0.0005312961 0.012480868 -0.00017343342 0.0012951397
-0.018287934 0.032202937 -0.013244758 -0.033969074 0.033413228 -0.049462598 -0.028689519 0.044756055
-0.016199753 -0.030417647 0.010809585 -0.0076444806 0.016563637 0.0069477535 -0.005780942 -0.046832297

_orig_mod.lin1.bias f4 [500]
00000000: 702a 1d3f bafc 383c 9b76 30c0 84c3 df3c
00000010: f3b0 1bbc b833 d83c eb52 043d 46c1 1f3c
00000020: 749a b83c 30a3 913b 145a b73c 6321 27bd
00000030: 2acb 5e3f f325 483c 549b 00bd 74cf a2be
00000040: df00 883e a1e9 92bf 9884 fb3e 08d9 d23c
00000050: bb56 d7bb 082d ea3e 8708 bebc a269 14c0
00000060: a2ca ed3e 62eb 5ebd 2458 59bc 5c01 793e
00000070: 545b 02bf 288c a03b e26c d53c 3d20 05bf
00000080: d6d4 533f 610c c5be fa16 08bb 5993 a8bf
00000090: c830 fd3c 43a3 f4bc 8387 903c 586e 2240
000000a0: bd01 66bb a8e0 d0be f423 f03b 97e3 40bc
000000b0: 236e e0bb 970e 98bc 423b 313d bf98 983f
000000c0: 67f5 ec3d 13bd 483f ca88 cab9 c229 283d
000000d0: 0bfe 153b 615d 933d 4255 91bc f7c7 993c
000000e0: f963 8c3c 73c3 913b 7658 a93e 3dff 6dbd
000000f0: 98a1 533e 0402 e5bc 00e6 b03c 305b 65be
00000100: 63c4 0bbd 3472 713e eb05 0cbb e777 b6ba
00000110: 7e30 00bc 56ba b6bf a6c3 84bf d914 c7be
00000120: e332 593d 7344 e73b c016 7b3f b7f4 88bd
00000130: 2c0f 973f be7e 813e 23c1 183c 8ef3 3c3b
00000140: feee 03bc 7964 e53f 2061 4c3c afdc 7f3e
00000150: 750a 9abf 206e 083e 3ab0 f33c 8921 0d3c
00000160: c45d ce3c daa1 da3a bc2d 7d3e f5b3 f83c
00000170: 72f0 a83e b94a 1ac0 ac34 463b 1988 7cb9
00000180: 1427 f9bc e31c 393d 15f5 4dbc c363 0fbd
00000190: fe62 c43b 4085 813d a903 7dbf 497a 653e
000001a0: 5859 6b3f 29ac f6bf d2c1 3fbf 9897 a03f
000001b0: cab0 41bc 740c f0b9 8a37 543d ee5f 08bd
000001c0: cbca a2bf 618f e0be e820 3b3d 9a3e f13b
000001d0: 0508 50bd 83f7 8c3d 473a 973c c1ac 253e
000001e0: 5e11 b43c c109 8a3f 8441 1b3c 37a5 a03e
000001f0: 0554 8f3c 9586 b03c d1cc 8abf a6ff 5f3c
00000200: e59e 34be fb53 80bf 2fc0 67bf 2f11 c6bf
00000210: feec a2be fbcc 75bb 210b 533b 9ea9 d7be
00000220: b237 be3a 0a1d 303d 4084 493c 6e6b 533c
00000230: 2df1 063c fac1 433c f2b3 bcbc 0456 85bb
00000240: 8b1d e23e 57a4 a23c 12c6 a4bb 1bc1 143e
00000250: af9d 843f 9f10 72be 1516 573c e017 48bc
00000260: 6a89 9b3c ad55 973c 2d8c 00bf 26b6 36bf
00000270: 2596 a7bf 9e65 63be fc4f 543c c015 bebf
00000280: 58ff 36bf 2193 26c0 e405 9dbd 4b15 39bc
00000290: 3e05 e33f 0587 dabb 9926 363d 4d87 55bd
000002a0: 8e5a 6bbf 57f6 2cbd 2478 833f 008d 4dbc
000002b0: 911d 00bc e54c 4ebb 4c82 ca3f 6a97 6e3c
000002c0: 08fc 1740 34b1 2dbc e6f5 ad3f 5bdd 743f
000002d0: 5ef6 a4bf fce1 a0bc 71ab 413d 7b32 e9be
000002e0: 1273 cabf bd0b 953b 537a 4f3f 4a4e eaba
000002f0: 6600 053d f9d4 1d3e 0d54 49bc 4761 103f
00000300: d319 e43e fa7e c4bc 9ded b6bc fced f4bc
00000310: cfec 5ebc dcd0 51bf f086 8abf a5b3 353c
00000320: 2d65 a23f a7da e93f d2c6 e33c d2eb 93bc
00000330: bdf1 f53c 1b40 8bbb 8233 bfba c0ca af3e
00000340: 5cc8 00bb 54df 8bbf d6c2 063e f05c ba3c
00000350: ef5b b8bf 8704 50bd db30 93bf fe07 02bf
00000360: d8c6 e03c bcb2 7e3e 74dc 033b 24b9 40bc
00000370: 1db9 aabc 2a06 b2bb 6ce2 3f3f 7de0 cfbc
00000380: 0ead 05bd b797 32bc 8c50 5e3f 173a fdbc
00000390: 758a b9bf 000e c6bf a41c 0c3d 2a5f 57bf
000003a0: 5fec a53c c3c8 303d 6efa 9f3b b28e a5bf
000003b0: 28db 693c f4c2 e13b fe49 e0bc 4965 8a3f
000003c0: 9055 99bf 6afe 8c3c c1ba 21bc fe72 06bc
000003d0: 9d67 033d 92a3 e2bc acd0 ca3f 7071 853f
000003e0: f55e 9bbe d595 ffbf 59fb 583f 28b6 afbc
000003f0: 9c71 90bf 2732 b23f f58e 353b 602a b73f
0.6139288 0.011290723 -2.757239 0.027314909 -0.009502637 0.026391849 0.03230564 0.00975067
0.022534586 0.0044445023 0.02238182 -0.040803324 0.87028754 0.012216079 -0.031398132 -0.317989
0.26563165 -1.1477548 0.49124599 0.025738254 -0.0065716184 0.4573748 -0.023197426 -2.3189473
0.4644366 -0.054423697 -0.013265643 0.24316925 -0.50920606 0.0048995204 0.026052896 -0.52002317
0.82746637 -0.38486007 -0.0020765648 -1.3169967 0.03090705 -0.029863006 0.017642742 2.5379848
-0.003509625 -0.407964 0.0073285047 -0.011773012 -0.006849067 -0.018561644 0.043269403 1.1921614
0.11570244 0.78413504 -0.00038630358 0.04105545 0.0022887017 0.07195545 -0.01774085 0.018772108
0.017137514 0.004448348 0.33075303 -0.058104742 0.20667112 -0.027955063 0.021594048 -0.22398067
-0.034122836 0.23578721 -0.0021365832 -0.0013921232 -0.007824061 -1.4275615 -1.0372207 -0.38883093
0.053027045 0.0070577203 0.9808159 -0.06687301 1.1801505 0.2529201 0.009323391 0.0028831693
-0.008052586 1.7921287 0.012474328 0.24986528 -1.2034441 0.1332326 0.029747117 0.008613952
0.025191195 0.0016680316 0.24724478 0.030359248 0.32995945 -2.4108107 0.0030243797 -0.00024083293
-0.030414142 0.045193564 -0.012570639 -0.03500725 0.005993246 0.063242435 -0.9883371 0.2240993
0.919332 -1.9271289 -0.7490512 1.2546263 -0.011821935 -0.00045785645 0.05181078 -0.03329461
-1.2718138 -0.4385939 0.04568568 0.007362199 -0.050788898 0.068831466 0.018460406 0.16179182
0.021980938 1.0784227 0.009476069 0.3137605 0.017496118 0.021548549 -1.0843755 0.013671791
-0.17638738 -1.0025629 -0.90527624 -1.5473994 -0.31821436 -0.003750621 0.0032202678 -0.42121595
0.0014512448 0.042996444 0.012299597 0.012904031 0.008236212 0.011948103 -0.023035023 -0.0040690918
0.44163164 0.019853754 -0.0050284946 0.14526789 1.0360621 -0.23639153 0.013127823 -0.0122127235
0.018986423 0.01847347 -0.5021389 -0.71371686 -1.3092695 -0.22206733 0.012958523 -1.4850388
-0.71483374 -2.60273 -0.07667139 -0.011296581 1.7735975 -0.0066689276 0.044470403 -0.052130986
-0.9193505 -0.042227115 1.0271039 -0.012545824 -0.007819549 -0.0031478938 1.5821013 0.014562467
2.3747578 -0.010601331 1.3590667 0.9565026 -1.2887685 -0.019639008 0.04728264 -0.45546326
-1.5816367 0.0045485185 0.81046027 -0.0017876115 0.032471083 0.15413274 -0.012288106 0.56398433
0.44550952 -0.023986328 -0.0223301 -0.029898636 -0.013606264 -0.8195932 -1.082243 0.011090194
1.2687126 1.8269852 0.027804766 -0.018056784 0.030022496 -0.0042495853 -0.0014587494 0.34334373
-0.0019650673 -1.0927529 0.13160262 0.022749394 -1.4403056 -0.050785568 -1.1499285 -0.50793445
0.027438566 0.24872869 0.0020120414 -0.011762891 -0.020840222 -0.0054328637 0.7495487 -0.025375599
-0.03263574 -0.010900429 0.86841655 -0.030911488 -1.4495379 -1.5473022 0.034207 -0.84129584
0.020254312 0.04316021 0.0048821485 -1.2934172 0.014273442 0.0068896953 -0.027379032 1.081216
-1.1979237 0.017211158 -0.009871186 -0.008206127 0.032081235 -0.027665887 1.5844932 1.0425243
-0.30345884 -1.99676 0.84758526 -0.021449164 -1.1284671 1.3921555 0.0027703617 1.4309807

_orig_mod.lin2.weight f4 [300, 500]
00000000: 9e13 df3d 313f 893b e524 353d c821 9a39
00000010: ecfd a23b 523d a9bb fecb aebb 18f4 ad3b
00000020: 299d 783b 8ac6 82bb 7ab1 b6bb 291e c33a
00000030: 1d88 91bd 05c8 cebb a80c 7abb 1771 e4bc
00000040: d240 febe b77e a73e 4606 8a3d d906 753a
00000050: 9aab b73a 996c a7be 462f 44bb 1e27 0abb
00000060: 33f2 01bd a265 de3a 0244 62ba 72a9 f5ba
00000070: 68a6 01be 3ac0 6fbc 7745 feba 54a1 b5ba
00000080: 8894 cabc 2869 92bd 7883 2a3b 175a 8abd
00000090: 26a5 f1b9 cc77 73bb 8161 e73a 479b ed3c
000000a0: 09f7 0637 31e9 0ebd 9afc 2abb 3da0 30bb
000000b0: 6af0 87bb 2a0f 163c 1e6e 9fbd a8a6 873b
000000c0: e491 87bd c9d3 8039 9959 04ba 053a a2bb
000000d0: 81ec 5b3a 2da9 74bd 2f74 ea3b 1b40 af3a
000000e0: aa13 e3ba eade 9e3a 6acd 4bbd 58e5 a93a
000000f0: ec64 73bb a3a0 36bb 185e ffbb 6d1d 15bb
00000100: 9017 3739 ea6d 4ebc cd79 c039 ca50 903b
00000110: 8e0a e63b d556 623b c379 c83e f8c9 7e3e
00000120: 9a37 c43b c643 f8bb 9851 0fbf 3a5e 0fbc
00000130: b6e2 23bd d69f c43a 4db1 bfb9 90d3 6cba
00000140: dbc9 113b a574 8abc 52d3 c0ba ae85 e33a
00000150: 1806 803d f29b 94bb 3a48 dc3b 55d1 7b3b
00000160: dd97 083b b2d6 083b 5f9c 26be 63fe bdba
00000170: 94af 80bd 7a26 d8bb ff61 0dbb d71e 03bc
00000180: bd73 f53a 48cf 4abb 0bac b6bb 07d1 2d3b
00000190: 15a9 d6ba 005d 873b 738e 9ebb d3f9 19bd
000001a0: 0e24 93ba 5ee8 963e 331b d13d e5ad cc3d
000001b0: 21a6 edb8 e98d 053c ceef c33b 0497 d8bb
000001c0: 30dc 58be 1e92 d43d 2b4a f83a df3b 273b
000001d0: 1edf 01bb 3399 c039 1a17 20bb 6ae7 ad3b
000001e0: aa21 c9ba 0688 c63e dc38 8739 aae5 193d
000001f0: 025f 423b 18cf 1bbc 9690 8c3c efae c7ba
00000200: 5663 03bd afae 33bd c15a a93a a53c ff3b
00000210: 1f93 5a3b cb92 053c bfab 8f3b f301 c8bc
00000220: 99c1 2bbb 7775 3fbb 189f 653b b194 afbb
00000230: aa3c 883b e652 4aba db51 f83a 3145 acbb
00000240: ac87 5ebb 5e33 193b 29fd 023b 274c 65bb
00000250: 0f5e dabd 5813 453e 29ba ca3b 1b1b 7abb
00000260: c0c3 0f3b 3eff 8d3b 3bec 903b db2f c9bd
00000270: 10b6 06be 6560 3c3e 05a4 55bc 1b38 b1bb
00000280: 7184 0bbd 15ca a93c adcb 1d3b c7df b7ba
00000290: 357c 4bbe ad4a 7abb c38b 643b 5df3 aeba
000002a0: c7d9 75bc c65a 213a f976 6ebc 3217 643b
000002b0: bf31 473b db3a 8cba d3e4 8bc0 2cd0 a1bb
000002c0: dec6 3cbb 72d5 583b 6df9 2b3b 1e52 52bc
000002d0: 0e2a ef3a 29f6 17ba 24dd 433b a055 c8bb
000002e0: 8a2e 7040 3d15 42b8 de20 773b d35a 98bb
000002f0: f0b3 38bb 5cd5 ccbb f2de 9cb9 a591 c8bd
00000300: 56d6 3f3b 9ecc 123c 01b2 de39 160a d8bb
00000310: 1af6 ecbb 397b f6ba ace4 ddba cbd7 adbb
00000320: 9af7 29bc bca0 d6bc 3d07 88bb 1c91 8d3b
00000330: ea2a f3bb 0c6a 2bba 9cf2 62bb 0fbb 913c
00000340: 8660 9a39 fc73 563e 9d5c e03b 85a6 1abb
00000350: 3046 f639 1b44 023d 99bb 133f f1a5 c4bc
00000360: ef86 4e3b e82e b73b abd7 733b df6d ecba
00000370: 0a27 79ba d6bb 523c 5fbe 1ebe 7bd9 a43b
00000380: e841 64ba 13b1 62bb bb77 23bd 2995 25bb
00000390: 9d00 a0bd 4798 6540 0e5f 933b 491b 41be
000003a0: 5d2b 0e3b 94f8 993a 5a37 9f3a 3207 7c3c
000003b0: 6d90 c9ba 6c64 263c cd0e c6bb 7d2d e73a
000003c0: ddba 4c3e 6837 c23a bbfd d43a 1f2c 903b
000003d0: ad57 bd3a a297 0f3b 6683 02bd bf03 653e
000003e0: b224 abba 285e 803e ab4f 923d 645a f03b
000003f0: ab52 da3b 9634 033e 1b7c 213a 6023 54bd
0.108924136 0.004188441 0.04422464 0.00029398338 0.0049741175 -0.0051647807 -0.0053343764 0.0053086393
0.0037935472 -0.003990953 -0.005575356 0.0014886308 -0.0710604 -0.0063104653 -0.0038154516 -0.027885957
-0.4965883 0.32713863 0.06739478 0.00093470287 0.0014012933 -0.3270004 -0.0029935404 -0.0021080445
-0.03172512 0.0016967545 -0.000863135 -0.0018742515 -0.12661135 -0.014633233 -0.0019399364 -0.0013857284
-0.024729028 -0.07148963 0.0026018303 -0.067554645 -0.00046090147 -0.0037150262 0.001765296 0.029004706
8.04454e-06 -0.034890357 -0.0026090504 -0.0026950978 -0.0041485326 0.009158889 -0.07784675 0.00413974
-0.06619623 0.00024571855 -0.00050487515 -0.004950764 0.0008389429 -0.05973165 0.0071549634 0.0013370545
-0.0017324586 0.0012120877 -0.049756445 0.0012962027 -0.0037139012 -0.0027866743 -0.0077931993 -0.0022753135
0.00017461018 -0.012599448 0.00036711842 0.004404162 0.007020301 0.003453662 0.39155397 0.24881732
0.0059880735 -0.0075764386 -0.5598388 -0.008750493 -0.04001113 0.0015001248 -0.00036562458 -0.0009034211
0.002224556 -0.016901324 -0.0014711416 0.0017358565 0.06251162 -0.0045351917 0.0067224773 0.0038424332
0.002084247 0.0020879922 -0.16270588 -0.0014495369 -0.06283489 -0.0065963836 -0.0021573303 -0.008002958
0.0018726509 -0.0030946303 -0.0055747083 0.0026522295 -0.0016377295 0.0041309595 -0.0048387586 -0.037591767
-0.0011225955 0.29474157 0.10210266 0.09994105 -0.000113319846 0.00815151 0.0059795147 -0.0066097993
-0.21177745 0.10379432 0.0018943002 0.0025517864 -0.0019816826 0.00036735236 -0.0024427832 0.0053071277
-0.0015345116 0.38775653 0.0002579157 0.03757254 0.002965868 -0.009509824 0.017158788 -0.0015234629
-0.032077156 -0.043867763 0.0012920724 0.007789212 0.003335185 0.008152674 0.0043844874 -0.024414992
-0.0026207922 -0.0029214302 0.0035037454 -0.0053583016 0.0041576223 -0.00077180413 0.0018945293 -0.0052572717
-0.0033955378 0.0023376564 0.001998732 -0.0034988017 -0.106624715 0.1924566 0.006186743 -0.0038163129
0.0021936744 0.0043334058 0.004422692 -0.09823581 -0.13155389 0.18396147 -0.013039594 -0.0054082996
-0.034061853 0.020726243 0.00240777 -0.0014028483 -0.198716 -0.0038191483 0.0034873344 -0.0013347674
-0.015005535 0.0006155189 -0.0145547325 0.0034803865 0.0030394641 -0.0010698693 -4.3716826 -0.004938146
-0.0028805058 0.0033086208 0.0026241199 -0.012836961 0.0018246786 -0.00057968736 0.0029886449 -0.006113723
3.7528405 -4.6272984e-05 0.00377088 -0.004649499 -0.0028183423 -0.0062510204 -0.00029920746 -0.097934045
0.0029272041 0.008959917 0.00042475763 -0.006592999 -0.007231486 -0.0018805034 -0.0016929111 -0.0053052655
-0.010373974 -0.026199691 -0.0041512535 0.004320277 -0.0074208872 -0.00065389345 -0.003462947 0.017789392
0.00029445085 0.20942682 0.006846978 -0.0023597789 0.0004697307 0.03180323 0.57708126 -0.024004908
0.0031513532 0.0055903085 0.0037207406 -0.0018038115 -0.00095044135 0.012862166 -0.15502308 0.0050308085
-0.00087073306 -0.0034590408 -0.039909106 -0.0025265908 -0.07812617 3.5874193 0.0044974154 -0.18858065
0.0021693327 0.0011747056 0.0012147233 0.015382575 -0.0015378125 0.010155778 -0.006044245 0.0017637458
0.19993158 0.0014817538 0.0016249934 0.004399791 0.0014445685 0.0021910449 -0.031863593 0.2236471
-0.0013057201 0.25071836 0.07144102 0.007334994 0.006662687 0.12813029 0.0006160156 -0.05179155

_orig_mod.lin2.bias f4 [300]
00000000: 3e18 2dc0 8eef 05c0 7fe7 c13e 7393 8ac0
00000010: 7d62 06c0 6bff ffbf 41c5 94be b012 a4bf
00000020: 9140 08bf ba69 95c0 212b 38c0 496e 90c0
00000030: 8fed 8fc0 39d2 85c0 1382 8fc0 ef20 91c0
00000040: b9f6 7ac0 493e 81c0 6cab 8ac0 9436 93bf
00000050: 1162 1fbf 31e7 e0bf dee2 dbbf f861 e3bf
00000060: 9aaa 11c0 b216 0bc0 e657 f2bf e490 0fc0
00000070: f154 02c0 92a3 a9bf 8315 85bf e856 40c0
00000080: a95e 76c0 01b1 ecbf ec0d 08c0 6636 15c0
00000090: c756 21c0 ac91 27c0 10f6 89c0 06b7 44c0
000000a0: f7d3 fcbf 3975 babf 27b1 80c0 d6b1 8ec0
000000b0: 53be 01c0 4888 8ac0 a8ab c8bf ca12 8cc0
000000c0: 63a2 66c0 3d55 1a3f c6b8 38be 94d8 5a3d
000000d0: 3933 f23d 9bac 173f 68dd 15bd 6090 b5be
000000e0: fb0f 05be cb39 213f 4bd3 90bf 3a81 53bf
000000f0: 37b2 063f c793 8f3e 02d4 1a3f 97c7 253e
00000100: 8fd7 c93d f6f7 81bf 41e0 393f c153 593f
00000110: 96a1 493f ff11 ba3d 6645 bdbe a990 6a3e
00000120: bc35 c8bf 7185 28be b531 16c0 2ca4 7bc0
00000130: fc0f 80c0 96a5 5bc0 c03e 93c0 d6de 86c0
00000140: 1a3c d9bf a02d d2bf 2264 e2bf 7c36 2ac0
00000150: 2dba 29c0 ec9b 2ac0 6004 2bc0 94f2 28c0
00000160: 92bc 2cc0 53c7 2dc0 099c 29c0 b03a 2ac0
00000170: 9663 2ac0 57f3 2bc0 3e7a 29c0 1553 28c0
00000180: 6305 2bc0 73de 2ac0 ee38 29c0 e389 29c0
00000190: 29d4 2ac0 4e96 29c0 6ac3 28c0 0add 29c0
000001a0: 5d6b 2bc0 f9fc 2bc0 3b56 2ac0 aef0 29c0
000001b0: d4d0 2ac0 7b55 2cc0 8441 2bc0 9a3c 29c0
000001c0: 123a 2bc0 778e 29c0 6b55 2bc0 d995 28c0
000001d0: 2d3e 27c0 5851 29c0 6ff6 2bc0 78fe 29c0
000001e0: d811 2ac0 f937 2cc0 0cda 28c0 4331 2bc0
000001f0: 6f05 29c0 ace6 26c0 ed56 2cc0 4084 2ac0
00000200: a671 2bc0 d910 2ac0 aad9 28c0 767d 28c0
00000210: a1b5 2bc0 9bac 2ec0 659d 28c0 2dfa 2ac0
00000220: d3bc 2bc0 5546 2ec0 a9af 29c0 9808 2cc0
00000230: fe9f 27c0 77a7 2bc0 c3ce 2bc0 ed3a 2dc0
00000240: c253 2dc0 6bd4 2ac0 2fd3 2ac0 0c79 2bc0
00000250: 495c 2ec0 29ea 29c0 a0db 2ac0 2619 2bc0
00000260: 8e01 28c0 860a 2bc0 f898 2ac0 53cb 2ac0
00000270: 5cb3 2bc0 14be 29c0 130e 2bc0 8430 2cc0
00000280: 8c7a 28c0 0439 2ac0 f0e1 29c0 b48a 2ac0
00000290: 294a 29c0 d1b4 2ac0 c86f 2cc0 e7a0 28c0
000002a0: d151 29c0 99ea 2ac0 0a0f 2bc0 7492 2ac0
000002b0: ce99 2cc0 93e7 2bc0 427a 2cc0 b692 28c0
000002c0: ebb9 2bc0 356c 28c0 b397 2cc0 3e0d 2cc0
000002d0: a58b 28c0 fa2e 2ac0 2635 2ac0 32b2 29c0
000002e0: b6a0 2bc0 b4cc 28c0 315a 28c0 89f5 2bc0
000002f0: 1529 2bc0 67bc 28c0 5fd7 28c0 e35e 2cc0
00000300: 9a10 2ac0 b49f 2cc0 1317 2ac0 7c01 2bc0
00000310: 2fca 2ac0 8e4d 29c0 0a6c 2cc0 810b 2ac0
00000320: b813 29c0 85d3 26c0 9133 2bc0 bc18 2cc0
00000330: 0157 29c0 5e3a 2ac0 21a6 29c0 fccf 2ac0
00000340: 78f7 29c0 8682 2ac0 7aa0 2bc0 ade1 2ac0
00000350: 532a 29c0 a726 2bc0 fc15 2bc0 e1d3 2bc0
00000360: 31dd 2ac0 5e3a 29c0 3993 2ac0 c9ce 2ac0
00000370: ce38 2bc0 ee50 2ac0 db47 2dc0 4641 2bc0
00000380: 5947 2ac0 9db5 27c0 6dff 2bc0 a73f 2ac0
00000390: 5374 2dc0 8dfe 29c0 4d82 2bc0 c3a6 2ac0
000003a0: a2ae 2ac0 328e 2bc0 8341 2ac0 0513 2bc0
000003b0: a6f9 27c0 17b0 28c0 7c00 2ac0 996c 2ac0
000003c0: 1fbc 29c0 9c04 2ac0 0649 2cc0 9c6a 2ac0
000003d0: 3b4b 29c0 c4d5 28c0 4041 2ac0 80a5 28c0
000003e0: 189e 28c0 8ae2 29c0 6fa5 29c0 d67d 2cc0
000003f0: c60d 2dc0 8f93 29c0 0187 29c0 1295 2bc0
-2.7046046 -2.0927463 0.3787193 -4.330499 -2.0997612 -1.9999822 -0.29056743 -1.2818203
-0.5322352 -4.669156 -2.8776324 -4.5134625 -4.497749 -4.181912 -4.484628 -4.53527
-3.9213088 -4.038853 -4.3334255 -1.1501031 -0.6225901 -1.7570554 -1.7178609 -1.7764273
-2.2760377 -2.1732602 -1.8933074 -2.2432184 -2.0364344 -1.3253043 -1.039719 -3.0053043
-3.8495276 -1.8491517 -2.1258497 -2.3314452 -2.5209215 -2.618266 -4.311287 -3.0736709
-1.9752187 -1.4567024 -4.021625 -4.4592085 -2.0272415 -4.329136 -1.5677385 -4.3772936
-3.6036613 0.60286313 -0.18039235 0.0534292 0.11826176 0.5924775 -0.036588103 -0.35461712
-0.12994377 0.6297881 -1.1314481 -0.8261906 0.52615684 0.28042433 0.6047975 0.16189419
0.09855568 -1.0153797 0.7260781 0.84893423 0.78762186 0.09085464 -0.3696701 0.22906746
-1.5641398 -0.16457154 -2.3467839 -3.9318953 -4.001951 -3.4319816 -4.60141 -4.2147017
-1.6971467 -1.6420174 -1.7686808 -2.6595755 -2.6519883 -2.6657667 -2.672142 -2.6398058
-2.6990094 -2.7152908 -2.6501486 -2.659832 -2.6623282 -2.6867273 -2.648086 -2.630071
-2.6722038 -2.6698272 -2.6440997 -2.649041 -2.6691992 -2.6497989 -2.6369271 -2.6541162
-2.678428 -2.6873152 -2.661513 -2.655315 -2.6689959 -2.6927173 -2.6758738 -2.6443238
-2.6754193 -2.6493204 -2.6770885 -2.634146 -2.61317 -2.6455898 -2.686916 -2.6561565
-2.657339 -2.6909163 -2.6383085 -2.6748817 -2.6409566 -2.607829 -2.6928055 -2.664322
-2.6788116 -2.6572783 -2.6382852 -2.6326575 -2.6829607 -2.729285 -2.6346066 -2.6715195
-2.6834 -2.7230427 -2.6513464 -2.6880245 -2.6191401 -2.6820962 -2.6844947 -2.7067215
-2.7082372 -2.669215 -2.6691396 -2.679263 -2.7243826 -2.654917 -2.6696548 -2.67341
-2.625095 -2.6725173 -2.6655865 -2.66866 -2.6828222 -2.6522264 -2.672734 -2.6904612
-2.6324797 -2.65973 -2.6544151 -2.6647158 -2.6451514 -2.6672862 -2.6943226 -2.6348207
-2.6456187 -2.6705687 -2.672793 -2.6651888 -2.6968875 -2.6860092 -2.694962 -2.6339545
-2.6832225 -2.6316044 -2.696759 -2.6883082 -2.6335232 -2.6591172 -2.659494 -2.6515012
-2.681684 -2.637494 -2.6305048 -2.6868613 -2.6743824 -2.6364992 -2.6381452 -2.6932914
-2.6572633 -2.6972475 -2.6576583 -2.6719656 -2.6685903 -2.6453586 -2.6940942 -2.6569521
-2.6418285 -2.6066601 -2.6750224 -2.6890097 -2.6459353 -2.6598125 -2.6507647 -2.6689444
-2.6557293 -2.6642165 -2.6816697 -2.6700242 -2.6432083 -2.6742342 -2.6732168 -2.684807
-2.6697505 -2.6441875 -2.6652358 -2.6688712 -2.675342 -2.6611896 -2.7075107 -2.675859
-2.6606047 -2.6204598 -2.687465 -2.660135 -2.7102249 -2.6561615 -2.679828 -2.6664283
-2.6669087 -2.680554 -2.6602485 -2.6730359 -2.6246123 -2.6357477 -2.6562796 -2.6628783
-2.652107 -2.6565313 -2.691957 -2.662757 -2.6452167 -2.6380472 -2.6602325 -2.6351013
-2.6346493 -2.6544518 -2.6507223 -2.6951804 -2.7039657 -2.6496313 -2.648865 -2.6809735

_orig_mod.lin3.weight f4 [83, 300]
00000000: 6d63 93bc 7782 43bc b7ed 593d 9692 373d
00000010: 4a4e 90bc d986 593d 29a7 17bd a13b b3bc
00000020: fa71 2abd fcfb 0bbc 56ec dcbc c0fb 033c
00000030: c51d 253d fbf6 663d ec35 87bc 9eac 233c
00000040: 0f0e 293d befc e3bb bec4 50bd fa33 103c
00000050: aa3d 5f3d fb89 673d fdc0 0b3d 45e1 24bc
00000060: a01d 683d 595b f03c 35d3 053d b5a8 343d
00000070: 3c00 443d 5b8f 073d f7b5 a03c 1150 4e3d
00000080: 4f5c e4bc 8d8f 3ebd 8f72 593d 88b9 02bb
00000090: af68 9c3b c51a 3fbd 7e31 09bd 8aba d7bc
000000a0: cc5e 29bd de39 4c3d 090c c83c 5a4b 273c
000000b0: 4451 78bc ab90 393c 2d11 bdbc 9341 a4b7
000000c0: 8532 9f3b 64ff 33bd 2a45 a5bc eb62 143d
000000d0: 57b5 27bd 9138 0cbd ce01 d63b 1cbc 4e3c
000000e0: 97b6 44bd c32c cb3c ffaf 5a3d c91d acbc
000000f0: 4575 62bd 5f40 0abd 43e0 2f3d 43d6 383d
00000100: 66b8 1d3d 2206 0fbd 7d46 fb3c eb1b 9e3c
00000110: 487d 643d d19b 85bc 0c6b 18bd b950 22bd
00000120: 5ddd 3bbc 1f05 3ebd aa98 e1bc 6e5c c93c
00000130: 0f79 443d 2387 4c3d 032e 8c3a 5d1a 3bbd
00000140: 5e97 2f3d ec89 11bd d90a 38bd 85a7 81bb
00000150: 181f c1bc f6ce 5bbd 6904 453d fa4c febb
00000160: d58b 92bc 0f98 873c 8ddc ee3c d5cb aa3b
00000170: a671 19bd 25ca b43c f294 a43c 978f 46bc
00000180: 4eff 183d cf7f 7f3c 75ab 523d a547 033d
00000190: 896a d6ba d477 5b3c 08c2 2abd 693a 5abd
000001a0: 1642 673d 75fd 96bc 411a 453d aa36 05bd
000001b0: 3225 a53c 4427 77bc cf9c 9bbc e84f 45bd
000001c0: 8d42 35bd 03fd 08bd 71e6 893c 4171 33bd
000001d0: 08b3 bfbc b4b5 c8bc e5ad 303d daf6 a83b
000001e0: b747 a73c d0c2 a53c e3bd 17bd 05de 473d
000001f0: d6d7 a2bc d1e2 f83c cbee 5e3d 3e90 1bbd
00000200: da1f 76bb c4dc b3bc 9a20 3abb b5c2 97bc
00000210: f293 2a3d c219 5d3d e8e9 a73c 397e 6abc
00000220: 0edb ac3c cdcf 45bd bab1 fd3c fb04 4a3d
00000230: a152 55bd 0a9b c1bb 3328 68bd b8bc 083d
00000240: 8b64 af3c e242 20bd d1f7 d5bb bd28 b1bc
00000250: beb1 6b3d 2f7c 5fbd e94d 443d a552 be3b
00000260: e662 5c3c 4138 41bb 9107 a83c 371f 1d3d
00000270: 447b 47bd 0e00 123d 1b63 153c fb45 48bd
00000280: ce46 4c3d 9779 523c e92d 57bb 2e4d 413c
00000290: 030d 5cbd 528f 2cbc 63f1 92bc 7529 293d
000002a0: 3aa4 b9bc 3af3 8fbb 26b8 4bbd 76ce ef3c
000002b0: 3a72 4b3d ef29 4d3d e913 9ebc d8e5 38bd
000002c0: da93 31bd 61ce 693d 0a21 1bbc 5b3a 75bc
000002d0: cda5 403d 3ca2 3e3c 484f 83bc 4068 553d
000002e0: 177e 0d3d 1497 10bd 3f5c e6bc 862d c3bc
000002f0: 7d3a 0b3c 926f e6bc 8f51 183d 2cc5 47bd
00000300: da13 37bd a93d ff3c d7c5 6138 d4ef 4b3d
00000310: 4430 a5bc a898 1ebb 8b44 4d3c f2ac f93c
00000320: d670 f23c d489 31bd bf8c 9abc 3fbc e5bb
00000330: 27c3 a2bc bc08 65bd e38e 07bd b7c2 003c
00000340: d0d1 a4bc 27b0 86bc 90c7 3d3b 8fe7 cdbb
00000350: d9f0 183d bc48 b73c a955 abbc 268d 6abc
00000360: 35c9 2a3d 1e31 5c3d eded 543d d518 68bd
00000370: 2c2b 093d 418b 2abc ee45 11bd dc9a 073c
00000380: ad37 11bd a961 4fbd b1ec 633c e99f f53c
00000390: f12e dbbc 1e08 cf3b 2e13 0fbd e8e3 babc
000003a0: 9d91 1d3b 3665 36bd e874 183c d360 06bd
000003b0: d322 65bd 632f 07bc 33dc 02bc 891a b73c
000003c0: abe1 f53c 8b00 44bd aaa2 493d 6d78 a33a
000003d0: 2447 1ebd 5b8e 623c 106a 94bc e6f3 25bd
000003e0: ae89 263c d8b5 31bd f14f 45bc b626 573d
000003f0: afe4 babc 5ca9 443d 3d97 c23c 570e 5cbd
-0.017991746 -0.011932961 0.05320522 0.04481753 -0.017615456 0.053107116 -0.03702465 -0.02187902
-0.041612603 -0.0085439645 -0.026968163 0.008055627 0.040311594 0.056387883 -0.016505204 0.009989886
0.041273173 -0.0069576195 -0.050968878 0.008801455 0.054502167 0.056528073 0.034119595 -0.010063474
0.056668878 0.029340433 0.032672126 0.044106204 0.047851786 0.0330957 0.019618018 0.050369326
-0.027876047 -0.04652362 0.053087767 -0.001994701 0.0047732214 -0.04665639 -0.033494465 -0.026334066
-0.04135017 0.049859874 0.024419801 0.010210836 -0.015156094 0.011325995 -0.02307948 -1.9580859e-05
0.0048583173 -0.04394473 -0.020174582 0.036227148 -0.040944424 -0.034233633 0.006530977 0.012618091
-0.048025694 0.024801617 0.0533905 -0.021010296 -0.05528762 -0.033752795 0.042938482 0.04512621
0.038505934 -0.034917958 0.03067326 0.019300422 0.05578354 -0.01630965 -0.037211463 -0.039627764
-0.011466351 -0.046391603 -0.027538616 0.024580207 0.047967013 0.049933564 0.0010694865 -0.04567944
0.042868964 -0.035531923 -0.04493222 -0.0039567375 -0.023574397 -0.05366417 0.04809991 -0.007760641
-0.017888943 0.016552 0.029157901 0.005212287 -0.0374619 0.022069046 0.020090554 -0.012119195
0.037352853 0.015594437 0.051433045 0.032050747 -0.0016358654 0.0133952685 -0.04168895 -0.05327836
0.05645951 -0.018431405 0.04812074 -0.032522835 0.020159338 -0.015085045 -0.01899567 -0.048171908
-0.04425292 -0.033444416 0.016833516 -0.04380918 -0.023400798 -0.024500705 0.04313459 0.00515638
0.020419938 0.020234495 -0.037046324 0.04879572 -0.01987831 0.030381592 0.05442695 -0.037979357
-0.0037555606 -0.021955855 -0.002840078 -0.01852546 0.041644998 0.053979643 0.020497277 -0.01431232
0.021100547 -0.048293877 0.030968536 0.049321156 -0.052080754 -0.0059083747 -0.056678962 0.0333831
0.021410247 -0.039126284 -0.006529786 -0.02162587 0.057542555 -0.05456179 0.047925863 0.005808192
0.013451314 -0.0029482993 0.02051142 0.038359847 -0.04870154 0.035644583 0.009117867 -0.048894864
0.049872212 0.012846372 -0.003283376 0.011798186 -0.053723346 -0.010532217 -0.017937368 0.041299302
-0.022661317 -0.0043930085 -0.049736165 0.029273253 0.04966948 0.05008882 -0.019296603 -0.04514107
-0.043353893 0.057081584 -0.009468326 -0.014967526 0.04703312 0.011635359 -0.016029015 0.052101374
0.034544077 -0.03530033 -0.028120158 -0.023825418 0.008497831 -0.028129373 0.037187155 -0.048772022
-0.044696666 0.031157332 5.3828433e-05 0.049789265 -0.020164616 -0.0024199877 0.012528549 0.030477975
0.02959482 -0.043344334 -0.018865941 -0.007010966 -0.019868447 -0.055916533 -0.03309525 0.007858924
-0.020119578 -0.016441418 0.002895806 -0.0062837075 0.037339065 0.02237355 -0.02091487 -0.014315879
0.041695792 0.05375778 0.051984716 -0.056664307 0.033488438 -0.010409177 -0.03546708 0.008276667
-0.035453487 -0.050630245 0.013911412 0.029983478 -0.026755782 0.0063181063 -0.0349304 -0.022813752
0.002404309 -0.044530116 0.009305216 -0.032807183 -0.055941414 -0.008251044 -0.00798707 0.02235152
0.030014833 -0.04785208 0.049227394 0.0012471803 -0.038642064 0.0138278855 -0.01811698 -0.040515803
0.010164661 -0.04338631 -0.012042985 0.052527152 -0.022814123 0.048013076 0.023753757 -0.053724613

_orig_mod.lin3.bias f4 [83]
00000000: 8958 91bc 5540 42bb 6eda adbc 98d0 88bc
00000010: dc19 3fbc d85f dabb e2fe be3c 400d 47bc
00000020: ad46 6d3b 32d0 8a3b a292 bdbc 8f32 61bd
00000030: 2b73 1f3d b119 ccbc 40b1 623d 7217 dabc
00000040: e2bf f4bc b85c 2b3c 1bbf 2bbd 19bc 0a3d
00000050: 3e4d f23c c3d5 693d 8e05 1ebd 45bf 0ebb
00000060: 09f1 c13c aefd 993c e58d 7fbc 1874 ae3c
00000070: 58c5 1ebd fed8 7b3c 69be 87bc 1fe8 88bc
00000080: a206 1b3d 77c6 823c bd40 9e3c 0a94 6d3b
00000090: 79fc 7a3c 49ba a93c b088 0e3d 07fb 21bd
000000a0: ea75 d53b b4ed b13c 909b 673a ce6d de3c
000000b0: 66cf e0bc 742a eebc 0387 40bd fbf3 84bc
000000c0: f88c 0d3d fb4b 1fbc 7262 0c3d f54e 14bd
000000d0: 8c3a c63a 6257 0e3d b448 07bd 1263 5c3c
000000e0: d533 363d 28bc a0bc c49e 03bd aa51 833c
000000f0: cdfc b13c 25e9 97bc b488 b33c bc34 fc3b
00000100: 7c6e 67bd c110 4d3c ad32 43bc 73ae 0a3c
00000110: 12f0 3f3d b9fc 063b c71f 5b3d e428 c73c
00000120: f34e 1cbd 14b6 eb3c be32 36bb 6e62 8abc
00000130: 420d 2a3d 73e0 353d 1e7e 3c3d 3c0f 663d
00000140: da1b 1c3d 1252 16bd 13bb 1d3d
-0.017742412 -0.0029640396 -0.02122232 -0.016701028 -0.01166388 -0.0066642575 0.023314897 -0.012149155
0.0036205456 0.0042362446 -0.023141209 -0.054979857 0.038928192 -0.024914594 0.05534482 -0.026622508
-0.029876653 0.010459118 -0.0419303 0.03387079 0.029577848 0.057088625 -0.038579516 -0.0021781486
0.023674505 0.018797722 -0.015597795 0.021295592 -0.03876242 0.015371559 -0.016570287 -0.016712246
0.037848122 0.015963776 0.019317979 0.0036251568 0.015318983 0.02071871 0.034798324 -0.03954604
0.0065143006 0.021719791 0.00088351313 0.027151968 -0.027442645 -0.029072978 -0.047003757 -0.01622962
0.034558266 -0.009722705 0.034273572 -0.03620811 0.001512365 0.034751303 -0.03302832 0.013451355
0.044483025 -0.01962097 -0.032133833 0.016030151 0.02172699 -0.01854379 0.021915771 0.007696716
-0.05650185 0.0125162015 -0.0119139375 0.0084644435 0.04685981 0.0020597412 0.053497102 0.02431149
-0.03816123 0.028773345 -0.002780124 -0.016892638 0.04151655 0.044403505 0.046018712 0.056166872
0.0381125 -0.036699362 0.038508486
