gt_eng_model_upper_two_hid_layer_emb5_block_size_15.pth (torch, 858569 bytes, 7 tensors)

_orig_mod.emb.weight f4 [83, 5]
0	0x3c4e41e3	0.012588951
1	0xbdc0685a	-0.093949035
2	0xbd04c5cf	-0.032415207
3	0xbcbac023	-0.022796696
4	0xbd5d7e5f	-0.054075595
5	0x3c4f47dc	0.01265141
6	0xbde3fc54	-0.11132112
7	0x3e793cb3	0.24339561
8	0xbe579aba	-0.21055117
9	0x3f2d3421	0.6765767
10	0x3e98ccc9	0.2984374
11	0xbd986ff6	-0.0744323
12	0x3f4e8c44	0.8068278
13	0xbe0a7383	-0.13520627
14	0x3e9917e9	0.29901055
15	0x3f03ee85	0.51535827
16	0x3eab35cc	0.3343948
17	0xbf6b3b3b	-0.91887254
18	0xbed6e49a	-0.41971284
19	0xbf26b600	-0.6512146
20	0x3edbf4f3	0.4296032
21	0xbe8bb053	-0.27282962
22	0x3f16798f	0.58779234
23	0xbd37b192	-0.04484708
24	0x3ebf129d	0.37318888
25	0x3e910df8	0.2833097
26	0xbd9a39e5	-0.07530574
27	0xbf01533d	-0.50517637
28	0x3ea78d1d	0.32724848
29	0x3c2644bb	0.010148223
30	0x3ea8897d	0.32917395
31	0x3edb517e	0.4283561
32	0xbeee6bd4	-0.4656664
33	0x3e065e5f	0.13121937
34	0xbed4b12c	-0.4154142
35	0x3ec29fe2	0.38012606
36	0xbd10bdf3	-0.0353374
37	0x3f7f2077	0.9965891
38	0xbe2a5d59	-0.16637172
39	0x3ed44886	0.4146158
40	0x3f442ff2	0.7663566
41	0x3d8720c9	0.0659805
42	0xbf50ad73	-0.8151466
43	0xbe57d3e9	-0.21076931
44	0xbeec4e48	-0.46153474
45	0x3e5db335	0.21650393
46	0xbe9a3cef	-0.30124614
47	0xbf3af44e	-0.7302903
48	0x3ec8ba04	0.3920442
49	0xbd00cef2	-0.03144736
50	0xbe5065f4	-0.20351392
51	0x3bbda658	0.005787652
52	0xbf14a351	-0.580617
53	0x3f1d0ecf	0.6135072
54	0x3f7d1dfc	0.9887388
55	0xbef22d10	-0.47300005
56	0xbe8970b4	-0.26843798
57	0xbf188ad6	-0.59586847
58	0x3f06024e	0.52347267
59	0x3f81470b	1.0099806
60	0xbf08449a	-0.5322968
61	0xbe8eba2c	-0.27876413
62	0xbedceaa9	-0.43147781
63	0x3ee6b45b	0.45059475
64	0x3f3bf90c	0.7342689
65	0x3e892d2a	0.2679227
66	0xbe7511e5	-0.23932607
67	0xbf5a38bd	-0.85242826
68	0x3f11d0e9	0.56959397
69	0x3df3d533	0.11905899
70	0x3e805169	0.2506211
71	0xbe91e874	-0.2849766
72	0xbf58a0a1	-0.846201
73	0x3f0ee332	0.5581542
74	0xbd474ae6	-0.048655413
75	0x3e8f3510	0.2797017
76	0xbddad24f	-0.106846444
77	0xbf68645e	-0.9077815
78	0x3f518d68	0.81856394
79	0x3e42c7b8	0.19021499
80	0x3deab291	0.1145984
81	0xbea4bcc0	-0.32175255
82	0xbf0c6c8e	-0.5485314
83	0x3f3bbcaf	0.73334783
84	0x3e70dcf0	0.23521781
85	0x3f285c7f	0.6576614
86	0xbe39de34	-0.1815117
87	0xbf698307	-0.91215557
88	0x3f74b806	0.955933
89	0x3f3ace94	0.72971463
90	0x3e8495c5	0.25895515
91	0xbe681365	-0.22663648
92	0xbf5e88fd	-0.8692778
93	0x3efa0bfc	0.48837268
94	0xbc361293	-0.011112827
95	0x3f18f317	0.59745926
96	0x3f0ef40f	0.55841154
97	0xbf454ae4	-0.770674
98	0xbdf9b511	-0.12192739
99	0xbec50151	-0.38477567
100	0x3f118105	0.56837493
101	0x3f1fe938	0.6246524
102	0xbf3606ef	-0.7110433
103	0x3c32eab1	0.010920213
104	0xbedd5b09	-0.43233517
105	0x3fabdaf1	1.3426191
106	0x3dd5f1af	0.10446488
107	0xbf54a220	-0.83059883
108	0x3e1ff5d5	0.15621121
109	0xbf053efc	-0.5204923
110	0xbe513d57	-0.20433556
111	0xbe249a9f	-0.16074608
112	0x3db8323f	0.08993959
113	0x3f6b6c7e	0.9196242
114	0xbecb6a19	-0.39729384
115	0xbdd53ad1	-0.10411609
116	0x3c22c479	0.009934538
117	0x3f2dd254	0.6789906
118	0xbe938ffa	-0.28820783
119	0xbf067031	-0.5251494
120	0x3fb0cb13	1.3811973
121	0x3f9837d4	1.1892037
122	0xbf460084	-0.77344537
123	0x3f871036	1.0551822
124	0x3f23720a	0.63845885
125	0x3e4da9bd	0.20084281
126	0xbd8b621e	-0.06805824
127	0xbde2f336	-0.11081545
128	0x3ed5876b	0.41704878
129	0xbdba80fc	-0.09106633
130	0x3f612ff2	0.87963784
131	0xbf175cb5	-0.59125835
132	0xbf8317eb	-1.0241674
133	0x3ecb0651	0.39653257
134	0xbf0395f6	-0.514007
135	0x3f447607	0.76742595
136	0x3f249fd9	0.6430641
137	0xbf1cea65	-0.6129516
138	0x3e9a6728	0.30156827
139	0x3ee1dfe6	0.44116133
140	0x3f58c586	0.84676397
141	0x3f9d4b80	1.2288666
142	0xbeaaad3a	-0.33335286
143	0x3efef37d	0.49795142
144	0x3ecfae83	0.4056283
145	0x3e8a8bb5	0.27059713
146	0x3e398919	0.18118705
147	0xbf97980d	-1.1843277
148	0xbf110419	-0.5664688
149	0xbead6898	-0.3386886
150	0x3ee05dfa	0.43821698
151	0xbe3729eb	-0.17887084
152	0xbf1c319a	-0.61013186
153	0x3f2f3135	0.6843446
154	0xbec2e303	-0.3806382
155	0x3fe4c6ae	1.7873132
156	0xbeb77f10	-0.35839128
157	0x3e32f5d6	0.17476591
158	0x3e9bfcf2	0.3046642
159	0xbcab412d	-0.020905102
160	0x3e3a7e50	0.18212247
161	0xbf76f9d7	-0.96474975
162	0xbe834976	-0.25641984
163	0x3f537d64	0.82613206
164	0x4051e517	3.2796075
165	0x3fd8400e	1.6894548
166	0xbf756b5d	-0.9586695
167	0xbfbe8cdb	-1.4886736
168	0x3f2b18f6	0.6683496
169	0x3f410f5e	0.75414073
170	0xbd59b0a7	-0.053146984
171	0x3ecde2f3	0.4021221
172	0x3f509de4	0.8149092
173	0x3f4cb7d3	0.79967993
174	0xbebdc279	-0.37062433
175	0x3f116ca6	0.5680641
176	0x3de7290c	0.11287126
177	0xbe2b4878	-0.16726863
178	0x3ec211cc	0.37904203
179	0xbd85997f	-0.06523418
180	0x3dc7dfe5	0.09759501
181	0xbdc28ae1	-0.09499145
182	0xbd61b802	-0.055107124
183	0x3ea509cd	0.3223404
184	0xbf27ef23	-0.6559927
185	0x3e555fa8	0.20837271
186	0x3f91c9ad	1.1389672
187	0xbede3b18	-0.4340446
188	0x3e6a4f67	0.22881852
189	0x3e363fff	0.1779785
190	0xbf2a5c96	-0.66547525
191	0xbe0bc36a	-0.13648763
192	0x3fb50ca0	1.4144478
193	0xbf68b89a	-0.9090668
194	0xbeec4ef0	-0.46153975
195	0xbf03a181	-0.5141831
196	0x3fdece45	1.7406698
197	0x3e2bddca	0.16783825
198	0xbe98e9b5	-0.29865804
199	0xbf316898	-0.6930022
200	0xbf1489d2	-0.580228
201	0x3f53f4c5	0.82795364
202	0x3edbfadc	0.42964828
203	0x3c9fe1b5	0.019516805
204	0xbe2d9a65	-0.16953428
205	0xbe948777	-0.290096
206	0x3ea9a1af	0.33131167
207	0x3ce6fdc1	0.028197171
208	0xbe943b27	-0.2895138
209	0x3ea35884	0.3190347
210	0x3ddc2cb5	0.10750715
211	0x3ede2413	0.43386897
212	0xbfa78b80	-1.3089447
213	0x3f9d4ac0	1.2288437
214	0x3f6b5d4a	0.9193922
215	0x3f712ff9	0.94213825
216	0xbddd0331	-0.10791624
217	0xbf42fa61	-0.761633
218	0x3ec5f9af	0.38667056
219	0x3c016ae3	0.007899019
220	0x3ee926dc	0.4553746
221	0xbeb6b392	-0.35683876
222	0xbf863008	-1.0483408
223	0xbdf252e1	-0.11832214
224	0x3f126920	0.5719166
225	0x3f22e1d3	0.6362583
226	0x3e09fd5a	0.13475552
227	0xbf41b8e9	-0.75672776
228	0x3f380d70	0.71895504
229	0xbcec32e2	-0.028832857
230	0x3fe65e0e	1.7997453
231	0xbf1711a9	-0.5901132
232	0xbecb8309	-0.3974841
233	0xbc1ea9d2	-0.009684043
234	0x3e6aae9f	0.22918175
235	0x3f376221	0.7163411
236	0x3eb2e70d	0.34941903
237	0x3f444762	0.7667142
238	0x3f3af87e	0.7303542
239	0xbeb826b1	-0.3596702
240	0x3ea0af1b	0.31383595
241	0x3e585de0	0.2112956
242	0xbf48e1d9	-0.78469616
243	0x3e0eed20	0.13957644
244	0xbed3884a	-0.41314918
245	0xbee339b8	-0.44379973
246	0xbe25c619	-0.1618885
247	0x3e67c194	0.22632438
248	0x3f4f64f8	0.8101344
249	0xbed6b438	-0.4193437
250	0xbf1351bf	-0.5754661
251	0xbe2ec1d4	-0.17066127
252	0x3f04e7e1	0.5191632
253	0xbf0a41b3	-0.540065
254	0xbea9be65	-0.33153072
255	0x3e47fed2	0.195308

_orig_mod.lin1.weight f4 [500, 75]
0	0xbd54af9a	-0.05192528
1	0x3e0bf579	0.13667859
2	0x3c6c4a4a	0.014422009
3	0xbdc88c3b	-0.09792372
4	0xbd99547e	-0.07486819
5	0x3e9c507e	0.3053016
6	0x3cb49cc3	0.022047406
7	0x3e02e70a	0.12783447
8	0x3c9daf3f	0.019248603
9	0x3d92f491	0.071755536
10	0x3e11a77d	0.14224048
11	0xbde14b69	-0.110007115
12	0xbdd6411e	-0.10461639
13	0x3d4c79d8	0.049920887
14	0x3dd9237a	0.1060247
15	0xbc9f730c	-0.019464038
16	0x3dcab7f7	0.0989837
17	0x3e7ff047	0.24994002
18	0xbd8a2396	-0.06745069
19	0x3ddaa5c3	0.10676148
20	0x3ddc6630	0.10761678
21	0x3dcafd4d	0.099115945
22	0x3e35a71f	0.17739533
23	0xbe1b4ceb	-0.1516606
24	0x3e1557fe	0.14584348
25	0x3d19c88d	0.037544776
26	0xbe200c8a	-0.15629783
27	0x3cd65d0b	0.026167413
28	0xbe2feb7b	-0.17179672
29	0x3aec5045	0.0018029293
30	0xbd2caddf	-0.042158004
31	0xbdd2b3b2	-0.102881804
32	0x3d9bf2c9	0.07614667
33	0xbe35d8b4	-0.17758447
34	0xbd79b04a	-0.060959138
35	0xbeb62387	-0.3557398
36	0xbe0b3f64	-0.135984
37	0xbe05ab0e	-0.13053533
38	0xbe00f481	-0.12593271
39	0xbdc847d9	-0.09779329
40	0xbdfac890	-0.122452855
41	0x3e8a2e62	0.26988512
42	0xbd4b29eb	-0.049600523
43	0xbdd32f3c	-0.103117436
44	0xbde8c59b	-0.11365815
45	0xbe57f17e	-0.21088216
46	0x3d7c136d	0.061541963
47	0x3e444b09	0.19169249
48	0x3d6a87a8	0.057258278
49	0x3ccc1acf	0.024915127
50	0x3e4dfaf2	0.2011526
51	0xbee064ca	-0.43826896
52	0xbf880f47	-1.0629662
53	0x3f406aa8	0.75162745
54	0xbee8da90	-0.4547925
55	0x3ea0985c	0.3136624
56	0xbfb90574	-1.4454789
57	0xbf482133	-0.7817566
58	0x3f82c0fe	1.0215147
59	0x3d15b56b	0.036549967
60	0xc01811e8	-2.376093
61	0xbf99e741	-1.2023698
62	0x3f4f94b4	0.8108628
63	0xc018a57a	-2.3851
64	0xbcf753ce	-0.030191328
65	0x3f9d5609	1.2291881
66	0x3dccfa89	0.10008723
67	0x3f80d5f6	1.0065296
68	0x3f3d652d	0.73982507
69	0xbedf55df	-0.43620202
70	0x3d1293b2	0.035785384
71	0x3fd6d166	1.6782653
72	0xbf2b1752	-0.6683246
73	0xbf8ab380	-1.0836029
74	0xbcaa0d7d	-0.020758385
75	0x3d6fcc21	0.058544282
76	0xbd52dc32	-0.051479526
77	0xbe11a668	-0.14223635
78	0x3de0d41d	0.109779574
79	0xbd19d93e	-0.037560694
80	0x3db7e1f2	0.089786425
81	0xbcd69565	-0.026194284
82	0xbc8359f7	-0.01603411
83	0xbc5823a7	-0.013192094
84	0x3d879239	0.06619687
85	0x3b766f80	0.003760308
86	0xbd5ea621	-0.05435765
87	0xbd5371bb	-0.051622134
88	0x3e17f5dc	0.14839882
89	0xbe713bbd	-0.23557945
90	0xbe8f3742	-0.27971846
91	0xbe6c2a1b	-0.23062937
92	0x3e4cd247	0.2000209
93	0xba17f674	-0.0005796917
94	0x3bf0a116	0.0073434217
95	0xbe13a0fa	-0.14416876
96	0xbe260287	-0.16211902
97	0xbd020cf7	-0.031750645
98	0x3df2e614	0.1186029
99	0xbe430685	-0.19045456
100	0xbe86ac2c	-0.26303232
101	0x3c5af17e	0.01336324
102	0x3e6624a9	0.22474922
103	0x3d20d026	0.039261006
104	0x3e712ad0	0.23551488
105	0x3cdc20de	0.026871141
106	0xbd8e6341	-0.06952525
107	0x3e13b9d9	0.14426364
108	0x3e0dd5c4	0.13851076
109	0xbca0eb25	-0.019643376
110	0x3df45ceb	0.11931785
111	0x3e60bfbb	0.2194814
112	0xbdb09f63	-0.086241506
113	0x3e2234ee	0.15840504
114	0x3e46e6d0	0.19423985
115	0xbeaa20eb	-0.3322824
116	0xbec89b2b	-0.39180884
117	0x3e6b61bb	0.229865
118	0x3e1cdaca	0.15317836
119	0xbb6d81a3	-0.00362406
120	0xbdf2a32e	-0.1184753
121	0xbd113469	-0.035450373
122	0x3cc63226	0.024193835
123	0xbe4b8959	-0.19876613
124	0x3dd7381f	0.10508751
125	0xbe2ef4a0	-0.17085505
126	0x3da95e45	0.082699336
127	0x3ec366a4	0.38164246
128	0x3ee209ab	0.44148
129	0xbe59070a	-0.21194091
130	0xbf45a9b7	-0.7721209
131	0xbf8f5071	-1.1196424
132	0xbf38ccde	-0.721876
133	0xc035d12e	-2.8408923
134	0xbec8c9d3	-0.3921648
135	0xbf9c3fd3	-1.2206978
136	0x3e5ef9d6	0.21774992
137	0xbf1c3b09	-0.6102758
138	0x3fbc574c	1.4714141
139	0x3fdfc605	1.7482306
140	0x3e659396	0.22419581
141	0xbf249c39	-0.64300877
142	0x3fc732af	1.5562342
143	0x3f8d6b12	1.10483
144	0xbf1eef68	-0.62084055
145	0xbf09a6a8	-0.5376992
146	0xbfb0bb1f	-1.3807105
147	0xbfae753b	-1.3629526
148	0xbf096590	-0.536706
149	0xbfc1a07f	-1.5127105
150	0xbeb2f576	-0.34952897
151	0x3ec7cba2	0.39022547
152	0xbd70c30d	-0.058779765
153	0x3dc94ebe	0.09829472
154	0xbdd48b3f	-0.103781216
155	0xbd1d86a2	-0.038458474
156	0xbf18a65d	-0.5962885
157	0xbf008752	-0.5020648
158	0xbefa6c3d	-0.48910704
159	0xbe92f3ab	-0.2870153
160	0x3ad50d5d	0.0016254593
161	0xbf023930	-0.5086851
162	0x3f0763b7	0.5288653
163	0xbed169b4	-0.40900958
164	0x3e8c28db	0.2737492
165	0x3e330aa8	0.17484534
166	0xbd9fdb8f	-0.07805549
167	0x3ec745cb	0.38920435
168	0x3f0537a9	0.52038056
169	0x3e81e2a9	0.2536824
170	0x3e0ac673	0.13552265
171	0x3f27d75e	0.65563
172	0xbf8e7dff	-1.1132201
173	0xbd8283e1	-0.0637281
174	0xbee3a604	-0.44462597
175	0x3ea8a03f	0.32934758
176	0xbdb6a6bb	-0.0891852
177	0xbe964a8f	-0.2935376
178	0x3f4c0167	0.7968964
179	0xbef23906	-0.4730913
180	0x3f56c7a2	0.83898365
181	0x3e3c4256	0.1838468
182	0x3f62647c	0.88434577
183	0xbdbae2fc	-0.09125325
184	0xbeec50af	-0.46155307
185	0x3f4cc7fb	0.79992646
186	0x3f8ffad1	1.1248418
187	0xbece90a5	-0.4034473
188	0xbf6e911e	-0.9319018
189	0x3d89b045	0.06723074
190	0x3d89984e	0.06718503
191	0x3e75549c	0.23958057
192	0x3e2e1459	0.1699995
193	0xbf381482	-0.7190629
194	0x3e8e7bbe	0.27828783
195	0x3e49fd71	0.19725586
196	0x3f186d57	0.5954184
197	0x3ea7d94a	0.32782966
198	0xbe93c271	-0.28859285
199	0x3e3cbb71	0.18430878
200	0x3e81f927	0.253854
201	0x3ec89c1c	0.39181602
202	0xbd905e49	-0.070492335
203	0x3e4e4dc6	0.20146856
204	0x3f70fc0e	0.94134605
205	0x3f4e8e9d	0.8068636
206	0x3dfecf6e	0.12441908
207	0x3ece7bef	0.4032893
208	0x3cfcd0f4	0.030861355
209	0x3dbacf76	0.09121601
210	0x3e3ab0dd	0.1823153
211	0xbf54e0c8	-0.8315549
212	0x3d902c1f	0.070396654
213	0x3f381b20	0.7191639
214	0xbe8f7280	-0.28017044
215	0x3fa18419	1.2618438
216	0x3c074538	0.008256249
217	0x3f6d0d85	0.92598754
218	0xbf29216a	-0.6606661
219	0x3f791118	0.9729171
220	0x3e4f5be5	0.20249899
221	0xbe77a5dc	-0.24184364
222	0xbd31e2bb	-0.043429118
223	0xbeab6942	-0.33478743
224	0x3ed26df4	0.41099513
225	0x3c17028c	0.009216916
226	0xbbcaf8ae	-0.0061941957
227	0x3bb3725c	0.005476279
228	0x3a402434	0.00073296134
229	0x3c8af64d	0.016963148
230	0x3d56c447	0.05243328
231	0x3dcacdb4	0.09902516
232	0x3cbe64e4	0.023241468
233	0x3c116110	0.008873239
234	0xbd90b3be	-0.07065533
235	0x3d89aae3	0.06722047
236	0x3d86e2f4	0.065862566
237	0xbcedbb88	-0.029020086
238	0x3c648c0c	0.013949405
239	0xbd35a3d4	-0.04434569
240	0xbd96306c	-0.073334545
241	0xbcc541a1	-0.024079146
242	0x3c73ce07	0.014880664
243	0x3d4c9b16	0.04995259
244	0x3d5976ac	0.05309169
245	0x3d07e01d	0.033172715
246	0x3d66b331	0.056323234
247	0x3d4a494c	0.049386308
248	0xbd75084e	-0.059822373
249	0x3ca264ba	0.01982342
250	0xbc7f0165	-0.015564297
251	0x3ce2adc6	0.027670752
252	0xbd0fca15	-0.03510483
253	0x3c240627	0.010011232
254	0x3d9fdc41	0.07805682
255	0x3e03715a	0.12836209

_orig_mod.lin1.bias f4 [500]
0	0x3e84b964	0.25922692
1	0x3f217898	0.63074636
2	0x3eea0ef0	0.4571452
3	0x3f73b8e8	0.9520402
4	0xbe897d60	-0.26853466
5	0x3f34bcb6	0.7060045
6	0xbf21ed3c	-0.63252616
7	0xbec268a9	-0.37970474
8	0x3eeeea8b	0.46663317
9	0xbff9ea11	-1.9524556
10	0x3f5fc72d	0.87413293
11	0x3f1fcc17	0.6242079
12	0x3d5dbc38	0.054134578
13	0x3e290d0f	0.16508888
14	0x3fb7173a	1.4303963
15	0x3eaf5d5b	0.34250912
16	0x3f95da1b	1.1707186
17	0x3f680106	0.9062656
18	0xbf791a11	-0.973054
19	0xbfc80b9e	-1.5628545
20	0xbeaa4869	-0.3325837
21	0x3e888357	0.26662704
22	0xbf07ca34	-0.5304291
23	0x3ebaaeae	0.36461395
24	0xbf39fda7	-0.7265267
25	0x3e86186b	0.26190504
26	0x3f5dc496	0.8662809
27	0x3eb014b1	0.34390786
28	0x3bc4ab07	0.0060018334
29	0xbef628ad	-0.48077908
30	0xbda94881	-0.08265782
31	0xbef0d845	-0.4704
32	0xbfef36a1	-1.8688546
33	0x3e6564b6	0.224017
34	0xc0433354	-3.0500078
35	0xbfcfbb40	-1.6229019
36	0x3e75f9d7	0.24021088
37	0xbe9dbbfd	-0.30807486
38	0xbf944ed7	-1.158656
39	0x3e9fffdd	0.31249896
40	0xbe3a1a22	-0.18174031
41	0xbfba255f	-1.4542655
42	0x3e26972a	0.16268602
43	0x3f369e11	0.7133494
44	0xbe0b91e1	-0.13629867
45	0x3db66063	0.08905103
46	0x3f0418a6	0.5160011
47	0xbed3874d	-0.41314164
48	0xbf3778c6	-0.7166866
49	0xbed32e59	-0.41246298
50	0x3fc2f775	1.5231768
51	0x3fd8768b	1.6911176
52	0x3e6b3f1a	0.2297329
53	0xc00f76a0	-2.2416153
54	0x3ea273c0	0.31728935
55	0xbf2d04ec	-0.67585635
56	0x3f8de691	1.1085988
57	0x3f478714	0.7794049
58	0xbde30e8e	-0.110867605
59	0xbf1186b9	-0.56846195
60	0xbead908d	-0.33899346
61	0xbf8d4d5e	-1.1039236
62	0xbe7a4b48	-0.2444278
63	0xbeef44ed	-0.46732274
64	0xbf3ec4a6	-0.7451881
65	0x3f88b2de	1.0679586
66	0x3e1b904a	0.1519176
67	0x3edfa0b9	0.4367731
68	0xc01874f2	-2.3821378
69	0xbf77b21e	-0.9675616
70	0xbf7ae6d8	-0.9800849
71	0xbdf5b318	-0.1199705
72	0xbe65e5e5	-0.22450979
73	0xbe4b7ae6	-0.19871101
74	0xbf1a042c	-0.60162616
75	0xbf1c19ac	-0.6097667
76	0x3ee3ede2	0.44517428
77	0xbe96fa5b	-0.2948788
78	0xbfa78706	-1.3088081
79	0x3f7d71c8	0.9900174
80	0x3dc73eda	0.09728785
81	0x3cc723a4	0.024308987
82	0xbead4c34	-0.338472
83	0xbf2dae15	-0.67843753
84	0xbfa5131d	-1.2896458
85	0x3f696c6e	0.91181076
86	0x3e810361	0.2519789
87	0xbed6d12f	-0.4195647
88	0xbfda9bb8	-1.7078772
89	0xbf35abaf	-0.70965093
90	0x3ef3112e	0.47474045
91	0x3c9012d8	0.01758711
92	0xbf8d944a	-1.1060879
93	0x3eafe8ca	0.3435729
94	0xbf646d49	-0.89229256
95	0xbf2a7430	-0.6658354
96	0x3f217f17	0.6308455
97	0x3ea1038f	0.31448027
98	0x3c1637ba	0.00916856
99	0xbe56e93d	-0.20987411
100	0x3fb287d7	1.3947705
101	0x3ef99e99	0.48753813
102	0xbecb8dc4	-0.39756596
103	0xbed7aef6	-0.42125672
104	0xbec35942	-0.38154036
105	0xbf5f374f	-0.8719377
106	0xbfeb942c	-1.8404593
107	0xbeb5ab4e	-0.35482258
108	0xc00aaf44	-2.1669474
109	0xbd6b033d	-0.057376135
110	0x3fcaed78	1.585372
111	0x3f425885	0.7591632
112	0xbf99397e	-1.197067
113	0x3f351cb4	0.7074692
114	0x3fb7788b	1.4333662
115	0xbdea492b	-0.11439737
116	0xbfbc338d	-1.4703232
117	0xbe6eaba6	-0.23307666
118	0xbfeb3cc6	-1.8377922
119	0xc015c101	-2.339905
120	0x3e7d98a3	0.24765258
121	0xbe428d01	-0.18999101
122	0x3f9d8bf9	1.2308341
123	0x3f033292	0.5124904
124	0xbf90b369	-1.1304752
125	0x3eb86c1a	0.36019975
126	0x3e992a6c	0.29915178
127	0xbfb9e18f	-1.452196
128	0xbfadc94f	-1.357706
129	0x3fc429ba	1.5325234
130	0xbd6e54af	-0.05818623
131	0x3faa677e	1.3312833
132	0xbeee937f	-0.46596906
133	0xbfa3c29a	-1.2793763
134	0xbe97b3d0	-0.29629374
135	0x3e0bf3e7	0.1366726
136	0x3f32a9c7	0.6979031
137	0xbe39a14c	-0.18127936
138	0xbfc8d296	-1.5689266
139	0x3e6e0278	0.23243129
140	0x3f59b7e1	0.850462
141	0xbf875e2f	-1.0575618
142	0x3f3bafac	0.7331493
143	0xbfcc5c60	-1.5965691
144	0x3f00fd3c	0.50386405
145	0x3e176355	0.14783986
146	0x3f243c4a	0.64154494
147	0xbebbe156	-0.36695355
148	0xbfb80088	-1.4375162
149	0x3ec5cb97	0.3863189
150	0xbe9d9eb6	-0.3078515
151	0x3f6aad86	0.91671026
152	0xbf9bd6b9	-1.2174903
153	0x3f8c23cc	1.0948424
154	0xbf4db04e	-0.80347145
155	0xbdbc2431	-0.091865905
156	0x3f0179d7	0.5057654
157	0xbecca97e	-0.39973062
158	0xbfa4da96	-1.2879207
159	0xbe0b0400	-0.13575745
160	0xbc24cdc0	-0.01005882
161	0x3f25e6a1	0.64805037
162	0xbf10cf78	-0.5656657
163	0xbfa8b7c0	-1.3181076
164	0x3f48135f	0.7815456
165	0x3e8e8359	0.27834585
166	0xbf87ab2f	-1.0599116
167	0xbf9d7d9f	-1.2303962
168	0x3dddf2c8	0.108373225
169	0xbf281506	-0.6565708
170	0xbf7709a5	-0.9649909
171	0xbf56ff3e	-0.8398322
172	0xbd90d75a	-0.07072325
173	0x3f46cf91	0.7766047
174	0xbf050940	-0.5196724
175	0xbf0b855c	-0.54500365
176	0x3f7328cf	0.94984144
177	0x3f83c2be	1.0293806
178	0xbfc2b654	-1.5211892
179	0xbe6319db	-0.22177832
180	0xbecd46a2	-0.4009295
181	0x3e039823	0.12851004
182	0xbf847eeb	-1.0351232
183	0xbea19c8d	-0.3156475
184	0x4023a1bb	2.5567462
185	0x3f78a84c	0.971318
186	0xbf3a8b52	-0.72868836
187	0xbd55df6c	-0.052215025
188	0x3f387fe6	0.7207016
189	0xbbf104e2	-0.0073553184
190	0x3edd7e0c	0.4326023
191	0xbeaa10e9	-0.33216026
192	0xbf6f480b	-0.93469304
193	0xbec7b6e4	-0.39006722
194	0xbfe84a4c	-1.8147674
195	0xbfa22193	-1.2666496
196	0xbe20d620	-0.15706682
197	0xbea06bad	-0.3133215
198	0x3f11af58	0.5690818
199	0x3e5b9240	0.21442509
200	0x3e8e408c	0.2778362
201	0x3d4febe0	0.050762057
202	0x3ddd8849	0.1081701
203	0xc01ccf00	-2.4501343
204	0xbea76ed4	-0.32701743
205	0xbf0776d5	-0.529157
206	0xbf527b57	-0.8221945
207	0x3d8100bb	0.062989675
208	0x3f18f207	0.59744304
209	0x402dbe55	2.714742
210	0x3ff92ddc	1.946712
211	0xbfaabb20	-1.3338356
212	0xbf2fa1cd	-0.68606263
213	0xbffb190d	-1.961702
214	0x3f278bf3	0.6544792
215	0x3f9e786d	1.2380501
216	0x3daec7f0	0.08534229
217	0x3de65593	0.11246791
218	0x3ecb9916	0.39765233
219	0x3e7b826e	0.24561474
220	0xbe5dcd3e	-0.21660325
221	0x3e7528fb	0.23941414
222	0xbf0f6d7e	-0.56026447
223	0xbe557baa	-0.20847955
224	0x3e1ff037	0.15618978
225	0xbe365d86	-0.17809114
226	0xbfec0209	-1.8438121
227	0xbfa1ca59	-1.2639877
228	0xbfe6bcd7	-1.8026379
229	0x3f3fecd8	0.7497077
230	0xbdf6cbb3	-0.12050571
231	0x3ec95821	0.3932505
232	0x3e3849e6	0.1799694
233	0x3c93264c	0.017962597
234	0x3ec6adc9	0.38804463
235	0xbf57ddfa	-0.84323084
236	0xbf3ff9c1	-0.7499047
237	0x3fbc023b	1.4688181
238	0xbede04bd	-0.4336299
239	0xbe5dbe2e	-0.21654579
240	0xbe164ca1	-0.14677669
241	0x3d4be111	0.049775187
242	0x3f0c75fc	0.5486753
243	0x3f63de71	0.89011294
244	0x3cc51d45	0.024061808
245	0x3fd52f87	1.6655129
246	0x3e682edf	0.2267413
247	0x3f1fcac9	0.624188
248	0x3f5454ec	0.8294208
249	0x3f4ed254	0.80789685
250	0xbedcc023	-0.4311534
251	0x3dab9633	0.083782576
252	0x3f18caf9	0.5968471
253	0xbf92a9c8	-1.1458063
254	0x3fcca09b	1.5986513
255	0x3f677204	0.9040835

_orig_mod.lin2.weight f4 [300, 500]
0	0xbd8edc5f	-0.06975626
1	0xbd99c20d	-0.075077154
2	0xbac88426	-0.0015298172
3	0xbe942bad	-0.28939572
4	0x3c7f9306	0.015599018
5	0x3bb646be	0.0055626323
6	0x3d7fd4f1	0.062458936
7	0xbb14b9f2	-0.002269384
8	0xbd02a31b	-0.03189383
9	0x3d2f2519	0.04275999
10	0x3c3230de	0.010875909
11	0xbbabeab2	-0.0052464837
12	0xbd9bf138	-0.07614368
13	0xba3db190	-0.00072362367
14	0xbc8b4461	-0.017000379
15	0xbd065eb5	-0.032805163
16	0xbd454c8f	-0.048168715
17	0x38db13c2	0.00010446414
18	0x3dc3e593	0.09565272
19	0x3de57b1e	0.11205123
20	0xbbd1e318	-0.0064052455
21	0xbda049e9	-0.07826597
22	0x3d19c788	0.037543803
23	0xbd981894	-0.07426563
24	0xbd03b999	-0.03215942
25	0xbd9bee71	-0.076138385
26	0xbd813a9e	-0.063100085
27	0xbcfb340a	-0.030664463
28	0xbcf28731	-0.02960548
29	0x3e51ea0a	0.20499435
30	0x3d90a670	0.070629954
31	0xbc17f3c6	-0.009274429
32	0x3d00d6d4	0.031454876
33	0xba954959	-0.0011389657
34	0x3c9a7add	0.018857414
35	0x3d645e73	0.055754136
36	0x3d387954	0.045037583
37	0x3abe25fb	0.0014507169
38	0xbc880746	-0.01660503
39	0xbd434be5	-0.0476798
40	0x3cfe88de	0.031071123
41	0x3e81fde2	0.2538901
42	0xbb398e50	-0.0028313585
43	0x3c9c718f	0.019097118
44	0xbd1cdb70	-0.03829521
45	0xbc7e21fb	-0.015511031
46	0xbcdb46c3	-0.02676714
47	0x3ba9cf2a	0.0051821666
48	0x3e028aa3	0.12748198
49	0x3e251f2e	0.16125175
50	0xbd1d0cf9	-0.03834245
51	0xbd4d5a48	-0.050134927
52	0x3cbcf2bd	0.023064965
53	0xbd2edd1c	-0.042691335
54	0xbe372b37	-0.17887579
55	0x3d18608d	0.037201453
56	0xbd69ed00	-0.057110786
57	0xbe02ab74	-0.12760717
58	0xbcadf308	-0.02123405
59	0xbca62384	-0.020280607
60	0x3e2e9482	0.17048839
61	0x3cc0443e	0.02347004
62	0xbcc0a4c8	-0.023516074
63	0x3def6dbc	0.11690852
64	0x3c5f1385	0.013615494
65	0xbd17888a	-0.03699545
66	0x3c791aed	0.0152041735
67	0x3cd1c1a9	0.02560504
68	0x3d6e82ea	0.058230318
69	0x3ad11658	0.0015952094
70	0x3da95c86	0.082696006
71	0xbc2b5ef2	-0.010459648
72	0x3c53260d	0.01288749
73	0xbd4faa77	-0.050699677
74	0xbd909191	-0.070590146
75	0x3d30fa5a	0.043207504
76	0x3cebbabf	0.02877557
77	0xbd646571	-0.055760805
78	0xbaa30c82	-0.0012439641
79	0xbd66453e	-0.05621838
80	0x3da05b9a	0.078299716
81	0x3d3ed428	0.046589047
82	0x3e2d1011	0.1690066
83	0x3be1b6d6	0.006888251
84	0x3dc89259	0.097935386
85	0xbc91ce77	-0.017798645
86	0xbbe408f3	-0.0069590746
87	0xbbaa9110	-0.005205281
88	0xbdafee0b	-0.08590325
89	0x3db28716	0.08717172
90	0xbd298e17	-0.041395273
91	0x3db0232a	0.08600457
92	0x3d3e259f	0.046422597
93	0xbec3d761	-0.3825026
94	0x3dd1d1e7	0.10245114
95	0x3e073ec7	0.13207541
96	0xbd9f9aeb	-0.0779322
97	0x3c2de7f5	0.010614385
98	0xbd9b3c2f	-0.075798385
99	0x3c3359d5	0.010946711
100	0x3befa622	0.0073135057
101	0xbdac5492	-0.08414568
102	0x3db84166	0.08996849
103	0x3cfd41fb	0.030915251
104	0x3bf5abba	0.007497278
105	0x3cf13dfe	0.029448505
106	0x3e6ba3f0	0.23011756
107	0xbc900f72	-0.01758549
108	0x3d5ea2c3	0.05435444
109	0x3c3f3e35	0.011672546
110	0x3cc6df0e	0.024276283
111	0xbb01b174	-0.0019789608
112	0xbd76eeb4	-0.06028624
113	0xbeab88f8	-0.33502936
114	0xbf821c29	-1.0164844
115	0x39f5f008	0.0004690888
116	0x3d4d5be4	0.05013646
117	0x3cd164c7	0.02556075
118	0x3cab40d5	0.020904938
119	0xbc3049c3	-0.010759774
120	0x3c8ab00c	0.016929649
121	0x3d3ce399	0.04611549
122	0xbd8f69e1	-0.07002617
123	0x3b8a82be	0.0042270115
124	0x3e95253b	0.29129967
125	0xbcf55afc	-0.029950611
126	0x3d428a21	0.04749501
127	0x3c7d73be	0.01546949
128	0xbd3aa96a	-0.045571722
129	0xc038868a	-2.8832116
130	0xbc4dc2bd	-0.012558636
131	0xbd7fa7e3	-0.06241597
132	0x3d9491d8	0.0725438
133	0x3d362c69	0.044475947
134	0x3d4c9f66	0.0499567
135	0xbcb17b65	-0.021665284
136	0xbd468313	-0.048464846
137	0x3c399427	0.011326826
138	0x3dde5d0d	0.10857592
139	0xbb8f05df	-0.0043647136
140	0xbd5e9f27	-0.054351
141	0xbdad3ea2	-0.08459212
142	0xbdd61b8c	-0.10454473
143	0x3df78a78	0.12086958
144	0xbd09c6ea	-0.033636965
145	0xbd877016	-0.066131756
146	0x3d9885b4	0.07447377
147	0xbdfc8056	-0.12329166
148	0x3d4b858f	0.04968792
149	0xbc1debc1	-0.009638728
150	0x3ca5d2a1	0.020242037
151	0xbdb34a22	-0.08754374
152	0x3d72d60b	0.05928616
153	0xbd5aa438	-0.053379267
154	0x3e441dba	0.19151965
155	0xbda76dda	-0.081752494
156	0xbcad4fe9	-0.021156268
157	0x3db28dc5	0.08718447
158	0x3bed4191	0.007240482
159	0xbdf030b2	-0.11728038
160	0xbd44fbbf	-0.048091646
161	0x3d07e9fe	0.033182137
162	0xbd6b0c71	-0.057384912
163	0x3d2c4d5a	0.042065956
164	0xbe1e7e62	-0.15477899
165	0xbd9299bc	-0.07158229
166	0x3ccbb2c8	0.024865523
167	0x3d495ff2	0.049163766
168	0xbb327cf9	-0.0027235134
169	0xbc7736e8	-0.015088774
170	0xbd134203	-0.035951626
171	0x3d5efd56	0.05444082
172	0x3b9eb1c2	0.0048429677
173	0xbdb0c8d8	-0.08632058
174	0x3cf45878	0.029827341
175	0xbc55ac47	-0.013041562
176	0xbde30c1c	-0.11086294
177	0x3d4682fe	0.048464768
178	0xbdadd2ad	-0.08487449
179	0x3daa9d87	0.08330827
180	0x3ca7cdb0	0.020483822
181	0xbed73a93	-0.42036876
182	0xbd0009ab	-0.03125922
183	0xbc848728	-0.016177729
184	0x3a21c277	0.000617064
185	0xbdf9e930	-0.1220268
186	0xbd752aa3	-0.059855115
187	0x3d30619e	0.043061845
188	0xbd026984	-0.03183891
189	0xbd78df64	-0.060759917
190	0xbd5b66c9	-0.05356482
191	0x3d51fb78	0.05126521
192	0x3d00a6e0	0.031409144
193	0x3a69742c	0.00089055556
194	0x3d2cd7f6	0.042198144
195	0xbcb71720	-0.022349894
196	0x3d1a531c	0.037676916
197	0x3d8f8449	0.07007653
198	0xbd76cdf9	-0.060255025
199	0x3ccd8347	0.025087012
200	0x3da69ab9	0.0813498
201	0xbd03f21b	-0.03221331
202	0x3c16417b	0.009170885
203	0x3c21a18a	0.009865174
204	0x3d2e6ace	0.042582326
205	0xbce438be	-0.027859088
206	0x3d997e7e	0.074948296
207	0xbb95f402	-0.004576207
208	0xbd36f0d9	-0.044663284
209	0x3d2d4138	0.042298526
210	0x3dc76f43	0.09738018
211	0x400712d7	2.110525
212	0x3c8e65a0	0.017382443
213	0x3d234cfd	0.039868344
214	0xbdddd029	-0.10830719
215	0xbd663d16	-0.0562106
216	0x3d56df51	0.052459065
217	0xbd15d7b3	-0.03658266
218	0xbd374066	-0.04473915
219	0xbdbdb969	-0.0926388
220	0x3beeb0d6	0.007284264
221	0xbd01c40d	-0.03168111
222	0x3e5500db	0.20801108
223	0x3c698a68	0.01425419
224	0xb8890669	-6.533863e-05
225	0x3e031ee0	0.12804747
226	0x3d89b177	0.06723302
227	0x3edd32fd	0.43202963
228	0xbd3411ed	-0.043962408
229	0xbc9bf5c9	-0.019038098
230	0x3dda1b53	0.10649743
231	0xbd9cd5ef	-0.07657992
232	0x3bf29fbb	0.0074042953
233	0x3ca7351d	0.020411069
234	0xbc67218b	-0.014107118
235	0xbcc2822b	-0.02374371
236	0xbca64735	-0.020297626
237	0xbd06e74b	-0.032935422
238	0x3d242f43	0.040084135
239	0x3b9b5c95	0.0047412612
240	0xbd6af331	-0.05736083
241	0xbd7f8329	-0.062380943
242	0xba7b8a87	-0.00095955323
243	0x3c2261d7	0.009911022
244	0xbd437b83	-0.04772521
245	0xbdac9d5d	-0.08428452
246	0xbe968470	-0.29397917
247	0xbe116d59	-0.14201869
248	0x3d0a3dea	0.033750452
249	0x3ba489b6	0.0050212992
250	0xbc6e02d1	-0.014527039
251	0x3c825954	0.015911736
252	0x3d8fc058	0.070191085
253	0x3bdfc8a5	0.0068293386
254	0x3cf21735	0.029552082
255	0xbe2f2db3	-0.17107277

_orig_mod.lin2.bias f4 [300]
0	0xc03ff683	-2.999421
1	0xbff269bf	-1.8938521
2	0x3f30a992	0.69008744
3	0xc06a05ff	-3.656616
4	0xc06fce5d	-3.7469704
5	0xc0487e3a	-3.1327043
6	0x3da84fed	0.0821837
7	0xc00a87ef	-2.1645467
8	0x3d70409a	0.05865536
9	0xc0671f6f	-3.6112936
10	0xc07d5a3e	-3.958633
11	0xc05d7c9f	-3.4607313
12	0xc0481abb	-3.1266315
13	0xc04e5903	-3.2241828
14	0xc08483c9	-4.141087
15	0xc03d1a3b	-2.954726
16	0xc05c15ee	-3.4388385
17	0xc038d462	-2.8879628
18	0xc05cb4bf	-3.4485319
19	0xbfc8bc91	-1.5682546
20	0xbf473bcb	-0.7782561
21	0xc03da1e6	-2.9630065
22	0xbfad3ce7	-1.3534211
23	0xbfe469b5	-1.7844759
24	0xc053d466	-3.3098388
25	0xc054a09b	-3.3223026
26	0xc022657b	-2.5374439
27	0xc0781a32	-3.8765988
28	0xc028401f	-2.6289136
29	0xbf6da27c	-0.92826056
30	0xbe8507d6	-0.2598254
31	0xc06c26d8	-3.6898708
32	0xc03b26d5	-2.924245
33	0xc00604ad	-2.0940354
34	0xc0415ef4	-3.0214205
35	0xc0590975	-3.3912022
36	0xc07cb9cd	-3.9488404
37	0xc07d8aa4	-3.961587
38	0xc03f66f4	-2.9906588
39	0xc07924ed	-3.8928788
40	0xc03727b2	-2.8617978
41	0xbf5d80c8	-0.8652463
42	0xc08ab138	-4.334133
43	0xc0684f4b	-3.6298397
44	0xc03ce389	-2.9513876
45	0xc04ea70e	-3.2289462
46	0xbfe21638	-1.7663031
47	0xc071d6c5	-3.7787335
48	0xc04f8249	-3.242327
49	0x3f65e6ff	0.898056
50	0x3e16402e	0.1467292
51	0xbe4680e5	-0.19385107
52	0xbe08241b	-0.13295023
53	0x3f4b6393	0.79448813
54	0xbdf04bec	-0.11733231
55	0xbec4c93d	-0.38434783
56	0x3d82d901	0.063890465
57	0x3f1ef771	0.62096316
58	0xbfcc3e41	-1.5956498
59	0xbf8398b3	-1.0280975
60	0x3f2a596b	0.6654269
61	0x3eaded63	0.33970174
62	0x3f1f7ff0	0.6230459
63	0x3f3e4362	0.7432157
64	0x3d84df9a	0.06487961
65	0xbfc9a8d9	-1.5754653
66	0x3e7b69fa	0.24552146
67	0x3f284968	0.6573701
68	0x3f5bd751	0.8587542
69	0x3ebe10bd	0.37122145
70	0xbfa0bd9d	-1.2557865
71	0xbe81c73d	-0.2534732
72	0xc00be4c5	-2.185838
73	0xbf101ab0	-0.5629072
74	0xc094c9ca	-4.6496325
75	0xc0741de4	-3.8143244
76	0xc056b993	-3.3550766
77	0xc01da16a	-2.462977
78	0xc05a5dc1	-3.4119723
79	0xc022ab36	-2.5417
80	0xc019520e	-2.3956332
81	0xc00eac37	-2.2292612
82	0xc013d0f8	-2.3096294
83	0xc03e4fd3	-2.973622
84	0xc0404d83	-3.004731
85	0xc03f4f46	-2.9892135
86	0xc040bd7c	-3.0115652
87	0xc03e7553	-2.975911
88	0xc03f587d	-2.989776
89	0xc041daec	-3.028987
90	0xc03f253f	-2.9866483
91	0xc041f281	-3.0304263
92	0xc03ece6e	-2.9813495
93	0xc0405a63	-3.0055168
94	0xc040739b	-3.007056
95	0xc03e67ff	-2.9750974
96	0xc0405c49	-3.0056326
97	0xc03fff28	-2.9999485
98	0xc0401792	-3.0014386
99	0xc03fe9a1	-2.9986346
100	0xc03f7d18	-2.99201
101	0xc0403266	-3.003076
102	0xc04093c3	-3.0090187
103	0xc0404b5e	-3.0046
104	0xc03f2c87	-2.9870927
105	0xc0405faa	-3.0058389
106	0xc04082e3	-3.0079887
107	0xc03eef09	-2.9833395
108	0xc03fcfde	-2.9970622
109	0xc03f4537	-2.9885995
110	0xc03fc9c8	-2.9966908
111	0xc0409c7b	-3.0095508
112	0xc040a488	-3.0100422
113	0xc0411385	-3.0168164
114	0xc03e9aca	-2.9781976
115	0xc03f7eb4	-2.9921083
116	0xc0401f59	-3.0019133
117	0xc04070f9	-3.0068953
118	0xc04041b3	-3.00401
119	0xc04003cb	-3.0002315
120	0xc03ed472	-2.9817166
121	0xc040abaa	-3.0104775
122	0xc03e196d	-2.9703019
123	0xc03f8955	-2.992757
124	0xc03e7fb3	-2.9765441
125	0xc040a7f7	-3.0102518
126	0xc03fde72	-2.997952
127	0xc03f04fb	-2.984679
128	0xc03fb048	-2.9951344
129	0xc03f4370	-2.988491
130	0xc03f3b6a	-2.9880013
131	0xc0402d7e	-3.0027766
132	0xc03f8212	-2.9923139
133	0xc0406e52	-3.0067334
134	0xc0420aa1	-3.0318987
135	0xc040a366	-3.009973
136	0xc0408e02	-3.0086675
137	0xc040ad0b	-3.0105617
138	0xc03f34aa	-2.9875894
139	0xc0404183	-3.0039985
140	0xc03fa986	-2.994722
141	0xc0405f78	-3.005827
142	0xc03f3574	-2.9876375
143	0xc03ef48c	-2.983676
144	0xc03fb9ca	-2.9957147
145	0xc03fb096	-2.995153
146	0xc040121a	-3.0011048
147	0xc03f30b0	-2.9873466
148	0xc03f7ecd	-2.9921143
149	0xc0401fd6	-3.001943
150	0xc03f94c6	-2.9934554
151	0xc0427300	-3.038269
152	0xc03f50fd	-2.9893181
153	0xc03feef3	-2.9989593
154	0xc03f095f	-2.984947
155	0xc040086e	-3.0005145
156	0xc03e69e9	-2.9752142
157	0xc041363e	-3.0189357
158	0xc03f2144	-2.9864054
159	0xc03eacf8	-2.9793072
160	0xc03f3de8	-2.9881535
161	0xc0408011	-3.0078166
162	0xc040972c	-3.0092268
163	0xc03ffa5a	-2.9996552
164	0xc03fb95a	-2.995688
165	0xc03fe884	-2.9985666
166	0xc03ffb1b	-2.9997013
167	0xc03f7e0d	-2.9920685
168	0xc03f7643	-2.9915931
169	0xc040ef68	-3.0146122
170	0xc04069b6	-3.006452
171	0xc040f7a3	-3.0151145
172	0xc03ff581	-2.9993594
173	0xc03ebd03	-2.9802864
174	0xc03eedb8	-2.9832592
175	0xc03f85cc	-2.9925413
176	0xc03ee79f	-2.982887
177	0xc0412323	-3.0177696
178	0xc03f5a0c	-2.989871
179	0xc03f91ef	-2.993282
180	0xc03fc09a	-2.9961305
181	0xc03f44f8	-2.9885845
182	0xc03f974c	-2.9936094
183	0xc03f47b7	-2.9887521
184	0xc03fc211	-2.9962199
185	0xc0413f09	-3.0194724
186	0xc0407e95	-3.007726
187	0xc0402f65	-3.0028927
188	0xc03f667c	-2.9906301
189	0xc0403b1c	-3.0036077
190	0xc03f9d51	-2.9939768
191	0xc0403aff	-3.0036008
192	0xc03e9442	-2.977799
193	0xc0400c37	-3.0007455
194	0xc04018ef	-3.0015218
195	0xc0402f38	-3.002882
196	0xc03e4b26	-2.9733367
197	0xc04056ff	-3.0053098
198	0xc03f5929	-2.989817
199	0xc03ef86e	-2.983913
200	0xc03f37ef	-2.987789
201	0xc03f79ed	-2.9918168
202	0xc040bce0	-3.011528
203	0xc040c42e	-3.0119739
204	0xc040de87	-3.013582
205	0xc040b9aa	-3.011332
206	0xc0405950	-3.0054512
207	0xc03fb500	-2.9954224
208	0xc0409981	-3.0093691
209	0xc03f3a5e	-2.9879375
210	0xc03fa9bd	-2.994735
211	0xc04065ac	-3.0062056
212	0xc03ee519	-2.982733
213	0xc03f539d	-2.9894783
214	0xc03ff024	-2.999032
215	0xc03f745e	-2.9914775
216	0xc03ff08b	-2.9990566
217	0xc03ff0a5	-2.9990628
218	0xc03f68f6	-2.9907813
219	0xc03fae8d	-2.9950287
220	0xc03f14ab	-2.9856365
221	0xc041362d	-3.0189316
222	0xc03f736e	-2.9914203
223	0xc03f9771	-2.9936182
224	0xc040d78f	-3.0131567
225	0xc03f3d06	-2.9880996
226	0xc0415011	-3.0205119
227	0xc03fa705	-2.994569
228	0xc04148a3	-3.0200584
229	0xc03fc4eb	-2.996394
230	0xc040239c	-3.0021734
231	0xc0404278	-3.004057
232	0xc03fdfc4	-2.9980326
233	0xc03fc353	-2.9962966
234	0xc03f4c13	-2.9890182
235	0xc03f501d	-2.9892647
236	0xc040beb5	-3.0116398
237	0xc03f89d9	-2.9927886
238	0xc040031c	-3.0001898
239	0xc03f1cfc	-2.986144
240	0xc03ec548	-2.980791
241	0xc03fb87f	-2.9956357
242	0xc03fad2f	-2.9949453
243	0xc03f9372	-2.9933743
244	0xc03eebc7	-2.9831407
245	0xc0402da7	-3.0027864
246	0xc03ec5b9	-2.980818
247	0xc03f55cc	-2.9896116
248	0xc0407eb9	-3.0077345
249	0xc040c72f	-3.0121572
250	0xc03f5b1c	-2.9899359
251	0xc03ed817	-2.981939
252	0xc03ee865	-2.9829342
253	0xc04095e1	-3.009148
254	0xc03e8f9e	-2.9775157
255	0xc03fa6e4	-2.9945612

_orig_mod.lin3.weight f4 [83, 300]
0	0x3c756c01	0.014979363
1	0xbc18125a	-0.009281719
2	0xbd14af6b	-0.036300104
3	0x3cf526fc	0.029925816
4	0x3d255c32	0.040371127
5	0x3be2fe04	0.0069272537
6	0xbcc940c2	-0.024567012
7	0xbd3b286e	-0.045692854
8	0x3d149485	0.03627445
9	0xbb421243	-0.0029612936
10	0x3d0528e2	0.032509692
11	0x3d12609c	0.035736665
12	0xbc6734f8	-0.01411175
13	0x3c859165	0.016304681
14	0x3baab447	0.005209479
15	0xbcc83530	-0.024439424
16	0xbc299435	-0.010350277
17	0xbd341c7f	-0.04397249
18	0xbac5b15e	-0.0015082767
19	0xbcc74172	-0.024323199
20	0x3c7bc2ff	0.015366315
21	0xbcbfcf4f	-0.023414282
22	0xbce737c4	-0.028224833
23	0x3d181c08	0.037136108
24	0x3d5240a0	0.051331162
25	0x3d26a865	0.040687937
26	0x3c836763	0.01604051
27	0x3d4a055e	0.049321525
28	0x3c7361b5	0.014854838
29	0xbd1e6b80	-0.03867674
30	0xbc6a492a	-0.01429967
31	0x3d5dd437	0.054157462
32	0xbd6b1bce	-0.057399563
33	0xbd3a3a79	-0.04546592
34	0xbcc3a78c	-0.023883604
35	0x3c11213d	0.008858022
36	0x3d20b6d1	0.039236847
37	0x3ce0e7c7	0.02745427
38	0xbd6a7fc5	-0.057250757
39	0x3ca43366	0.02004404
40	0xbd5e79c1	-0.054315332
41	0xbd5ce346	-0.053927682
42	0xbd35b745	-0.044364233
43	0xba8813b3	-0.0010381847
44	0xbc91e6e5	-0.017810294
45	0x3b2c6594	0.0026305662
46	0x3ba899f4	0.005145306
47	0x3cd2e59c	0.025744252
48	0xbd281668	-0.041036993
49	0xbd386465	-0.04501762
50	0x3b94aafd	0.004536985
51	0xbb768345	-0.0037614864
52	0x3c34aafb	0.011027093
53	0xbd1eefdb	-0.038802963
54	0x3c4cb521	0.012494356
55	0x3c8f6d41	0.017508151
56	0x3d3546ac	0.04425685
57	0xbd141171	-0.036149446
58	0xbd447ef6	-0.047972642
59	0x3d27648a	0.040867366
60	0x3d4bbd1c	0.049740896
61	0xbd642556	-0.05569967
62	0x3d0ee730	0.034888446
63	0xbc9a7dfb	-0.0188589
64	0x3d1eacaf	0.038738903
65	0x3d4f076f	0.0505442
66	0xbc149d21	-0.009070666
67	0x3be33458	0.00693373
68	0x3d1b6781	0.037940506
69	0x3cc9ddd4	0.024641909
70	0x3cf9fa80	0.030514956
71	0xbd035c8d	-0.032070685
72	0xbce2b909	-0.027676122
73	0x3c267bf0	0.010161385
74	0x3c1d6297	0.009606025
75	0xbc8c4b9e	-0.0171259
76	0x3d42e274	0.047579244
77	0xbd3ef6ed	-0.046622206
78	0x3be1c330	0.0068897232
79	0xbaa44ebd	-0.0012535673
80	0xbb9e9358	-0.004839342
81	0xbd2ca98a	-0.042153873
82	0xbc86e83a	-0.016468156
83	0x3d6b1f66	0.05740299
84	0x3d331202	0.043718345
85	0xbce86907	-0.028370393
86	0x3d1487b6	0.036262237
87	0x3d4b1560	0.04958093
88	0x3caaee1d	0.020865494
89	0xbc82ae12	-0.015952144
90	0xbcbd08b8	-0.023075446
91	0xba24b159	-0.00062825304
92	0x3b009547	0.0019620226
93	0xbd5cac42	-0.053875215
94	0xbd5eecab	-0.054424923
95	0xbd0fac72	-0.035076566
96	0x3caa5014	0.020790137
97	0xbade5d95	-0.0016965145
98	0x3cc85649	0.024455206
99	0xbcaf41c2	-0.02139366
100	0x3caa7bae	0.020810928
101	0xbd1cdcf6	-0.038296662
102	0xbd07d6d5	-0.033163864
103	0x3d654590	0.055974543
104	0x3d425f03	0.04745389
105	0x3ce125b3	0.027483797
106	0xbd3bb500	-0.045826912
107	0xbd181c91	-0.037136618
108	0xbcd79aa4	-0.026318856
109	0x3d46c69d	0.048529256
110	0xbcc51a86	-0.024060499
111	0x3d69a9bd	0.05704664
112	0x3d527266	0.05137863
113	0xbd1e78c7	-0.0386894
114	0xbc72a473	-0.014809716
115	0xbcd65a88	-0.026166216
116	0xbd1a961b	-0.037740808
117	0x3d2484bc	0.040165648
118	0x3d364d6e	0.044507436
119	0x3cf6b98a	0.030117769
120	0xbd656e30	-0.056013286
121	0xbd170ed7	-0.036879387
122	0xbd232a8a	-0.03983549
123	0xbc5168fe	-0.01278138
124	0x3d4d8655	0.050176937
125	0x3d150e32	0.03639049
126	0xbcbb6de8	-0.022879556
127	0xbd620fdd	-0.05519091
128	0xbcd42649	-0.025897162
129	0x3b78e888	0.0037980396
130	0xbd0e58cc	-0.034752652
131	0x3c9d973b	0.019237151
132	0x3c33135f	0.010929911
133	0x3d1b909a	0.0379797
134	0x3cf69708	0.030101314
135	0x3c87cb8f	0.016576556
136	0x3c228392	0.009919064
137	0xbca2ab56	-0.01985709
138	0xbd117595	-0.035512526
139	0xba8b09e0	-0.0010607801
140	0x3d01b016	0.03166207
141	0x3c858fe1	0.016303958
142	0x3c04f54f	0.008115127
143	0x3cb36511	0.021898778
144	0x3cf46dea	0.029837567
145	0xbc803334	-0.015649416
146	0x3d3d5fce	0.046233945
147	0xbba7ab74	-0.0051168744
148	0xbcb477a0	-0.022029698
149	0x3b271a13	0.002549772
150	0xbb8bfc4e	-0.0042720204
151	0xbd2cbb7b	-0.042170983
152	0x3d3ac78b	0.045600455
153	0xbd085b46	-0.03329017
154	0xbcd88925	-0.026432583
155	0x3d63523c	0.055498347
156	0xbd6b7d34	-0.05749245
157	0xbcebc9b9	-0.028782712
158	0x3d62bb16	0.0553542
159	0xbce91fb7	-0.028457506
160	0xbbf3cbae	-0.007440052
161	0x3d4438e3	0.047905814
162	0xbd6aba15	-0.057306368
163	0x3d5ea99c	0.05436097
164	0xbba17b60	-0.0049280375
165	0x3c1b750b	0.009488354
166	0x3d1a83a5	0.037723202
167	0x3cd480ab	0.02594026
168	0x3d41f729	0.04735485
169	0xbc80dab4	-0.015729286
170	0xbc2eb9c7	-0.01066441
171	0x3ce37fbb	0.027770868
172	0xbce7c1ba	-0.028290618
173	0x3d029e72	0.031889386
174	0xbd0cd89b	-0.03438626
175	0xbd489a76	-0.04897543
176	0x3bbfed42	0.0058571408
177	0x3ccb1b8b	0.024793407
178	0x3bfa70f5	0.00764286
179	0xbc816557	-0.015795393
180	0x3c8f7e72	0.017516349
181	0xbb5311c0	-0.0032206625
182	0x3d161c5b	0.036648136
183	0xbc1d7b2f	-0.009611889
184	0x3b50cf21	0.003186174
185	0x3d13cc0f	0.036083277
186	0xbd43e128	-0.047822148
187	0xbd31d999	-0.043420408
188	0xbd1556b1	-0.03645963
189	0xbcd3bcb4	-0.025846817
190	0xbd17bac5	-0.03704335
191	0x3cc49971	0.023998948
192	0x3c4dd429	0.01256279
193	0x3d2efeff	0.042723652
194	0xbd06c70d	-0.032904673
195	0xbc0fcd78	-0.008777015
196	0x3caea8f7	0.021320803
197	0x3cd91d99	0.026503371
198	0xbd456cdc	-0.04819952
199	0x3d4c8c84	0.049938694
200	0x3cfd6220	0.030930579
201	0xbd54b537	-0.051930632
202	0xbcad819b	-0.021179965
203	0x3d40af1a	0.04704199
204	0x3d1279bf	0.035760637
205	0x3d4b167c	0.04958199
206	0x3d67850f	0.05652338
207	0xbd1f9c47	-0.038967397
208	0x3cb26503	0.021776682
209	0x3bff7013	0.0077953427
210	0xbc20ddca	-0.009818504
211	0x3cfc367b	0.030787697
212	0x3d49fe5b	0.049314838
213	0x3d27768d	0.040884543
214	0xbd0107f3	-0.03150172
215	0x3d0ba2cd	0.034090806
216	0x3d6196a7	0.055075314
217	0xbce7dd09	-0.02830364
218	0xbc606644	-0.013696257
219	0x3bb242ce	0.0054400926
220	0xbd4fb5f2	-0.050710626
221	0x3c27ade0	0.010234326
222	0x3bad7616	0.005293618
223	0x3d2d1ea2	0.04226554
224	0x3ce4caea	0.027928788
225	0xbd158bec	-0.036510393
226	0xbcf1cace	-0.02951565
227	0xbc8ffc5a	-0.017576385
228	0xbcab218a	-0.020890016
229	0xbd176dc9	-0.036969934
230	0x3bcec921	0.0063105975
231	0xbc4ee0a8	-0.012626804
232	0xbc8dd992	-0.01731566
233	0x3d58f278	0.05296561
234	0x3ce4fd00	0.027952671
235	0x3c01d916	0.0079252925
236	0xbc87a793	-0.016559398
237	0x3c1f9f77	0.009742609
238	0x3c9ac325	0.01889188
239	0x3cab0b71	0.02087948
240	0xbd3851bf	-0.044999834
241	0x3cabfbda	0.020994116
242	0xbacd78c4	-0.001567625
243	0x3c32a50a	0.010903606
244	0x3b7946df	0.0038036627
245	0xbd5582a7	-0.052126553
246	0xbc9fe214	-0.019516982
247	0x3d42d619	0.04756746
248	0x3cb7b6f0	0.022426099
249	0xbd2bb2fb	-0.041918736
250	0x3d24d4e8	0.040242106
251	0xbc13997f	-0.009008764
252	0x3d38543d	0.04500221
253	0x3cff37f9	0.03115462
254	0xbca3f78f	-0.020015506
255	0xbc9ce9d3	-0.019154465

_orig_mod.lin3.bias f4 [83]
0	0x3d0790ec	0.033097193
1	0x3d11bb4b	0.035579007
2	0xbc732a65	-0.014841651
3	0xb9265b34	-0.0001586497
4	0x3d3d275b	0.04618011
5	0x3ca24378	0.019807562
6	0x3ca8536e	0.020547595
7	0x3d2f53da	0.042804576
8	0xbce79e17	-0.028273625
9	0x3c677c19	0.014128708
10	0xbd620068	-0.05517617
11	0xbd647406	-0.05577471
12	0xbd2dcdac	-0.042432472
13	0x3d5b3c6c	0.05352442
14	0xbd09cc4c	-0.0336421
15	0x3d6275f3	0.055288266
16	0x3bb938ae	0.0056525087
17	0xbc6af504	-0.014340643
18	0x3d18bc2c	0.03728883
19	0x3d34c0ea	0.04412929
20	0xbd1c6513	-0.03818233
21	0xbc8afef6	-0.016967278
22	0xbceecb9f	-0.029149828
23	0x3d152f69	0.036422167
24	0x3d4fca2b	0.05072991
25	0x3d045e76	0.032316647
26	0x3d0e238d	0.034701873
27	0xbd3a9000	-0.045547485
28	0xbd187226	-0.037218235
29	0x3bb439cb	0.0055000535
30	0x3cbc3fb0	0.022979587
31	0x3c4d2bdd	0.012522665
32	0xbd2dde86	-0.042448543
33	0xbd0a160f	-0.033712443
34	0x3d2813f6	0.04103466
35	0x3cec04fa	0.028810967
36	0xbc7bf239	-0.015377575
37	0x3be99998	0.0071289055
38	0xbd0d1678	-0.034445256
39	0xbd583cfe	-0.05279254
40	0xbb9558a7	-0.0045576873
41	0xbd3981f2	-0.04528994
42	0xbd0655b7	-0.032796588
43	0x3d301114	0.042985037
44	0xbc6b0eff	-0.014346837
45	0x3d1da044	0.03848292
46	0x3ca50acc	0.02014675
47	0x3d1ab12f	0.03776663
48	0x3d0582f4	0.03259559
49	0xbd5e69be	-0.054300062
50	0xbcda890a	-0.026676673
51	0x3d39d2a5	0.045366902
52	0xbb4b1c65	-0.0030992266
53	0x3b568d2d	0.0032737956
54	0x3d1d0cfa	0.038342454
55	0xbd5dd663	-0.054159533
56	0x3d66d3db	0.056354385
57	0x3c966682	0.018359426
58	0xbcbb84d7	-0.022890491
59	0xbcbb3ceb	-0.022856196
60	0xbd0c723c	-0.03428863
61	0x3d5f488c	0.054512545
62	0xbcbb8168	-0.022888854
63	0x3d31a733	0.043372344
64	0xbd6481f0	-0.05578798
65	0xbd45099b	-0.048104864
66	0xbcadc100	-0.021210194
67	0x3c92b7ff	0.017910002
68	0xbcd1a382	-0.025590662
69	0xbd68ecb1	-0.05686635
70	0xb946e786	-0.00018969
71	0x3d0ca08f	0.034332808
72	0xbca8b54f	-0.020594267
73	0x3d201590	0.039083064
74	0x3d28afec	0.041183397
75	0x3ce0b33d	0.027429217
76	0xbc050f77	-0.008121363
77	0xbcbe7e65	-0.023253629
78	0x3bbadb16	0.0057023866
79	0xbd0fecf7	-0.035138097
80	0xbd3ed189	-0.046586547
81	0x3cdab0dc	0.026695661
82	0x3d612855	0.054970104
