gt_eng_model_upper_two_hid_layer_emb2_block_size_50.pth (torch, 907496 bytes, 7 tensors)

_orig_mod.emb.weight f4 [83, 2]
00000000: 5942 b7bc 6d82 2fbe 880f b9be b4e0 98bf
00000010: 35f1 15bf 9fe6 333f 888c 8b3f f2c8 8a3e
00000020: c7f1 be3c a953 b33e 8ee6 b53c 6197 f0be
00000030: c90d 893e ebdb 02bf d64f 2fbf c16d 303f
00000040: 6c58 11bf 289f 8cbf 0ecd f13d e968 20bf
00000050: f90e 443e 3a99 70bf 2bdf a63e a9bf 34bf
00000060: e5fe 173e 688e 32bf dd03 0a3f b7e2 63be
00000070: b448 833e ec33 b2be ce87 43bf ed58 aabe
00000080: a774 bf3e bf9d c5be 9113 3c3f 37ba 4a3e
00000090: caeb 09be 3f43 5bbe 0a0f 803f 5bba db3d
000000a0: 2f8d 833f d88d df3d c93f 05bf 2aac 9ebf
000000b0: 0393 0abe b283 bf3e 9959 49bf 4a2f 5abf
000000c0: 7627 4e3f 312c 7f3f 1659 03bf 8c48 46bf
000000d0: 96d7 6dbf b1ed b2bf 5f66 bc3d 99fc bb3e
000000e0: 4a05 68bf 2b97 6ebf 468d 53bf e73e 03bf
000000f0: 64b8 9a3e 9117 febe 10ae 9bbe afac 6fbf
00000100: 4d0e f8bf da7e d23e fd88 163f 9584 1f3f
00000110: 10a2 823e d009 233f 00ea 29be 248c 30bf
00000120: 8196 84be e9f7 aabc 9504 b23e 2507 46be
00000130: 1f2e 4cbe fbbe 83be eca7 f03e 3f46 b4bd
00000140: 2300 b53e 3006 01be 7bba 0f3e 271f eabd
00000150: e507 64bf 94d9 b5be 3006 5dbe bbcf a3bf
00000160: 00be 9c3e ee79 133e 0554 1c3e b985 18bf
00000170: f225 103f 47ff eb3f 211b a53f 4293 d3be
00000180: b68c ecbe c5ac 89bf 019c dfbd eeae cd3e
00000190: 36ea 64bf 9cb8 43bf 9d2f 503f aeb7 5c3f
000001a0: c346 9ebd 47f1 e2be a62f 153f ce26 9bbe
000001b0: 6b85 a4bd 42cf bdbe 3fd1 08be 3209 96be
000001c0: eb16 c63e 8408 ff3e 74d6 0abf 83fb 713d
000001d0: 3c31 88be 3241 96be cde3 64bd a011 e1be
000001e0: e5e4 b2be ea8d 3ebf 63f4 03bf 1a98 e0be
000001f0: 27f7 a3bc ca51 26bf 1247 71be 44db f83b
00000200: 530f 61be 0f8f 8dbe 46f6 f2bd 16d0 31be
00000210: 30db 043f 19f5 7fbd ab25 3a3f a579 9f3e
00000220: ee23 1a3e 9c99 f8bd 862a 29bf 6ad6 65be
00000230: 6e2b d13e e23f 3a3e e977 363e 91cb 8b3e
00000240: a401 bb3e 0be9 d4bd 2e0b a33e 3de8 7cbe
00000250: 8e41 38be c808 e3be 5eef 603f 61dd 233f
00000260: aee3 963f 3182 1440 8bd9 943e 444d 81bf
00000270: 5b96 f3bd 5399 1c3f 2ba1 9ebf 747b be3d
00000280: f652 5cbb 10c9 583e 8e56 0cbf a61d 713f
00000290: 16d1 01bf 3b8f 6abf
-0.022370504 -0.17139597 -0.36144662 -1.1943574 -0.5857118 0.70273775 1.0902262 0.27106434
0.023308648 0.35024765 0.022204664 -0.46990493 0.2676833 -0.5111682 -0.68481195 0.6891747
-0.56775546 -1.0986071 0.11806689 -0.6266008 0.19146337 -0.93983805 0.3259214 -0.7060495
0.14843328 -0.69748545 0.53912145 -0.22254454 0.25641406 -0.34805238 -0.76379097 -0.3327097
0.37393686 -0.38596913 0.73467356 0.19797598 -0.13468853 -0.21412371 1.000459 0.10728904
1.0277461 0.109157264 -0.52050453 -1.239629 -0.13532643 0.37405163 -0.7865234 -0.8522841
0.8052896 0.99676806 -0.5130781 -0.7745445 -0.92907083 -1.3978788 0.09199213 0.36716154
-0.9063307 -0.93199414 -0.8263744 -0.51267856 0.30218804 -0.49627355 -0.30406237 -0.9362287
-1.9379364 0.41112405 0.5880278 0.6231168 0.2551427 0.6368685 -0.1659317 -0.6896384
-0.25896075 -0.020870166 0.3476912 -0.19338663 -0.19939469 -0.25731644 0.47003114 -0.08802461
0.35351667 -0.12600017 0.1403598 -0.11431723 -0.89074546 -0.3551756 -0.21584392 -1.2797769
0.30613708 0.14401981 0.15266426 -0.59579045 0.563079 1.843728 1.2898904 -0.41323286
-0.46201104 -1.075585 -0.10918427 0.40172523 -0.8941988 -0.76453567 0.8132265 0.8621777
-0.077283405 -0.44324705 0.5827583 -0.30303043 -0.0803326 -0.37072188 -0.13361071 -0.2930389
0.3868936 0.49811184 -0.5423348 0.05907775 -0.26600063 -0.29346615 -0.05588131 -0.4395876
-0.34940258 -0.74435294 -0.5154478 -0.43866044 -0.020015312 -0.6496855 -0.23562267 0.007594498
-0.21978502 -0.27648208 -0.11863379 -0.17364535 0.51896954 -0.062489603 0.72713727 0.31147495
0.15052769 -0.12138674 -0.6608051 -0.22445074 0.40853447 0.18188432 0.1781918 0.27303746
0.3652469 -0.10396012 0.31844467 -0.24697967 -0.17993757 -0.44342637 0.87865245 0.6400967
1.1788232 2.3204463 0.29072222 -1.0101705 -0.118939124 0.61171454 -1.2392935 0.093008906
-0.0033618785 0.2117045 -0.5481957 0.94185865 -0.50709665 -0.916248

_orig_mod.lin1.weight f4 [500, 100]
00000000: 5efb 6a3e 5450 403c bc4c 0c3f 70bb 4c3d
00000010: 13f4 4cbf e41e 643e 5679 c03f c6ef e9be
00000020: 0b36 a8be e8ed a8bd ea46 0c3e 0f53 2fbe
00000030: cdb5 bcbf 63fb 873f 0172 213d b2b5 123e
00000040: 7bb1 3e3e ec99 bcbf 6420 493f bf9e cc3e
00000050: 313b e2bf debc 753c 9a61 493d ff77 203f
00000060: ddc3 83bf e718 343f e3d1 50bf 23a7 113f
00000070: 942f c13e b9c6 453f 23c5 ab3f 9b43 1dbf
00000080: 0cd4 77bf 2e99 c93e 1770 4cbf 7144 123e
00000090: 91b2 abbe b5e5 aebd 9985 f5bb 8556 2b3e
000000a0: ecfc 763d 48d2 b43e 8e27 3d3e 4880 ad3e
000000b0: 6660 163e ca4c 80bf b826 81be be07 a3bf
000000c0: a32c ae3e 6656 603e a649 7abf df28 d3be
000000d0: e0eb 263f 9caa fe3e 47bd e03e 4ce8 303f
000000e0: b6ae 0cbf 20a2 93bf 6206 1ebf 64f2 cf3f
000000f0: f9df 7fbe ac30 b83e 988b a0be eb2c 213d
00000100: 52cf 833f 1889 8e3f 503e a4bf 84d6 f8be
00000110: 5a3e 363e 3e14 6b3e 960d be3a 677e 9cbf
00000120: 6b4a 8b3e d268 1fbf 13f2 4abf 2a2a 4e3e
00000130: a988 c6be e196 8fbe b151 523f b838 be3e
00000140: a4b7 9f3e 6099 bd3f 8352 48bf 09bb 0cbf
00000150: dd43 00bf 306e 26bd fa88 df3e 7b2a 563b
00000160: 6470 13bf a9b1 1fbf 3cc0 1c3f 942c 32bf
00000170: 7373 1f3e 3736 c3be f06c 023f 2506 a5bd
00000180: d15e 3bbf fb76 4ebd ece1 66bf 3ff3 40bf
00000190: ad05 f33e 6ae7 5abf fd82 81bf cfd7 4b3f
000001a0: 9acf 723f cada ee3e 1fc8 9cbe cf5a 803e
000001b0: 6983 f43d 414d 0c3f 1b1f 5f3e d760 c4be
000001c0: 6686 86bf c57a 4ebf 88fb 043f e989 823f
000001d0: f48c 30bf 3145 0640 30cf 09c0 a898 3d3d
000001e0: 804d 1c3f 63b0 303d 9ad1 44bf b33f 7d3f
000001f0: 3641 2abf 940d 263f 38af 4b3f 0f84 353f
00000200: 5b7f cebe 5e54 ac3f 7811 1dbf 81ae 7cbd
00000210: a86a 75bd 725f 5fbf 7dd1 e6bd 4f16 c63e
00000220: bebf a4bf e51c c53f 10df 563f 129f 673f
00000230: 1aaa 313e 6063 8c3d 1b35 013f 33ce 84bf
00000240: 4073 c6be e172 c63d 820e 12bf 3312 b6bd
00000250: b993 bd3f 1764 893e 07f9 df3e 3664 46bf
00000260: b54d d6be 1f9c e6be fadb 9ebf ebe2 aebf
00000270: a159 9c3e f34e 71bf 1b7f a6bf bd6f 96bf
00000280: a313 80be 1ee3 9abe 9976 20bf 1eac 71bf
00000290: 64c5 06bd 8474 c3be 1fc1 87bf d3f4 2fbf
000002a0: 7964 8b3f aa0a 1cbf 9638 85be 3d41 8a3e
000002b0: 7d06 2b3f 94d5 32bf 2e11 51bf a3f8 e3be
000002c0: 17a9 733d 6fe2 143f fea1 e2be 7fa6 c8be
000002d0: 83d7 683e c4e1 db3e c38a b63e d5d2 99bf
000002e0: 206e 803c dd56 8c3f 703e 18bf 490d 89be
000002f0: b431 813f 18d3 16bf f7fb 1abe 8f81 493f
00000300: 38ad d8bf e133 8f3d 5378 123e 4afc 0e3f
00000310: e838 5bbd ec3e 2fbf 3ca1 80bf e0fa 20bf
00000320: 8baa a5bc ae16 873c 4b8e cfbc 7a27 f73d
00000330: 9a50 babd b6ca 543c f828 66bd 36d1 6a3d
00000340: 3866 07bd 3fe4 c13d 6989 3dbd 1a88 7fbd
00000350: 6561 22bd e390 9b3c 54eb d9bd 25f0 233c
00000360: bd5f 89bc f566 863d e2ad b13c a709 ed3c
00000370: 6645 c8bc 3382 d5bc b7d9 b5bd 264a 923c
00000380: 1174 913c 154a 63bd ce29 0c3d 70ef d13d
00000390: 4dff 2dbc 5f44 873c 578f 753d 2095 79bd
000003a0: 9dcb 133b 6e5e 29bd 3ccf b3bb cabe 7abc
000003b0: 5fb1 c0bb 93d3 bfbc 4472 fdbc e849 a8bb
000003c0: 0da3 d3bc ed09 873d 6a5a 713d a39f 2dbc
000003d0: 5a5c 44bc 476e 433c 2a37 003d 96e4 973c
000003e0: 3d77 b1bc 2a65 f23c f3b1 a33d 8800 153d
000003f0: 5f9a ca3d 78dd 5cbd d072 753d 1210 af3c
0.22947451 0.011737902 0.5480459 0.04998344 -0.8005993 0.22277409 1.5037029 -0.45690745
-0.32853732 -0.08248502 0.13698927 -0.17121528 -1.4742981 1.0623592 0.039415363 0.14327124
0.18622391 -1.4734473 0.7856505 0.39964864 -1.7674314 0.014998643 0.049165346 0.626831
-1.0294148 0.703505 -0.8157026 0.56895655 0.37731612 0.7725635 1.3419536 -0.6143128
-0.9680793 0.3937468 -0.79858536 0.14283921 -0.33534673 -0.08539907 -0.0074927327 0.16732223
0.0602998 0.35316682 0.1847212 0.33886933 0.1468521 -1.0023434 -0.25224853 -1.2736738
0.3401843 0.21907958 -0.9776863 -0.4124212 0.65203667 0.4973954 0.43894407 0.69104457
-0.5495409 -1.1533852 -0.6172849 1.6245847 -0.24987783 0.35974634 -0.31356502 0.039349478
1.0297644 1.1135588 -1.2831516 -0.48601162 0.17797223 0.2295694 0.0014499899 -1.2226075
0.27205214 -0.6226932 -0.79275626 0.20133272 -0.38776138 -0.280448 0.821559 0.37152648
0.31194794 1.4812431 -0.782509 -0.54972893 -0.5010355 -0.040632427 0.43659192 0.003267913
-0.5759337 -0.6238046 0.61230826 -0.6959927 0.15571384 -0.381273 0.50947475 -0.080578126
-0.73191553 -0.050406437 -0.9018848 -0.75371164 0.47465268 -0.8550936 -1.01181 0.7962617
0.94848025 0.46651298 -0.3062143 0.2506928 0.11939127 0.5480538 0.2178921 -0.38355133
-1.0509765 -0.8065608 0.51946306 1.0198337 -0.6896508 2.097973 -2.1532707 0.046288162
0.61055756 0.043136965 -0.76882327 0.9892532 -0.66505754 0.6486447 0.7956424 0.7090463
-0.4033154 1.3463247 -0.6135478 -0.061689857 -0.05991617 -0.87255013 -0.112704255 0.38688895
-1.2871015 1.5399443 0.83934116 0.904771 0.17350045 0.06854892 0.5047166 -1.0375427
-0.38759804 0.0968988 -0.5705339 -0.0889019 1.4810706 0.26834175 0.4374468 -0.7749666
-0.4185616 -0.45040986 -1.2410882 -1.3663 0.3053713 -0.9426109 -1.300754 -1.175285
-0.25014982 -0.30251402 -0.62680966 -0.94403255 -0.03290309 -0.38174832 -1.0605811 -0.6873295
1.0890037 -0.6095377 -0.26019734 0.27002898 0.66806775 -0.69857144 -0.8166684 -0.44525632
0.05948743 0.5815801 -0.44264215 -0.39189526 0.22738461 0.42945683 0.35652742 -1.2017466
0.015677512 1.0964009 -0.5947027 -0.26767948 1.0093293 -0.58915854 -0.1513518 0.78713316
-1.6927862 0.06992317 0.14303713 0.5585371 -0.053521067 -0.68455386 -1.0049205 -0.62882805
-0.020222923 0.016490307 -0.025336405 0.120680764 -0.09097405 0.012987783 -0.056191415 0.057328425
-0.033056468 0.094673626 -0.046273623 -0.062385656 -0.039643664 0.018989986 -0.106405884 0.010005985
-0.016769284 0.06562606 0.02168936 0.028935267 -0.024447154 -0.02606306 -0.088794164 0.017857622
0.01775554 -0.055490572 0.034219556 0.10250747 -0.0106199505 0.016512094 0.059951153 -0.060933232
0.0022551783 -0.04134982 -0.0054873507 -0.015304277 -0.0058805193 -0.023416316 -0.030938275 -0.0051357634
-0.025834585 0.0659369 0.058924116 -0.010597142 -0.011984909 0.011928148 0.03130261 0.018541615
-0.021663303 0.029589254 0.079929255 0.03637746 0.09892725 -0.053922147 0.059923947 0.021369968

_orig_mod.lin1.bias f4 [500]
00000000: 23f7 9a3e cb72 ff3f c709 9dbe 30da a5be
00000010: ebf5 cb3e ba71 b6bf 6ca9 78bd 0e89 33bf
00000020: 9b4d 84bf 9f34 e9bf b0cd 9dbf d686 a93f
00000030: b151 73bf 3fa1 73be 129a 87bf d4e9 a8be
00000040: 677c 27be 8619 c63e 5f55 673f 092d debe
00000050: f4a8 6ebb 7f93 bb3f 8929 b13f 8b37 3640
00000060: b78d 653f b8e0 acbf 5e85 9dbe a562 8f3f
00000070: cf32 c0be 9989 bfbf fd69 8fbf c773 14bf
00000080: e38f e5bf c8ec 9a3f 9ff3 e2be 676e c9bf
00000090: 0662 73bf c00d 3dbf 8c2a c2bf d9dc c93d
000000a0: e1a2 adbe 7542 0d3f 9ac5 ea3f ed23 df3f
000000b0: 2a29 c63e c133 1140 6370 99be c14b d13f
000000c0: 0ef6 be3d c633 76bf 7707 733f 7377 0b40
000000d0: 4f4d 44bf 3359 f23f de60 3abf bd42 cb3f
000000e0: 1f93 c83e 0ada 4cc0 d8c1 dfbf d39f 53c0
000000f0: ca6b f03f 7781 c93d aef2 d73d 8c56 f13e
00000100: 6a47 63bf 86fa 9a3e d305 5a3e 6985 cabe
00000110: cc55 053f 147e 6fbe 42a5 b33e 50da 4ebc
00000120: 15a7 dc3f f967 503f 2280 593e ce9c c23f
00000130: 4e25 eb3c ca9f 7b3e b39a 05c0 0227 63be
00000140: 7e11 0540 46eb 72bf 201b 9e3f ce2d b53e
00000150: dbc7 18c0 ce68 b1be 4400 1bc0 5860 d1bf
00000160: 293b 863e 4abc 323f da59 2fbe f349 5b3f
00000170: 606d 04bf ba7f 86be 5735 b03f 1cc7 a5bf
00000180: 4724 85bf 8b98 d13d 0906 97bf 14fb c23e
00000190: 97d4 9cbf 8107 ddbc d2d7 f33e 4f9c 56bd
000001a0: d544 8b3f fe2b 33bf dade 3ebf bc6e cb3f
000001b0: ee72 9a3e 45f9 d83e ea5e 973c f5bf c03f
000001c0: 4839 aa3f 797c a2bf 4d83 3f3f 7654 b93f
000001d0: b1b0 043f 2e3b cf3e b195 fd3f e091 b53f
000001e0: d793 a33f 2f58 f1bd 339c d03f aedb 4e40
000001f0: 845e ca3f d3a3 833f 9009 89be ded9 5bbf
00000200: 1936 90bf fee3 b33f 4eb0 e4be 2a91 4a3f
00000210: 2e2c adbf 88ff 303f fd82 823f b9f9 c43e
00000220: 9436 0bbf 5122 c9bf 25b3 b0bf dcfd 9cbe
00000230: fd2b 8f3f f3d9 b0bf df2a 0bc0 61a5 613f
00000240: 58fa 49bf e9e7 153e 2adf e1bd d6e5 fbbe
00000250: 5505 273e 1b5d c7bf 60e5 16c0 bbf1 10be
00000260: 4790 a43f 6944 b53f 1a2b 7abe 7613 ab3f
00000270: 1a27 8abf 5369 e03e 4261 7cbe cba5 073e
00000280: e80a a6bf 8275 a0bf dc7a d2be 0b33 823e
00000290: 0072 133f 3cee 11bf 2d20 d4bf cab7 67be
000002a0: 060a 233e 029b a8be face 033f 4f2a f73f
000002b0: a85c 84bf 0328 e0bf dfb8 fd3e d7d8 c5bf
000002c0: 98dc 713f f8d7 413f 692d 3f3f 79af cdbf
000002d0: 3724 493e cc06 36be 8809 8cbd 57c2 1cbf
000002e0: 996a 0f3f bb6d 893f 227e 16bf b53b a3bc
000002f0: 1c02 11bf be6b a33f b8fa 7f3f 4f33 863f
00000300: 48c7 903f fb1d 05bf 0a40 b03e c8bc 90bc
00000310: 1bcc 993f 5194 7c3f c283 913e 31ed 933e
00000320: cb03 e93f 8f6b 6e3f c59c 6a3e 6fac 99be
00000330: bcec 87bf 8906 57bf 39d7 90bf ef4e 7ebf
00000340: 6a33 a23f 3880 aa3d 4a39 6bbf cc46 153e
00000350: 0679 ba3e 3785 c33f 7e45 b33f 1cfd bbbd
00000360: 77a4 023f beac 963f 5437 cabe d89d c1be
00000370: cc74 433f 4472 893f ad2a bfbf 8d19 29c0
00000380: 97ea a2be 4bee 123f b454 81bd ab1d cc3d
00000390: 9932 a33d 60f7 04bf 7b63 853f 7224 44bf
000003a0: 2502 a73e 9685 0cbf 3b81 133e 95ae 90bf
000003b0: 0382 99bf ce51 dcbf 832f ab3f 49f9 943f
000003c0: 51c1 b43f da7e 08be a7f9 cb3f 4060 ac3d
000003d0: 55a5 d43e 19d0 4b3e f8cb d3be 4409 c6bf
000003e0: 3e6b 3abf 9081 fc3f 5a10 27bf 3d22 b33f
000003f0: 8a7d 49bf 9610 303f d54e 3ac0 c178 9e3d
0.30266675 1.9956907 -0.30671522 -0.32393026 0.39836058 -1.4253457 -0.06070845 -0.70131004
-1.0336183 -1.8219184 -1.2328396 1.3244274 -0.95046526 -0.23791979 -1.0593894 -0.32990897
-0.1635605 0.38691348 0.9036464 -0.43393734 -0.0036416622 1.4654387 1.38408 2.84714
0.89669365 -1.3506079 -0.30765814 1.1201979 -0.37538764 -1.4963866 -1.120422 -0.5798916
-1.7934536 1.210351 -0.44326493 -1.5736817 -0.95071447 -0.73849106 -1.5169234 0.098565765
-0.3391333 0.5517953 1.8341553 1.7432839 0.3870328 2.2687838 -0.29968557 1.6351243
0.09324275 -0.9617275 0.94933265 2.1791656 -0.76680464 1.8933471 -0.7280406 1.5879742
0.39174744 -3.200808 -1.7481031 -3.30663 1.8782895 0.098391466 0.10544334 0.47136343
-0.88780844 0.3026926 0.21291284 -0.3955491 0.5208404 -0.23387939 0.3508702 -0.012625292
1.7238489 0.8140865 0.21240285 1.5204103 0.028704312 0.24572673 -2.087567 -0.22182849
2.0791926 -0.9489025 1.2352028 0.3538651 -2.3871982 -0.34650272 -2.4218912 -1.6357527
0.2621701 0.69818556 -0.1712412 0.8565971 -0.51729393 -0.26269323 1.3766278 -1.2951388
-1.0401696 0.102341734 -1.1798717 0.38082182 -1.2252377 -0.026981117 0.47625595 -0.05239516
1.0880381 -0.69989 -0.74558794 1.5893168 0.3016581 0.42377678 0.018477876 1.5058581
1.3298731 -1.2694236 0.74809724 1.44789 0.5183211 0.40474838 1.9811307 1.4185143
1.2779492 -0.11784398 1.6297668 3.2321582 1.5810094 1.028437 -0.26765108 -0.85879314
-1.1266509 1.4053953 -0.4466576 0.7912775 -1.3529108 0.6913991 1.0196224 0.38471773
-0.54380155 -1.5713598 -1.380467 -0.3066243 1.1185299 -1.3816513 -2.1744916 0.88142973
-0.7889762 0.14639248 -0.11028893 -0.49198788 0.16310628 -1.5575289 -2.35775 -0.14154713
1.285653 1.4161502 -0.24430504 1.3365314 -1.0793183 0.43830356 -0.24646476 0.13246839
-1.2972078 -1.253586 -0.4110936 0.25429568 0.57595825 -0.5700414 -1.6572319 -0.22628704
0.15921792 -0.32930762 0.51487696 1.9309787 -1.0340776 -1.7512211 0.49555108 -1.5456799
0.94477224 0.7572017 0.74678665 -1.6069175 0.19642721 -0.1777603 -0.068377554 -0.6123404
0.5602203 1.0736612 -0.58786213 -0.019925931 -0.56643844 1.2767255 0.9999194 1.0484408
1.1310816 -0.5199887 0.34423858 -0.017668143 1.2015413 0.9866381 0.28420836 0.288919
1.8204283 0.9313287 0.22911365 -0.3001437 -1.0619121 -0.83994347 -1.1315681 -0.99339193
1.267194 0.08325237 -0.9188429 0.14577788 0.3642046 1.5275029 1.4005582 -0.09179136
0.51032203 1.1771467 -0.39495337 -0.37815738 0.7635009 1.0737996 -1.4934899 -2.6421845
-0.31819603 0.57394856 -0.06314984 0.09966596 0.07968635 -0.51939964 1.0420984 -0.7661811
0.32618824 -0.54891336 0.14404766 -1.1303278 -1.1992801 -1.7212465 1.3373874 1.1638576
1.4121495 -0.1332964 1.5935563 0.08416796 0.41532388 0.19903602 -0.41366553 -1.5471578
-0.7281989 1.9727039 -0.65259326 1.3994824 -0.7870718 0.6877531 -2.9110615 0.07737876

_orig_mod.lin2.weight f4 [300, 500]
00000000: c09f ebbb 9504 673b a1c7 203c b511 33bc
00000010: eaba ee3c 5e8e 00bc 4ed8 f23d 109e c93a
00000020: ed9c 5c3c a719 bdbb 4c2a 0dbc 3de2 3d3e
00000030: c80a 16bc 6a38 eeba c7a9 8a3c 3b7d c73b
00000040: 6fb3 de3b fa72 62bd ed74 f7bc d1f3 3b3d
00000050: e8eb bc3b 6443 d93a 9ad6 d13c 26ce a53a
00000060: 6314 a9bd e13b 17bc 89be 16ba 50d7 993b
00000070: d8e4 b03b 15c9 c8ba c77c e73d 6cd6 f83d
00000080: 6ae4 90bb 593c 91bd 7cc0 463c e2e7 8fbb
00000090: 3631 edbb 877d 7b3a 6298 f33b 4194 263c
000000a0: de79 6e3e 91c8 cabd ccb7 203d fa27 43bf
000000b0: 2d63 3ab9 a2c1 c8ba e023 ce3c 2537 a03c
000000c0: da7e ce3a 25e5 ea3b c603 1a3a 5176 f63c
000000d0: b5c7 813d c95a e1bc 7e99 98bc 1e49 57bc
000000e0: f13f eebd 5093 18bb 55f4 9d3d d1aa 253e
000000f0: 4bdf 1f3d d3f4 16bc 595f eeba 0f14 28bd
00000100: 45cb 933d a780 21bc 4374 873d 1a9f abbc
00000110: 8d1b 9dbc 5bc4 0ebc a88f 173f 98b0 503c
00000120: 31fb 8bbd 73ff d7bb a902 a2bd ad1c 163d
00000130: c2ce 373b 4093 adbc c102 47bd edb5 463d
00000140: 96dc 0fbc 360b 02bb 4327 8cbd ce73 15bc
00000150: 8e40 99bd e6cf 3fbc c926 9cbc 943f 8bbb
00000160: d1c8 53bc 195c f83b 3f84 40bb c916 c0bc
00000170: afe8 d2bd 4d55 38bb 741a ebb9 3beb c6bb
00000180: 2c12 34bd c899 213c 8460 b03c 2b7f 99bb
00000190: fcbe 2f3f d10d 1ebe 1b38 e5bb 830b 06bc
000001a0: c15c 4a3b 8e0a c73c 561f 78ba 11eb 1abb
000001b0: ef93 753d df05 b93a a3da 203d 1a71 1dbb
000001c0: 203d d8bd 2117 22bb 9d36 2a3c 3933 e83a
000001d0: 6c9d 37bb d515 fb3b 6640 013b 2929 0f3d
000001e0: 9a33 6dbb 1ad6 1e3c 6ed8 a73b e4a9 003c
000001f0: ef55 1e3d 105d eabb 885e f2bb 41bf 02bc
00000200: 7f25 d43c a43f 9cbd d88f 16bc 3abf 173c
00000210: e6b8 883b 536e 08bc f8b1 a3bc cde3 bdbb
00000220: 6ce6 323c 831c 4040 396b feba c70f 2a3e
00000230: 6ada ecbb 6df5 343c 3f37 243e a550 42bc
00000240: 3fe7 163d 45c5 a13a c8bd a6ba 8ba8 57bb
00000250: e39e 383c ca2a b4bc d9b7 533c df7d 113c
00000260: aa3c e6ba fd9c 20bd b6a0 6d3a 9145 433c
00000270: 02cc 313c 4ab5 90bd 35f0 393c 266a 0abd
00000280: d728 a5bd 6390 88bd a21a 0dbb 1030 783c
00000290: a9b2 85b9 f7e1 b13b 0ca2 9dbc 700e a53b
000002a0: 70f3 0bbb 5480 82bd 2577 05bc 380f 2b3d
000002b0: 15a4 c63c 8bea 8cbb 5e71 f1bd 1547 3840
000002c0: e654 443b 7aca 98b9 6234 1dbc 017d fdbb
000002d0: 8ade a73d 62de 403d 4342 d2bb 5c18 04bd
000002e0: 86b1 c43a 103d 0ebc 73c1 1d3e c082 92bb
000002f0: 3ff1 073b 51e7 fd3b 6f2c 91bd dd8b 733c
00000300: 7e2d 55bc 24a9 aabe d350 adbb 1b87 df3b
00000310: 344c 75be 4c32 8abb 4497 66bc 8ae2 55bb
00000320: f9a5 ffbd c248 d3be 1322 533c 79d8 feba
00000330: 0ad0 313b cfe6 203c ef41 23bd 661c dd3c
00000340: 0149 11bc ac44 543c 07a0 0bbb f6bf 33bb
00000350: 921c c7bb 5118 4bbd ec6a ba3c f086 553b
00000360: fd0b 6dbd a579 19bd 209b 02bd 235b 38bb
00000370: a4ee b93e 8bb5 94bd a09b e3bb a2ae 213b
00000380: 3f8c 98bd 892f 49ba 3755 a13c 5b96 23bc
00000390: ecc3 70ba 14f9 3e3b a80c b63a 34aa 43be
000003a0: 6344 11bc 837f 843c 8c36 faba ac22 fdbd
000003b0: ed5b d73c c1a3 4d3b 8dee 1cc0 adfa 56be
000003c0: 7b45 823d fa23 40bc ed87 34c0 347b a03b
000003d0: 3aa7 07bb 8145 67bc ddd9 59bc 5268 c83e
000003e0: 1429 af3b 47fc 893e ba50 103e 462b fdbc
000003f0: 8e88 dfbb 7eb3 5fbc 9cde cebb 942a 3a3e
-0.0071906745 0.0035250534 0.00981322 -0.010929515 0.029141862 -0.007846443 0.11857663 0.0015382189
0.013465148 -0.0057708803 -0.008616041 0.18543334 -0.009157844 -0.0018174772 0.01692666 0.0060879267
0.0067962925 -0.05528543 -0.030207122 0.04588682 0.005765427 0.001657587 0.025615025 0.0012649938
-0.082558416 -0.009230585 -0.0005750438 0.0046948567 0.005398374 -0.0015318716 0.11303096 0.12150273
-0.0044217603 -0.070915885 0.012130853 -0.0043916563 -0.0072385324 0.0009593595 0.007433937 0.010167182
0.23288676 -0.09901536 0.039237782 -0.76232874 -0.00017775288 -0.0015316496 0.02516359 0.019557545
0.0015754357 0.0071684294 0.0005875196 0.030085715 0.06336919 -0.02750911 -0.018627878 -0.013139991
-0.116332896 -0.0023281164 0.07712618 0.16178443 0.03903131 -0.009213644 -0.0018186375 -0.041034754
0.07216505 -0.009857333 0.06613972 -0.020949889 -0.019178176 -0.008713807 0.5920358 0.012737416
-0.0683502 -0.006591731 -0.07910664 0.03664844 0.0028046821 -0.021188378 -0.04858661 0.04851334
-0.008780619 -0.0019843108 -0.06843426 -0.009121848 -0.07483016 -0.011707282 -0.019061463 -0.0042495225
-0.012926296 0.0075793383 -0.00293757 -0.023448365 -0.10298287 -0.0028127015 -0.00044842402 -0.006070522
-0.043962643 0.009863324 0.021530397 -0.004684349 0.68650794 -0.15434958 -0.0069952137 -0.008181456
0.003087804 0.024297025 -0.00094651186 -0.0023638646 0.059955534 0.001411613 0.03927101 -0.0024023713
-0.10558534 -0.0024733024 0.010388997 0.0017715461 -0.0028017415 0.0076625147 0.0019722222 0.034951363
-0.0036194087 0.0096946005 0.005122236 0.007853005 0.03865617 -0.007152207 -0.007396523 -0.007980169
0.025896786 -0.07629326 -0.009189568 0.009261901 0.0041724322 -0.008327085 -0.019982323 -0.0057949782
0.010919195 3.0017402 -0.0019410617 0.16607581 -0.0072281854 0.011044842 0.160367 -0.0118600475
0.036841627 0.0012342116 -0.0012721354 -0.0032906856 0.01126835 -0.02199306 0.012922251 0.008880108
-0.0017565687 -0.039212216 0.00090647803 0.011918441 0.010851862 -0.07065828 0.011348774 -0.033792637
-0.0806443 -0.066681646 -0.0021530767 0.015148178 -0.0002550085 0.0054285484 -0.019242309 0.0050371215
-0.0021354817 -0.06372133 -0.008146082 0.04176256 0.024248162 -0.0043004206 -0.11789201 2.8793385
0.002995783 -0.00029142556 -0.009595009 -0.007735849 0.08196743 0.04708708 -0.0064165904 -0.032249793
0.0015006519 -0.008681551 0.15405826 -0.004471153 0.002074316 0.0077485223 -0.07088553 0.014864889
-0.013011334 -0.3333217 -0.005289176 0.0068215257 -0.2395485 -0.0042174216 -0.0140741505 -0.0032636249
-0.12482829 -0.41266447 0.012886542 -0.0019443176 0.0027132058 0.009820654 -0.0398578 0.02699108
-0.008867503 0.012955826 -0.00213051 -0.002742765 -0.006076404 -0.049583737 0.022756062 0.003258165
-0.05787276 -0.037469525 -0.03188622 -0.0028130494 0.3631488 -0.07261189 -0.006946042 0.002467074
-0.07448625 -0.0007674625 0.019693954 -0.009984578 -0.0009184468 0.0029140161 0.001388927 -0.19107896
-0.008866402 0.016174084 -0.0019089743 -0.12360129 0.02628895 0.0031378123 -2.45206 -0.20994063
0.063609086 -0.0117273275 -2.8207963 0.0048974995 -0.002069904 -0.014115692 -0.013296572 0.3914209
0.005345473 0.26950285 0.14093295 -0.030904423 -0.0068216985 -0.013653634 -0.006313158 0.18180305

_orig_mod.lin2.bias f4 [300]
00000000: 72e5 f4bf 597f 7fc0 f3e6 953e 1c2e 82c0
00000010: 25c6 99c0 83c3 a4c0 1a28 6ebe da3b 21c0
00000020: f0c4 e7be db84 73c0 25b1 88c0 fa45 71c0
00000030: ae0e 75c0 9d58 69c0 e1ee 63c0 d3e7 6ec0
00000040: 55f7 5dc0 6f58 31c0 4030 66c0 4326 05c0
00000050: 20ca 58bf e60e 78c0 b2ef 66c0 4737 7dc0
00000060: 41fa 86c0 f72c 83c0 4915 90c0 52a3 8dc0
00000070: c0cf 94c0 1799 70c0 f26c 0cbf 0599 8bc0
00000080: d5ee 18c0 06ec 8fc0 d3fc 78c0 0de6 7bc0
00000090: 48e2 81c0 ea7f 84c0 8e24 53c0 f272 80c0
000000a0: c296 8cc0 ca2c 53c0 a001 89c0 0709 8dc0
000000b0: 84b6 7fc0 5b1b 52c0 99ae 95c0 2963 6dc0
000000c0: 49d5 23c0 1cdb 803f d674 b73d 4215 953d
000000d0: 3f05 df3d 5788 803f 9da1 96be 6499 f5be
000000e0: b4d4 57bc d463 2d3f d5c2 06c0 a9bf 55bf
000000f0: 5a80 0a3f ccaa 723e 4cdc 953e ad77 053f
00000100: 212e 2e3c d520 c0bf 3350 fb3e 4c3a 443f
00000110: 238d 823f 6b16 853e 9a69 e1be 1459 58be
00000120: 44d3 87c0 c615 8ebe c24c 98c0 89cb 1ec0
00000130: d374 0dc0 a49c 0ac0 cfb1 82c0 92f8 42c0
00000140: f1a6 9bc0 32c5 87c0 2d86 8fc0 6012 f4bf
00000150: 8a04 f3bf c7ee f1bf 3c4a f1bf dcbb f3bf
00000160: ece4 f0bf 1c5f f1bf ca85 f2bf 2502 f3bf
00000170: dc82 f4bf 93bc f0bf 6d12 f2bf 536a f4bf
00000180: e354 f7bf 49b4 f0bf 1c1c f7bf 75cc f3bf
00000190: 2c2b f5bf b189 f2bf 9ae9 f2bf b88c f6bf
000001a0: ea9e f3bf 7a1d f2bf fdb8 f2bf 0a57 f3bf
000001b0: 147c f0bf d30a f8bf 516c f2bf 2199 f0bf
000001c0: 9333 f2bf 5a44 f2bf 8b4e f3bf 7f3e f3bf
000001d0: 5c71 eebf a5c2 f3bf fa21 f6bf cba3 f3bf
000001e0: 6e04 f3bf 1c0f f2bf 4d3c f3bf 48d7 f7bf
000001f0: 0d1a f5bf 5550 f5bf 87cd f3bf 6f4a f0bf
00000200: 49f6 f2bf a9ae f5bf c2db f3bf 894e f2bf
00000210: ad81 f3bf 7762 f3bf fca6 f3bf 05eb f4bf
00000220: 7f79 f3bf ac26 f2bf 80cc f3bf f5aa f2bf
00000230: 1700 f6bf 753d f4bf e775 f3bf 3d6b f3bf
00000240: 8810 f4bf 5104 f3bf 759f f3bf 8a44 f3bf
00000250: c491 f0bf 200d f2bf 4c3d f2bf 5978 f3bf
00000260: 6b0b f2bf 4f56 efbf 3a44 f4bf 3da7 f3bf
00000270: 138e eebf e9ce f0bf 9896 f1bf 042e f3bf
00000280: 7a52 f3bf 8f50 f0bf ebf7 f1bf a31c f5bf
00000290: 5a08 f3bf a0d8 f7bf c1dc f2bf dcee f3bf
000002a0: b5d3 f1bf defa f2bf efd0 eebf 76fc f5bf
000002b0: d49b f4bf f88c f7bf af75 f6bf 07b9 f5bf
000002c0: 69cf f5bf cb91 f4bf 3b46 f6bf b95b f6bf
000002d0: 917e f2bf aa0c f1bf ec3b f3bf 0c7b f1bf
000002e0: 50a5 f4bf 8610 f5bf d310 f7bf 0fa8 f0bf
000002f0: 3084 efbf a802 f5bf eaa4 f1bf 358d f0bf
00000300: e17d f3bf 063d f0bf 097c f6bf ba6b f3bf
00000310: dd7e f1bf 71a3 f7bf e6d9 efbf fb29 f0bf
00000320: e0a0 f4bf ae6d f5bf 7c3c f3bf 2046 f6bf
00000330: f17e f1bf c0c9 f1bf edd1 eebf 28aa f3bf
00000340: 224b f1bf e00a f3bf 294c f2bf c418 efbf
00000350: 94fe f1bf df92 f2bf 7ece f5bf 4436 f4bf
00000360: 359d f1bf 3480 f2bf 089b f2bf ba21 f3bf
00000370: 4cf7 f3bf f507 f4bf 570b f5bf 54d7 f0bf
00000380: c1c6 f2bf 3cff f1bf b6d3 f1bf d43b f4bf
00000390: 4029 f4bf b726 f4bf 793c f2bf 6a6d f1bf
000003a0: aa9f f3bf 48fa efbf 56fd f2bf c4c3 f5bf
000003b0: 9b78 f0bf 355d f4bf 78ba eebf 4b48 f2bf
000003c0: ceb6 f4bf cd33 f5bf 3a74 f4bf 4ec1 f3bf
000003d0: 7fbe f3bf 41d4 f5bf 8d44 f3bf 2b0a f0bf
000003e0: c9de f3bf 2802 f5bf b8ac f3bf 7804 f4bf
000003f0: 6f48 f1bf 624d eebf 8c42 eebf 6282 f3bf
-1.9132521 -3.9921477 0.29277763 -4.0681286 -4.8054376 -5.148866 -0.23257485 -2.519278
-0.4526744 -3.8049839 -4.271624 -3.769896 -3.829021 -3.6460335 -3.561455 -3.7328994
-3.468221 -2.7710226 -3.596695 -2.0804603 -0.8468342 -3.8759093 -3.6083798 -3.9564989
-4.2180486 -4.099239 -4.5025983 -4.4261866 -4.65036 -3.7593439 -0.5485374 -4.362429
-2.3895772 -4.4975615 -3.8904312 -3.9359162 -4.058872 -4.1406145 -3.2991061 -4.0140314
-4.393403 -3.2996087 -4.2814484 -4.407352 -3.9955149 -3.2829196 -4.677563 -3.7091773
-2.559893 1.0066867 0.089578316 0.07279445 0.108896725 1.0041608 -0.29420176 -0.4796859
-0.013173271 0.6773045 -2.1056416 -0.83495575 0.541021 0.23697966 0.29269636 0.52135736
0.010631115 -1.501002 0.49084625 0.76651454 1.0199322 0.25993666 -0.4402588 -0.2112773
-4.2445393 -0.27750987 -4.75937 -2.4811728 -2.2102554 -2.1658106 -4.084205 -3.0464215
-4.8641286 -4.2428217 -4.485129 -1.9068108 -1.898576 -1.8900994 -1.885078 -1.9041705
-1.8819861 -1.885715 -1.8947079 -1.898503 -1.9102435 -1.8807548 -1.8911873 -1.9094948
-1.932278 -1.8805019 -1.9305453 -1.904677 -1.91538 -1.894827 -1.897754 -1.9261694
-1.9032872 -1.8915246 -1.8962704 -1.9010937 -1.8787866 -1.9378303 -1.8939306 -1.8796731
-1.8921989 -1.8927109 -1.9008344 -1.9003447 -1.8628345 -1.9043776 -1.9229119 -1.9034361
-1.8985727 -1.8910861 -1.9002777 -1.9362574 -1.9148575 -1.916514 -1.9047097 -1.8772715
-1.898141 -1.9193927 -1.905144 -1.8930217 -1.9023949 -1.9014424 -1.9035335 -1.9134222
-1.9021453 -1.8918052 -1.9046783 -1.8958422 -1.9218777 -1.9081255 -1.9020356 -1.9017102
-1.9067545 -1.8985692 -1.9033037 -1.9005291 -1.8794484 -1.8910255 -1.8924956 -1.9021102
-1.8909734 -1.8698214 -1.9083321 -1.9035412 -1.8637108 -1.8813144 -1.8874083 -1.8998418
-1.9009545 -1.8774585 -1.8903784 -1.9149364 -1.8986924 -1.9362984 -1.8973619 -1.9057269
-1.8892733 -1.8982809 -1.8657511 -1.921767 -1.9110055 -1.9339895 -1.9254664 -1.9197091
-1.9203922 -1.9106992 -1.9240183 -1.9246742 -1.8944875 -1.883199 -1.9002662 -1.8865676
-1.9112949 -1.9145668 -1.9302009 -1.8801287 -1.8712215 -1.9141436 -1.8878453 -1.8793093
-1.902279 -1.8768623 -1.9256603 -1.901725 -1.8866841 -1.9346753 -1.8738372 -1.8762811
-1.9111595 -1.9174097 -1.9002833 -1.924015 -1.8866864 -1.8889694 -1.8657814 -1.9036303
-1.8851054 -1.8987694 -1.8929492 -1.8679433 -1.8905816 -1.8951072 -1.9203641 -1.907906
-1.8876101 -1.8945374 -1.8953562 -1.8994668 -1.9059844 -1.9064928 -1.9144086 -1.8815713
-1.8966905 -1.8906016 -1.8892734 -1.9080758 -1.9075089 -1.9074315 -1.8924705 -1.8861516
-1.9033101 -1.8748255 -1.8983562 -1.9200368 -1.8786806 -1.9090945 -1.8650656 -1.8928312
-1.9118288 -1.9156433 -1.909797 -1.9043367 -1.904251 -1.92054 -1.9005295 -1.8753103
-1.9052364 -1.9141283 -1.9037085 -1.9063864 -1.885023 -1.8617365 -1.8614058 -1.9024165

_orig_mod.lin3.weight f4 [83, 300]
00000000: 8f16 073d e04f 96bc 06ee 3abd 79ec 1ebd
00000010: f1a8 c4b8 9249 31bd 619e 30ba c577 633d
00000020: 0216 05bd ed9c f4bc 8684 4dbd c8b1 293d
00000030: 09e6 0f3d 2b17 7e3b 296b a83c 8abf a93c
00000040: 18c8 a03c b259 173d b8a9 27bc 5511 bfbc
00000050: d65b 24bd 09f1 e33c e2da 883b dcb4 233d
00000060: 1fdf 64bc aae1 273d 1f48 3c3d 55df 1ebd
00000070: f273 19bd 6fbb 46bd c55c a33c a609 40bd
00000080: c111 36bd c602 6ebc 287b 313b 3785 2cbb
00000090: fca0 373c 1ac3 ef3c fa36 233d f2ed 553d
000000a0: b69c e93b 7389 fb3c 4987 d73c 0b9c 87bc
000000b0: ab58 29bd 85f4 193d eb94 c1bb 3c47 443d
000000c0: e89d 36bd e868 58bd bd1b bf3a 1a54 4e3d
000000d0: 70eb 263d d8b6 0f3d d853 6bbb 5087 f639
000000e0: 747a af3c 2bae 3abd 6805 583d 05b1 ad3c
000000f0: 2bd2 9bbc 9d7c 023d 07f3 f23c cbae 433d
00000100: ff6f 3c3d f112 d5bc 0d99 fbbc 933b 4abb
00000110: ebe8 023d 22ff 6a3d 5050 143c 8b53 953c
00000120: 8d08 bb3c c29a e0bc 9752 2e3d 8289 17bd
00000130: ff9e 49bb 5da8 933c b2fd 183d b585 66bd
00000140: fd1f eebc 37f2 d6bb 43fb e13c 6ad0 233a
00000150: 8dd3 08bc 2ebf b23c fc9f db3a 8e7f 4ebd
00000160: bf00 97bc 44b2 f6ba 08e2 be3c 120d 543d
00000170: b652 ee3c 2f13 b3bc 90d4 be3c 7317 21bd
00000180: 3e54 bb3c 1bb2 d93c 4230 0ebd 2081 b8bc
00000190: 7552 263c f1ef 313d ee39 ac3c caa0 bfbc
000001a0: a934 c0bc 4da6 55bd 7908 543d 9865 ec3c
000001b0: 4206 3fbb fbf9 623d 5316 55bd dc21 023d
000001c0: 1891 dabb 4e32 41bc ed19 8bbb a431 143d
000001d0: 83f2 423d b922 83bc 5d7f 9abc e132 a0bc
000001e0: 9a87 3c3d 3cce 213d 255c 3b3d c6db 63ba
000001f0: 242c 33bd e735 fcbc 8be1 813c 0fac 3a3c
00000200: f9e0 93bb 4b16 45bc 18bc 073d 81cc 63bd
00000210: 8016 25bd 5ad7 e1bc b0f0 6bbd 6f24 33bd
00000220: 5b94 023d 03d9 a4bc d7c5 413d 542e 383d
00000230: 86ad 31bd e6df efb9 9056 41bc 199c be3c
00000240: 86db 15bd 9b87 593d bfef 45bd 49de 463d
00000250: 7cca ec3b 03d2 82bc 2f83 303d 7ab9 17bd
00000260: 48aa 66bd 8c77 003c 74f7 22bd 29e2 573c
00000270: 7898 393d 3dad 0fbd b1c1 283d d02b 40bc
00000280: d3e4 d5ba 8651 b33c 2ff7 ac3c 10e6 eebc
00000290: faa5 69bd 0b68 b23c b853 783c 5199 6fbc
000002a0: 7f76 3fbd c738 83bc bf78 2c3c dc51 4d3d
000002b0: 7d9e 8a3c 7485 203c 23f4 3e3d de70 d8bc
000002c0: d22a e23b 7c36 e2bb d2c4 9fbb b44f e5bb
000002d0: 9c92 adbc 6923 64bd 59ea 5b3d 0e5b 4abd
000002e0: c654 44bd e86e 3c3d c9df 6ebc ac61 433c
000002f0: 5245 e2bb 1236 22bd 8260 cb3c 1bb3 203d
00000300: dd47 92bc 9950 07bd 580d 43bd 3d39 0d3c
00000310: 84f2 2c3d 129d d0bb e0b3 a93c 3551 ee3c
00000320: c2f1 663d cac9 5abc d1f7 e9bb 23a3 1d3d
00000330: d9ad 0ebd a74f 09bd 3111 68bd fefc 37bd
00000340: 8d7a e33a 2df6 acbc 00cd 393d 29f5 733c
00000350: e6d3 973c 8937 8ebc 6fcb 80bc 4709 9cbc
00000360: 5251 133d c9db 42bc 8a12 cabc 40f5 20bd
00000370: 815c 3cbd 5484 ef3b 40f1 64bb 6451 1bbd
00000380: c597 54bd c8aa c73b b4f7 593d bec9 213d
00000390: 1704 143d 6e89 55bc 7ddc dc3c 180f b5bc
000003a0: d4b6 533d 48a3 1d3d 25ef 273c 4fe6 5a3c
000003b0: 0c8c ff3c d6d7 533d 9770 de3c e417 a93c
000003c0: 7bea bcbc d26d c9bc 9a01 25bc 9636 2a3c
000003d0: 82c3 c23b 37f9 51bd 20bf 843c c92a 853c
000003e0: a00f 363d 3c48 a7bc 6173 abbb 7488 35bc
000003f0: 5d25 973c 41dd 7f3c d06d 403d acd7 233d
0.032980498 -0.018348634 -0.045637153 -0.038799737 -9.377476e-05 -0.043283053 -0.00067374675 0.055534143
-0.03249169 -0.029859984 -0.050175212 0.04142931 0.035131488 0.0038771133 0.02055891 0.020721216
0.019626662 0.036950774 -0.010233335 -0.023323694 -0.040126644 0.027824895 0.0041764835 0.039967403
-0.013969212 0.040986694 0.045967218 -0.038787205 -0.03746409 -0.048518594 0.019941697 -0.0468842
-0.044450525 -0.014527028 0.0027081463 -0.002632452 0.011207815 0.029267836 0.03984735 0.052228875
0.007129277 0.03070519 0.026309626 -0.0165539 -0.041344326 0.037586708 -0.005907645 0.047919497
-0.044584185 -0.05283442 0.001458041 0.050373174 0.040751874 0.035086483 -0.003590813 0.00047021592
0.021420695 -0.045576256 0.05273953 0.021202574 -0.019021114 0.03185712 0.0296569 0.047774117
0.046005245 -0.026010009 -0.030712629 -0.0030858263 0.03196041 0.05737222 0.009052351 0.018228313
0.022831226 -0.027417544 0.042559233 -0.036996372 -0.0030764935 0.018024618 0.037351318 -0.056279857
-0.029067988 -0.006559636 0.027585631 0.00062490127 -0.008351219 0.021819677 0.0016756053 -0.050414614
-0.018432973 -0.0018821438 0.02330114 0.051770277 0.029092174 -0.021859733 0.023294717 -0.039329004
0.022867318 0.026574185 -0.03471399 -0.02252251 0.010151495 0.043441717 0.021023717 -0.0233921
-0.02346261 -0.05216055 0.051765893 0.028857037 -0.0029148017 0.05541418 -0.052023243 0.031770572
-0.0066701286 -0.011791779 -0.004245034 0.036180153 0.04759456 -0.016007768 -0.01885956 -0.019555511
0.046027757 0.03950332 0.045742173 -0.00086921116 -0.043743268 -0.030787421 0.015854618 0.011393561
-0.004512903 -0.012029241 0.033138365 -0.055614952 -0.04030466 -0.027568508 -0.057602584 -0.043735918
0.031879764 -0.02012301 0.047307815 0.044966057 -0.043378375 -0.0004575245 -0.011800423 0.023267793
-0.036586307 0.05310784 -0.048324343 0.04855183 0.0072262865 -0.015969282 0.043093856 -0.03704212
-0.056314737 0.007841002 -0.03978677 0.013176479 0.04531142 -0.035077322 0.041200344 -0.011729196
-0.0016318805 0.02188946 0.02111396 -0.029162437 -0.057043053 0.021778127 0.015156679 -0.014623956
-0.046743866 -0.016018284 0.010526835 0.050126895 0.016921276 0.009797443 0.046619546 -0.026421007
0.0069020772 -0.0069034677 -0.0048757577 -0.0069980267 -0.021188073 -0.055697832 0.05369029 -0.049403243
-0.04793241 0.046004206 -0.014579722 0.011925142 -0.0069052363 -0.039602347 0.024826292 0.03923331
-0.017856533 -0.03303585 -0.047620147 0.008619604 0.04222347 -0.0063663805 0.020715654 0.029091457
0.056382902 -0.013353774 -0.0071401377 0.038485657 -0.034833763 -0.033523228 -0.05665702 -0.044919007
0.0017355249 -0.02111348 0.04536152 0.014889994 0.018533658 -0.017360466 -0.015722005 -0.019047393
0.035966225 -0.011893221 -0.024667043 -0.03929639 -0.045986656 0.007309476 -0.0034933835 -0.037919417
-0.05190255 0.0060933568 0.053214744 0.039499037 0.036136713 -0.013033254 0.026960606 -0.022101924
0.05168803 0.038485795 0.010249888 0.013360574 0.03119471 0.05171951 0.027153296 0.020641275
-0.023061028 -0.0245885 -0.010071183 0.010388991 0.0059437165 -0.05126306 0.016204417 0.016255753
0.044448495 -0.020420186 -0.00523226 -0.011079896 0.018450433 0.015616716 0.046979725 0.040000603

_orig_mod.lin3.bias f4 [83]
00000000: 5582 2bbb f299 843c 09e0 403b a26c 003b
00000010: d040 123d b5cd 55bd 8ec9 8bb9 0e3a e53b
00000020: 761f 923c a3f1 443d 013a b0bc 0b36 26bd
00000030: 3544 983c d630 f73c 969f 1ebc 9514 0ebd
00000040: 47c4 313d 9a42 dabc d727 0b3d fa81 683d
00000050: 5459 083c 38d8 c7bb 5cc6 08bd 85be 223a
00000060: 5d2d 25bb c5ed e5bc 032e 83bc 3789 3bba
00000070: be07 9d3a fd0f b5ba 23ab 58bc 6483 1fbd
00000080: bfba e5ba c1fc 393d 282f e53c 65e3 803b
00000090: 17cf 3d3d e76a a73c 45a4 613c 2404 163d
000000a0: 6435 b9bc 3f9d 41bd f327 83bc afec 703c
000000b0: cc6e b2bb 87c8 ebbb 4233 533d 641f 96bc
000000c0: c7e0 383c d561 34bd 40c0 2e3d 54bb 933c
000000d0: c9b3 25bd 8681 ddbc aae4 463d 13be 3a3c
000000e0: 4b43 28bb 6c6c b5bb b85a 953c 283a 813c
000000f0: 359a 673c c00f b3bc 974f 3d3b d725 0dbc
00000100: 1227 2abd 7b84 653d 13f0 61bc 0ccc 413d
00000110: 93d4 8ebb 6146 86bc 7162 1ebc 3d4e 603d
00000120: 1de1 fd3c 9df7 4bbc 75a8 74bc c288 b93c
00000130: 2a5c 083d 81a8 c63c f30f 0c3d bd09 1c3d
00000140: 976f 5dbd 79bb 22bd 25d9 333b
-0.0026170213 0.016186688 0.002943041 0.0019596 0.03570634 -0.05219813 -0.00026662316 0.006995446
0.017837267 0.048082005 -0.021512033 -0.040578883 0.018587211 0.030174654 -0.009681603 -0.034687597
0.043400075 -0.026643086 0.03397354 0.05676458 0.008322079 -0.0060987733 -0.033392295 0.0006208199
-0.002520404 -0.028067479 -0.016013151 -0.00071539305 0.0011980457 -0.0013813969 -0.013224396 -0.038943663
-0.0017526968 0.04540706 0.027976587 0.0039333575 0.046340074 0.020436717 0.013772075 0.036625043
-0.022608466 -0.047269102 -0.01601026 0.014704867 -0.005445337 -0.0071955356 0.051562555 -0.018325515
0.01128406 -0.044038612 0.042663813 0.018033661 -0.04045466 -0.0270393 0.048557915 0.011397856
-0.0025674875 -0.0055366065 0.018231735 0.015774801 0.014135887 -0.021858096 0.002888655 -0.008614979
-0.041541167 0.056034546 -0.013790148 0.047313735 -0.004358837 -0.016390981 -0.009667025 0.054762114
0.030991131 -0.012449172 -0.014932741 0.022648219 0.03329102 0.02425027 0.034194898 0.038095225
-0.0540615 -0.03972957 0.002744266
