gt_eng_model_upper_two_hid_layer_emb2_block_size_15.pth (torch, 767625 bytes, 7 tensors)

_orig_mod.emb.weight f4 [83, 2]
0	0xbd68cb3b	-0.05683444
1	0x3c27645b	0.010216798
2	0x3f51b3a6	0.81914747
3	0xbea96ffe	-0.33093256
4	0x3f8761df	1.0576743
5	0xbf3cacf7	-0.73701423
6	0x3f6fbb63	0.93645304
7	0x3fa70237	1.3047551
8	0x3f8d3649	1.1032192
9	0xbf49ee68	-0.78879404
10	0x3ddbd271	0.10733498
11	0x3f2da8c2	0.6783563
12	0x3f091524	0.53547883
13	0x3f9d258e	1.2277086
14	0x3f904ebc	1.1274028
15	0xbf413603	-0.7547304
16	0x3f6ea2e8	0.93217325
17	0x3fbae6d0	1.4601688
18	0x3e283e73	0.16430072
19	0x3f27c76e	0.6553868
20	0x3f40e308	0.7534642
21	0x3fb30364	1.398541
22	0xbf00a7d7	-0.50256103
23	0xbe844955	-0.25837198
24	0xbf7185a4	-0.94344544
25	0x3e6b6616	0.22988161
26	0x3eedb6ec	0.4642862
27	0x3fd1a4fc	1.6378474
28	0xbe327f76	-0.17431435
29	0xbf3690f9	-0.7131496
30	0xbf6bad2b	-0.9206111
31	0xbf4c8f1e	-0.7990588
32	0xbf68dc40	-0.90961075
33	0xbf217650	-0.63071156
34	0xbe60aff0	-0.21942115
35	0xbf299c3f	-0.6625404
36	0xbf79cf88	-0.9758229
37	0x3dc0d094	0.09414783
38	0x3f10024f	0.5625352
39	0x3fab6c74	1.3392472
40	0x3ef2233d	0.4729251
41	0x3fb15b71	1.3856031
42	0x3f8bae54	1.0912576
43	0x3f9bd6ec	1.2174964
44	0xbf7c57c1	-0.985714
45	0xbeeffe76	-0.46873826
46	0x3f1eeaee	0.62077224
47	0xbec82875	-0.39093366
48	0x3f8b4ba3	1.0882457
49	0x3e6b6aef	0.2299001
50	0x3ecb2e8a	0.39683944
51	0x3e45a366	0.19300613
52	0xbfe4fb2c	-1.7889152
53	0x3f2b1512	0.66829026
54	0x3e8b6f48	0.27233338
55	0x3e15fe49	0.14647783
56	0x3f8b873c	1.0900645
57	0xbd1174e4	-0.035511866
58	0xbf3b2f41	-0.7311898
59	0x3f9cbfa7	1.2245988
60	0xbf8425e4	-1.0324063
61	0x3f040d16	0.5158247
62	0x3f7d8e0b	0.99044865
63	0x3e2921c7	0.16516791
64	0xbfb56e5a	-1.4174302
65	0x3f9311af	1.1489772
66	0x3e73f214	0.23822814
67	0x3e42affd	0.19012447
68	0x3ce47133	0.027886009
69	0xbec9da3a	-0.39424306
70	0xbd90361b	-0.0704157
71	0x3eefb699	0.46818998
72	0xbec927a2	-0.3928805
73	0xbf3f2b70	-0.74675655
74	0x3f16bc02	0.5888063
75	0xbdb6fa5c	-0.08934471
76	0xbe1ad1aa	-0.15119043
77	0xbfe78147	-1.8086327
78	0x3ec2a8bc	0.3801936
79	0x3e3db1e0	0.18524885
80	0x3f0739d6	0.52822626
81	0x3eeea6fd	0.46611777
82	0x3ef3ab4d	0.4759163
83	0x3f60c4d5	0.8780034
84	0xbf95d980	-1.1707001
85	0x3e646474	0.22303945
86	0xbde2e69a	-0.1107914
87	0x3f29e703	0.6636812
88	0x3b139a6b	0.002252246
89	0x3fa0d407	1.2564706
90	0xbdba00d5	-0.0908219
91	0x3f236a28	0.63833857
92	0x3f796b57	0.9742941
93	0xbfc18fdc	-1.5122027
94	0x3ff8f7ad	1.9450585
95	0x3fa682c5	1.3008658
96	0x3f2df59b	0.6795289
97	0x3fc1e889	1.5149089
98	0xbf865ed4	-1.0497689
99	0xbf16bca8	-0.58881617
100	0x3f0559bf	0.52090067
101	0xbeccf7c6	-0.40032786
102	0x3f74b4f1	0.95588595
103	0x3e74d990	0.23911119
104	0xbe160842	-0.14651588
105	0x3f00e571	0.503501
106	0xbf0e5b12	-0.5560771
107	0xbc835eda	-0.01603644
108	0x3ea03b89	0.31295422
109	0x3dd26b56	0.10274379
110	0xbe7a95b6	-0.24471173
111	0x3f4522b6	0.7700609
112	0xbed4b37b	-0.41543183
113	0x3f79b3ea	0.9754015
114	0xbf7acf2a	-0.9797236
115	0xbf97791b	-1.1833833
116	0xbfbba987	-1.4661111
117	0x3fd55923	1.6667827
118	0xbf161a65	-0.58634025
119	0x3edf3bfc	0.43600452
120	0xbd25e21b	-0.040498834
121	0xbe2db36e	-0.16962978
122	0x3e05c27c	0.13062471
123	0xbf175887	-0.59119457
124	0xbe35aaf7	-0.17740999
125	0x3e719786	0.23592958
126	0xbed419f8	-0.41426063
127	0xbf36c418	-0.71392965
128	0x3f1fc68a	0.6241232
129	0x3e03bccd	0.1286499
130	0xbeb95bbf	-0.3620281
131	0xbff08cc5	-1.879296
132	0x3cad9e01	0.021193506
133	0x3d913f7e	0.07092188
134	0x3ec6312b	0.38709387
135	0x3ee329ae	0.44367737
136	0x3f0ab0d7	0.54176086
137	0x3f5a04dc	0.85163665
138	0xbf9c72d1	-1.2222539
139	0xbd6824fa	-0.05667589
140	0xbf790ebb	-0.972881
141	0x3f87b6cd	1.0602661
142	0x3dee4ec0	0.11636114
143	0x3fb7574e	1.4323518
144	0x3ec5b4ef	0.38614604
145	0x3f03fa56	0.5155386
146	0xbc0ee267	-0.008720971
147	0x3f0df9a3	0.5545904
148	0xbef82639	-0.48466662
149	0x3f36ad51	0.7135821
150	0xbfaf3c63	-1.3690304
151	0xbed79fc2	-0.42114073
152	0x3f582ff3	0.84448165
153	0xbf192ff5	-0.598388
154	0x3e0bca6f	0.13651441
155	0xbfa2449b	-1.2677187
156	0xbeaae85e	-0.33380407
157	0x3ef691f9	0.48158243
158	0x3f64db76	0.8939737
159	0xbe9dc8bf	-0.3081722
160	0xbf5f37fd	-0.87194806
161	0x3e1abab1	0.1511028
162	0x3f92a034	1.145514
163	0xbf07e714	-0.5308697
164	0x3f416d14	0.75557065
165	0x3facef71	1.3510572

_orig_mod.lin1.weight f4 [500, 30]
0	0x39c4f5ef	0.00037567268
1	0x38b95b09	8.838444e-05
2	0xbcbfd8ca	-0.023418803
3	0x3bcb1031	0.0061969985
4	0x3d033cff	0.032040592
5	0x3c541430	0.012944266
6	0x3d35d249	0.044389997
7	0x3c736989	0.0148567045
8	0x3cd57c02	0.026060108
9	0xbb29c4f8	-0.0025904756
10	0xbc624981	-0.01381147
11	0xbc561105	-0.013065581
12	0xbb9d9e47	-0.004810128
13	0x3c867b53	0.016416227
14	0x3be8ef8a	0.0071086334
15	0xbcc47b89	-0.023984687
16	0xbc13d857	-0.009023747
17	0xbbb1d308	-0.005426768
18	0xba8dbead	-0.0010814272
19	0xbbab6da3	-0.0052315756
20	0x3ceb30f6	0.02870987
21	0x3c759e1a	0.014991308
22	0x3cf3edf2	0.029776547
23	0xbc2aed96	-0.010432621
24	0x3ba4a97e	0.005025088
25	0x3d1510f9	0.03639314
26	0x3aaabb08	0.001302571
27	0x3bfc6aba	0.0077031525
28	0x3c0f6d64	0.008754108
29	0xbc9c86ff	-0.01910734
30	0xbc9b0678	-0.018923983
31	0xbca0fc5b	-0.019651582
32	0xbcc31695	-0.023814479
33	0xbc58f4f4	-0.013241995
34	0xbc9e93f2	-0.019357655
35	0x3d1c6a92	0.03818757
36	0xbca3fb78	-0.02001737
37	0x3866487f	5.490379e-05
38	0xbc624d1e	-0.0138123315
39	0xbb32cf8c	-0.0027284352
40	0xbd5ddb80	-0.05416441
41	0x3c7727e9	0.015085199
42	0x3a52a9d8	0.0008036173
43	0xbab3d96a	-0.0013721411
44	0x3d8354b4	0.0641264
45	0x3c816ca9	0.015798884
46	0x3d56b775	0.052421052
47	0x3da742be	0.08167027
48	0x3d8d7d03	0.0690861
49	0x3cea3af3	0.028592562
50	0x3e3b312f	0.18280481
51	0xbc2afcf2	-0.010436283
52	0x3e9da268	0.3078797
53	0xbcfb9b65	-0.030713746
54	0x3f28370d	0.65709
55	0x3db364d0	0.08759463
56	0x3e2506ed	0.16115923
57	0xbea8b42d	-0.32949963
58	0xbfc2e985	-1.5227515
59	0xc0174fd8	-2.3642483
60	0xbc883918	-0.016628787
61	0x3c8fd1a0	0.017556012
62	0x3c63df42	0.013908209
63	0x39639d1d	0.00021706936
64	0xbb503279	-0.0031768365
65	0xbc5df499	-0.013547086
66	0x3cac11b7	0.02100454
67	0xbba29b1c	-0.004962338
68	0x3c2631bb	0.010143693
69	0xbcda747a	-0.026666868
70	0x3c56ab1c	0.013102319
71	0x3b09e102	0.0021038656
72	0xbcab3513	-0.020899331
73	0x3d05ecee	0.032696657
74	0x3bd24783	0.0064172163
75	0x3c17d7f8	0.0092678
76	0x3c20960f	0.009801402
77	0x3c513767	0.012769557
78	0x3af24b23	0.0018485527
79	0x3c11c22f	0.008896395
80	0x3b165972	0.0022941497
81	0xbc78986a	-0.015173057
82	0xbcc2934b	-0.023751875
83	0x3c9aff24	0.018920489
84	0xbce2358d	-0.027613426
85	0x3c53dcb7	0.0129310405
86	0x3bf5c399	0.0075001237
87	0x3baad1d3	0.0052130013
88	0x3cda64f5	0.026659468
89	0x3b55f518	0.0032647308
90	0x3b64079b	0.0034794572
91	0xbca964e4	-0.020677991
92	0xbbd5ad41	-0.0065208976
93	0x3cdca5ea	0.026934583
94	0x3c492ebe	0.012279211
95	0xbc3295b6	-0.010899952
96	0x3d125a04	0.035730377
97	0x3c82b612	0.015955959
98	0xbc1ea618	-0.0096831545
99	0xba8fde10	-0.0010976214
100	0xbc61c454	-0.013779718
101	0xbcce43ab	-0.025178751
102	0x3d25e2eb	0.04049961
103	0xbc1cffa8	-0.009582438
104	0x3d915207	0.070957236
105	0xbd0b01d9	-0.03393731
106	0xbd7cedca	-0.06175021
107	0xbbed8c88	-0.0072494186
108	0xbc9bb738	-0.019008264
109	0xbc932cd0	-0.017965704
110	0xbb114c0c	-0.0022170572
111	0xbd2173ed	-0.039417196
112	0xb8a0cf54	-7.6680124e-05
113	0xbd61954b	-0.055074017
114	0x3c80ee29	0.015738564
115	0x3c92b396	0.017907899
116	0x3cdf7eec	0.0272822
117	0xbc4a7128	-0.01235608
118	0xbb962fc8	-0.0045833327
119	0xbc971b15	-0.01844553
120	0xbc974560	-0.018465698
121	0x3c328d3e	0.010897933
122	0xbc7041f1	-0.014664159
123	0x3c09c678	0.008409135
124	0x3d2069c3	0.039163362
125	0xbbca1f96	-0.006168316
126	0x3d0e1439	0.034687255
127	0x3c996907	0.018726839
128	0xbced7dc3	-0.028990632
129	0xbcb6dd5c	-0.02232235
130	0x3c77f4af	0.015134021
131	0xbc5c67be	-0.013452468
132	0x3d024d6c	0.031812117
133	0x3caa7f69	0.020812707
134	0x3ca07e64	0.019591518
135	0x3cd32623	0.025775021
136	0x3cab6626	0.020922732
137	0xbd0beff0	-0.03416437
138	0xbbb0ddc8	-0.005397532
139	0xbc757352	-0.014981108
140	0xbc948def	-0.018134085
141	0xbc7a95bf	-0.015294491
142	0xbc839ef2	-0.016067002
143	0xbc4fc978	-0.012682311
144	0xbc766335	-0.015038301
145	0x3b2c971a	0.002633518
146	0x3c8d8908	0.017277256
147	0xbcc0cebd	-0.02353608
148	0x3ba855c8	0.005137179
149	0x3d2a1084	0.041519657
150	0x3b57b3f7	0.0032913664
151	0x3cb0ac4b	0.02156653
152	0x3c5194f2	0.012791859
153	0xbc9979a4	-0.01873476
154	0xbd12861e	-0.035772435
155	0xbc91aebd	-0.017783517
156	0xbc99fbce	-0.018796828
157	0xbc9b30a0	-0.018944085
158	0xbcde8749	-0.027164118
159	0xbc88ff17	-0.016723199
160	0x3ca51837	0.020153148
161	0x3c95138f	0.018197803
162	0xbcb34c4c	-0.021886967
163	0x3c8d7082	0.017265562
164	0xbca4f6b3	-0.020137167
165	0x3c13786f	0.009000882
166	0xbc7c8c9a	-0.015414381
167	0xbc62cc87	-0.013842708
168	0x3b5dac21	0.003382452
169	0x3ca89d2c	0.020582758
170	0x39df6d0e	0.00042615127
171	0xbcfd76a2	-0.030940358
172	0x3d2da7b7	0.042396273
173	0x3c8d23e9	0.017229037
174	0x3a9f53d1	0.0012155717
175	0xbd27cc25	-0.04096617
176	0xbcd769e1	-0.026295604
177	0xbc4f0286	-0.012634879
178	0x3b2b00c2	0.002609298
179	0xbc81df1a	-0.015853453
180	0xbb9df8d5	-0.004820923
181	0x3d07ae2e	0.033125095
182	0x3c7c4433	0.015397119
183	0x3cbcc0b9	0.023041116
184	0x3cce043a	0.0251485
185	0x3cac915d	0.021065408
186	0x3c5ff609	0.013669499
187	0x3d910fd1	0.07083095
188	0xbb4da2f6	-0.003137765
189	0x3df4d36b	0.11954387
190	0xbd1a239d	-0.03763162
191	0x3dc04bf1	0.09389485
192	0xbd4154f6	-0.047200166
193	0x3d9f7a25	0.07786969
194	0xbd2e3aab	-0.04253642
195	0x3c041583	0.008061769
196	0x3d0ce1c3	0.03439499
197	0x3d83b78e	0.06431495
198	0xbbe1d929	-0.0068923426
199	0xbd438430	-0.047733486
200	0x3d5c85ac	0.053838417
201	0xbe78ea5d	-0.24308152
202	0xbef46c58	-0.4773891
203	0xbf17412b	-0.59083813
204	0xc0719fb1	-3.7753718
205	0x3f6d2a3d	0.92642576
206	0xbf061148	-0.5237012
207	0xc088f224	-4.279558
208	0xc03a88ff	-2.9146116
209	0xc05693dd	-3.3527749
210	0xbcc03507	-0.023462785
211	0xbd5bd447	-0.05366924
212	0xbb5ca672	-0.0033668545
213	0x3aba2ee1	0.0014204645
214	0x3d1b4dc9	0.03791598
215	0x3b103488	0.0022003967
216	0x3b536dd8	0.0032261517
217	0xbb912af7	-0.0044301706
218	0x3be705aa	0.0070502358
219	0xbb9a777c	-0.0047139507
220	0xbcec156b	-0.028818807
221	0xbce35e15	-0.027754823
222	0x3c609afd	0.013708827
223	0xbc976d49	-0.018484728
224	0x3c84ed3d	0.016226405
225	0xbd2836e5	-0.041067977
226	0x3c2fcc33	0.010729837
227	0x3b12bec9	0.002239155
228	0x3c1fe50e	0.009759201
229	0xbb74ded8	-0.003736427
230	0x3abb6e1d	0.0014299784
231	0x3d5ef3b3	0.05443163
232	0x3c5b16e6	0.013372159
233	0xbd01db66	-0.031703375
234	0xbd198a18	-0.037485212
235	0x3ccd2fde	0.025047239
236	0x3bc74824	0.006081598
237	0x3c36b32b	0.011151115
238	0x3be7b11c	0.0070706736
239	0x3d30591a	0.043053724
240	0xbc323748	-0.010877438
241	0x3c4b91c5	0.012424891
242	0x3c324c38	0.01088243
243	0x3cf2a6bc	0.02962052
244	0x3c11df99	0.0089034075
245	0x3c8e9f88	0.017410055
246	0xbcfb9a68	-0.030713275
247	0xbccc0e56	-0.02490918
248	0x3d82265c	0.06354973
249	0xbd4b0d0d	-0.049572993
250	0x3d81693f	0.06318902
251	0x3d364c19	0.044506166
252	0x3d79a911	0.06095225
253	0xbb8d4d12	-0.004312166
254	0x3d319e9e	0.04336416
255	0xbdb216f9	-0.08695788

_orig_mod.lin1.bias f4 [500]
0	0x3c8c5f9e	0.017135438
1	0x3edca538	0.43094802
2	0x3cb03ee0	0.021514356
3	0x3b6c5db9	0.0036066605
4	0x3c7d2201	0.015450002
5	0xbb3e9411	-0.0029079954
6	0xbfba0b50	-1.4534702
7	0xbc20ddf5	-0.009818544
8	0xbf9b1e9b	-1.2118715
9	0xbf9dd2ad	-1.2329918
10	0x3b2404e8	0.0025027338
11	0x3b9befa1	0.0047587906
12	0x3c07cab0	0.008288071
13	0x3ede1e2f	0.43382403
14	0xc0072ae6	-2.1119933
15	0x3f5e78ae	0.8690289
16	0x3cb9c632	0.022677515
17	0xbcd58ffe	-0.026069637
18	0xbee9c05a	-0.45654565
19	0x38458eef	4.7101577e-05
20	0x3fa3b790	1.2790394
21	0x3c7eee1e	0.015559701
22	0xbeeb020d	-0.45900002
23	0xbe8a5dec	-0.27024782
24	0xbcaae9d2	-0.020863447
25	0x3b17bd63	0.0023153655
26	0x3ca30878	0.0199015
27	0xbc5889e7	-0.013216472
28	0xbc5341a8	-0.012894072
29	0x3cb557b9	0.022136556
30	0x3e405e74	0.18786031
31	0xbf444f80	-0.7668381
32	0xbf706470	-0.93903255
33	0x3ac32d79	0.0014890871
34	0x3f4db248	0.8035016
35	0xbfd106cf	-1.6330203
36	0xbcce8509	-0.02520992
37	0xbc9f7bb5	-0.019468168
38	0xbbf3dfb4	-0.007442439
39	0xbc0d38b4	-0.008619476
40	0xbc0909fc	-0.008364197
41	0xbc65f6bf	-0.01403588
42	0xbc98a775	-0.018634537
43	0x3e1c0863	0.15237574
44	0xbfd36dfa	-1.6517937
45	0xbb351dbf	-0.0027636138
46	0x3d006f1d	0.031355966
47	0x3caf9e43	0.02143777
48	0xb68843a7	-4.0609916e-06
49	0xbea29290	-0.31752443
50	0xbeb3e17e	-0.35132974
51	0xbb11900c	-0.0022211103
52	0x3f763d9b	0.9618775
53	0xbb9a1fe4	-0.0047035087
54	0x3c958909	0.01825382
55	0x3cca0a29	0.024663048
56	0x3c1c595b	0.009542788
57	0x3f72839e	0.9473208
58	0xbc188265	-0.009308432
59	0xbfb21c95	-1.3914973
60	0xbe99d14a	-0.30042487
61	0x3f4b4ab3	0.79410857
62	0xbb8bce64	-0.004266547
63	0x3c47f124	0.0122034885
64	0xba660a5d	-0.0008775348
65	0x3b1fd591	0.002438877
66	0xbf2d5bf2	-0.6771842
67	0x3c754f5c	0.014972534
68	0xbdf55290	-0.11978638
69	0x3bcc85c7	0.0062415334
70	0xba8e78ef	-0.0010869781
71	0xc006e0ce	-2.107471
72	0x3c8368d2	0.016041193
73	0xbf173503	-0.59065264
74	0xbca609b1	-0.020268293
75	0xbc812e87	-0.015769256
76	0xbfc8cf10	-1.568819
77	0xbb3ffb58	-0.00292941
78	0x3abf2346	0.0014582656
79	0xbc85b1e8	-0.016320184
80	0xbf6508d2	-0.89466584
81	0xbc661085	-0.0140420245
82	0x3afed60c	0.0019442453
83	0xbb91e2dd	-0.004452093
84	0xbc020d20	-0.0079377
85	0x3e2a8617	0.16652714
86	0x3f93ac3a	1.1536934
87	0x3c9b62dd	0.01896804
88	0xbe2f1d43	-0.17101006
89	0xbf23d6a4	-0.6399939
90	0x3da6370a	0.081159666
91	0x3c89ac07	0.016805662
92	0xbb07f82d	-0.002074729
93	0xbf7c56d5	-0.98569995
94	0x3c11406a	0.008865455
95	0xba6fb0c6	-0.0009143468
96	0xbc1afbc6	-0.0094594415
97	0x3e378be3	0.17924456
98	0xbf3574ef	-0.7088155
99	0xbbf55ded	-0.0074880035
100	0x3e9a0824	0.30084336
101	0x3bdf6ac2	0.0068181464
102	0x4016cb0b	2.3561428
103	0xbbbc1b3e	-0.005740552
104	0x3c8d7199	0.017266082
105	0x3b4c2c6a	0.0031154403
106	0x3ed7d4d1	0.42154554
107	0x3d0a3c3f	0.03374886
108	0xbb280275	-0.002563623
109	0x3cb4d87f	0.02207589
110	0x3c387bb5	0.011259963
111	0x3c8a1392	0.016855035
112	0x3c3e4e53	0.011615354
113	0xbe2f27ac	-0.17104977
114	0x3f90c3a1	1.1309701
115	0x3ee2a554	0.4426676
116	0xbe18d173	-0.14923649
117	0x3f40f350	0.75371265
118	0x3ec460f6	0.38355225
119	0x3cfca4e9	0.030840354
120	0xbea622d5	-0.3244845
121	0x3fff72a1	1.9956857
122	0x3cb3f537	0.021967513
123	0xbc69fe4b	-0.01428182
124	0x3c756222	0.01497701
125	0xbc34e497	-0.011040828
126	0xbf487a62	-0.7831174
127	0x3f8097f3	1.0046371
128	0x3ccfede2	0.025381986
129	0x3ede2fa8	0.43395734
130	0x3bdc2465	0.0067182058
131	0xbeafe9df	-0.34358117
132	0x3c144282	0.00904906
133	0xbea73796	-0.32659596
134	0xbade4833	-0.0016958773
135	0xbce80171	-0.028321
136	0x3c64c020	0.013961822
137	0x3c201d59	0.009772622
138	0x3bf81b20	0.007571593
139	0xbb722556	-0.0036948523
140	0x3c612dcd	0.01374383
141	0xba7509db	-0.0009347477
142	0x3f482fe4	0.78198075
143	0x3a5778f2	0.00082196214
144	0x3ac6b2f6	0.0015159536
145	0xbf85b0af	-1.0444545
146	0x3f77790c	0.9666908
147	0xbd0446f3	-0.032294225
148	0x3efe8515	0.4971091
149	0xbbd67394	-0.0065445397
150	0x3a722ab3	0.000923793
151	0xbbe017f2	-0.006838792
152	0x3d6dd682	0.0580659
153	0xbce9f423	-0.028558796
154	0xbcfb10b0	-0.030647606
155	0x3cad399a	0.02114563
156	0xbec1794f	-0.37787864
157	0x3d4f02bc	0.050539717
158	0xbba09ebf	-0.0049017365
159	0xba5a6943	-0.0008331725
160	0xbc8338f4	-0.016018368
161	0x3f2c1cd7	0.67231506
162	0x3e211093	0.15728979
163	0x3ca476b7	0.020076139
164	0xbef2ab64	-0.47396386
165	0xbc3e72fc	-0.011624094
166	0x3c3e8acb	0.0116297705
167	0xbc0e4f63	-0.008685919
168	0xbff12c5c	-1.8841662
169	0x3becb2e8	0.0072234757
170	0xbb0d3d13	-0.0021551296
171	0x3cc52b1b	0.024068406
172	0xbcf728ec	-0.03017088
173	0x3e910e22	0.28331095
174	0x3c165a14	0.00917675
175	0x3fbdc7f4	1.4826646
176	0x3afc8c8a	0.0019267958
177	0x3ed0cea2	0.40782648
178	0x3c827264	0.015923686
179	0xbafb46ff	-0.0019170939
180	0xbcf03e5d	-0.029326612
181	0x3b9d4da0	0.0048005134
182	0xbf5f02e5	-0.8711379
183	0xc004ab64	-2.0729609
184	0x3d26962c	0.04067056
185	0x3b83b4a2	0.004019336
186	0xbea34643	-0.31889543
187	0x3f9c10aa	1.2192585
188	0xbc5884a8	-0.013215221
189	0x3c53fc1f	0.012938528
190	0x3f918028	1.1367235
191	0x3dcb9895	0.09941212
192	0x3e6bd4f2	0.23030451
193	0x3d130be5	0.035900015
194	0xbb274ae1	-0.002552681
195	0x3b8c048e	0.004273004
196	0xbc86e539	-0.016466724
197	0xbcce050f	-0.025148897
198	0xba5370bb	-0.00080658094
199	0x3997e6ba	0.0002897287
200	0x3b31ca4f	0.0027128642
201	0x3ccca49f	0.024980841
202	0xbd176710	-0.036963522
203	0xbe9e89f2	-0.3096462
204	0xbb940288	-0.0045169033
205	0xbf657e91	-0.8964625
206	0xbcfd69d4	-0.030934252
207	0x3b27575c	0.0025534248
208	0xbf48722c	-0.7829921
209	0xbe50af13	-0.20379286
210	0x3c45eee9	0.012080886
211	0x3cc832a4	0.02443821
212	0x3fc2a67a	1.5207055
213	0xbcfbf93f	-0.030758498
214	0xbb21a673	-0.0024665862
215	0x3b24bb96	0.0025136224
216	0xbc851d7e	-0.016249415
217	0x3b9a3393	0.004705855
218	0xbab2a465	-0.0013629316
219	0x3c20812f	0.009796425
220	0xbe7fee96	-0.24993357
221	0xbfea0fc4	-1.8286061
222	0xbc71792a	-0.01473836
223	0xbc33d10f	-0.010975136
224	0xbc610188	-0.013733275
225	0xbd2d9540	-0.042378664
226	0x3f3edc64	0.7455504
227	0x3dfef80d	0.12449656
228	0x3bf737cf	0.0075444947
229	0xbaf54dac	-0.0018715165
230	0xbc97a1f7	-0.018509848
231	0xbba8cfdf	-0.0051517333
232	0xbce6aa41	-0.028157355
233	0x3c661e41	0.014045299
234	0xbcb62c27	-0.02223785
235	0xbbf4e0b0	-0.007473074
236	0x3ca562b5	0.020188669
237	0xbfd761f6	-1.682677
238	0xbf8873df	-1.0660361
239	0xbcb35e7a	-0.021895636
240	0xbefaaf9c	-0.48962104
241	0x3c8d3c8f	0.01724079
242	0xbe8c71f5	-0.27430692
243	0xbb96171a	-0.0045803906
244	0xbee7a03f	-0.45239446
245	0x3cc035e6	0.0234632
246	0xbad41226	-0.0016179725
247	0x3f742b1f	0.953783
248	0x3c1d6860	0.0096074045
249	0xbb9195a1	-0.004442886
250	0xbf25b9d9	-0.64736706
251	0x3e7a016c	0.24414605
252	0xc0405c2d	-3.005626
253	0x3eedd3f1	0.4645076
254	0x3c9d4a84	0.01920057
255	0xbc15c1f4	-0.00914048

_orig_mod.lin2.weight f4 [300, 500]
0	0xbab02398	-0.0013438342
1	0xbe84a7ee	-0.2590937
2	0x3bc0c630	0.005883001
3	0x3ba0cd79	0.0049073067
4	0xbbf51f24	-0.007480519
5	0x3a60bf3b	0.00085734174
6	0x3d4fcc7d	0.050732125
7	0xbc272d48	-0.010203667
8	0x3dd2ce06	0.10293202
9	0xbde254fd	-0.110513665
10	0x3c482ba7	0.012217439
11	0x3b4ba1bf	0.003107175
12	0xbb1da7c3	-0.0024056293
13	0xbc84e6cd	-0.016223336
14	0xbe806e51	-0.25084165
15	0xbda0c05c	-0.0784919
16	0xbbebc14e	-0.0071946746
17	0xbb6c203b	-0.0036029953
18	0x3cf9e20c	0.030503295
19	0xbb0ba7d3	-0.0021309748
20	0x3d96f08d	0.073701
21	0xbaa132da	-0.001229848
22	0xbdc2bdc9	-0.09508855
23	0xbdd3f4af	-0.10349404
24	0xbc768cc9	-0.015048214
25	0xbb45413c	-0.0030098697
26	0xbbed09be	-0.0072338274
27	0xbc521d3d	-0.012824354
28	0xbbf540f1	-0.0074845483
29	0x3c0d31a1	0.0086177895
30	0x3e842b7e	0.25814432
31	0x3e375a59	0.17905559
32	0x3e72b1c5	0.23700626
33	0x3b7bb6bd	0.003840848
34	0xbd03c086	-0.032166027
35	0xbe140e9f	-0.14458703
36	0xbbc219fd	-0.005923508
37	0xbc01637b	-0.007897253
38	0x3c8e68b2	0.017383907
39	0x3c04a120	0.008095056
40	0x3b95f9c2	0.0045768926
41	0x3a179c68	0.0005783499
42	0x3c724fc1	0.014789523
43	0xbd212471	-0.039341394
44	0x3de137d0	0.109969735
45	0x3c39d147	0.0113413995
46	0x3b902125	0.0043984824
47	0x39c98585	0.00038437187
48	0x3c0ee315	0.008721133
49	0x3e898993	0.26862773
50	0x3db131a0	0.08652043
51	0x3ba9810b	0.005172854
52	0x3dc7c4bd	0.09754322
53	0x3b7a7774	0.0038218172
54	0xbb9beefc	-0.0047587138
55	0xbb522089	-0.003206285
56	0xbaeb7ddd	-0.0017966587
57	0x3ddf4f59	0.10903806
58	0x3a961cbd	0.0011452656
59	0xbe57b128	-0.21063673
60	0x3dc5a62a	0.09650834
61	0xbe21cadb	-0.1580004
62	0xbbb71c25	-0.005588072
63	0x3c486f72	0.012233602
64	0xbbe24d5e	-0.0069061955
65	0xbb4dffde	-0.0031433026
66	0x3f19bf4c	0.6005752
67	0x3b7c736f	0.0038520952
68	0x3e8f3b1b	0.2797478
69	0xbbbaa544	-0.0056959707
70	0x3b53c9b9	0.003231628
71	0x3f083c44	0.5321696
72	0x3c35fc75	0.011107554
73	0x3e67502e	0.2258918
74	0xbbb2741c	-0.00544597
75	0x3baffad5	0.0053704777
76	0x4009fed6	2.156179
77	0xbac55c0b	-0.0015057338
78	0xbbde765b	-0.0067890114
79	0x3bf787fa	0.0075540515
80	0xbcec685e	-0.02885836
81	0xbabd5422	-0.0014444629
82	0x3c8af6e2	0.016963426
83	0x3b7c3c77	0.0038488188
84	0x3bb085a0	0.005387023
85	0xbe0b35c9	-0.13594736
86	0xbcda7762	-0.026668254
87	0x3bd16ac8	0.006390903
88	0xbdee1277	-0.11624616
89	0xbd10f0b2	-0.035385795
90	0x3cbf9524	0.023386545
91	0xb9cd486c	-0.00039154605
92	0x3b93aef1	0.0045069386
93	0xbccd1ebc	-0.02503907
94	0x3a07067f	0.00051508093
95	0x3b8a0ff5	0.004213328
96	0xbc468cc1	-0.012118519
97	0xbd136ceb	-0.035992544
98	0x3ddc21e0	0.10748649
99	0x3be8909b	0.0070973164
100	0x3d796fee	0.06089776
101	0x3c0adc1b	0.008475329
102	0x3efadf08	0.48998284
103	0xbbf8dd72	-0.0075947577
104	0xbae1e278	-0.0017233631
105	0xbaa519bd	-0.0012596172
106	0x3d4d8f04	0.05018522
107	0xbb9f9711	-0.0048703034
108	0xbb07dd4a	-0.0020731264
109	0xbbadb61d	-0.0053012506
110	0x3b5029b2	0.0031763134
111	0x3a998ab9	0.0011714316
112	0xbbd6e3d2	-0.00655792
113	0xbea0e223	-0.3142253
114	0xbdf1273d	-0.11775062
115	0xbdfda3cb	-0.12384757
116	0xbdf04dd5	-0.11733595
117	0xbd2bc57c	-0.041936383
118	0xbe22875b	-0.15871947
119	0xbc508333	-0.012726593
120	0x3e36310f	0.17792152
121	0xbdc68da7	-0.09694987
122	0x3ac8b7f1	0.0015313608
123	0x3b5b963e	0.00335063
124	0xbc821dc2	-0.01588333
125	0xbba81e5d	-0.0051305727
126	0x3eced580	0.40397263
127	0x3d026a3b	0.03183959
128	0x3a326f37	0.00068067334
129	0xbde9e340	-0.114202976
130	0x3a91fd45	0.0011138102
131	0xbe186f35	-0.14886172
132	0x3a9b7f49	0.0011863495
133	0xbee638e8	-0.4496529
134	0x3acf4383	0.0015812967
135	0x3bf04ffb	0.007333753
136	0x3c4c1804	0.012456898
137	0x3bdb4c34	0.0066924337
138	0x3bd4a1ba	0.006489006
139	0xbc37deef	-0.011222585
140	0x3b699d89	0.0035646877
141	0x3d132425	0.035923142
142	0xbf89d354	-1.0767617
143	0xbbdc58ad	-0.006724438
144	0xbab60858	-0.0013887985
145	0x3d1cc061	0.038269404
146	0xbe8b850a	-0.27249938
147	0xbbf92290	-0.007602997
148	0x3e63daf0	0.22251487
149	0x3c4ea5f0	0.012612805
150	0xbc2519a8	-0.010076918
151	0xbb7dcbbc	-0.0038726171
152	0x3e7583bc	0.23976034
153	0xbb7938fe	-0.0038028355
154	0x3b80dfc2	0.003932924
155	0x3a69642a	0.000890317
156	0xbda5a8eb	-0.08088859
157	0x3d9ac50d	0.07557116
158	0xbaec36de	-0.0018021723
159	0x3bde0342	0.0067752907
160	0x3b103790	0.0022005774
161	0x3d972ea7	0.07381945
162	0xbe56f7b7	-0.20992933
163	0x3870ebe0	5.7440135e-05
164	0x3ebe676a	0.37188274
165	0x3bca496d	0.006173304
166	0xbc1e6a99	-0.00966897
167	0x3b0dbca6	0.0021627336
168	0x3d897733	0.067121886
169	0x3a3a2a2c	0.0007101621
170	0xbc0e4f2e	-0.00868587
171	0xba99c7ec	-0.0011732555
172	0x3a727698	0.0009249239
173	0x3ea2ac98	0.31772304
174	0xbb2333c6	-0.0024902686
175	0x3e32f6c8	0.17476952
176	0x3b8c675f	0.0042847837
177	0x3cfe88a2	0.031071011
178	0xbba49d9f	-0.0050236727
179	0xbb3c5cea	-0.0028741905
180	0x3b9ad49c	0.004725052
181	0xbbad37c6	-0.0052861897
182	0xbe838eb4	-0.2569481
183	0x3da9e349	0.08295304
184	0x3bd72a57	0.0065663266
185	0xbb808150	-0.0039216653
186	0x3ee600f1	0.44922593
187	0xbd2765d8	-0.04086861
188	0xbc05c70a	-0.00816513
189	0xbb1b6b74	-0.002371517
190	0x3d5970a6	0.053085946
191	0x3f21b227	0.63162464
192	0x3e344886	0.1760579
193	0xbb6aaf80	-0.0035810173
194	0xbb9ec2b1	-0.0048449864
195	0x3c126065	0.008934115
196	0xbab11c33	-0.0013512432
197	0x3c4c7861	0.012479872
198	0xbba1efb8	-0.004941907
199	0x3b41a25f	0.0029546244
200	0xbc90df10	-0.01768449
201	0x3c04b604	0.0081000365
202	0xbbdf57c4	-0.0068158824
203	0x3da9adcd	0.08285103
204	0xbc0d9c51	-0.008643226
205	0x3dc171e0	0.09445548
206	0xbc217b4d	-0.009856057
207	0xbb84abbd	-0.004048793
208	0xbdf2ea8b	-0.11861142
209	0x3e9a92b1	0.30190042
210	0x3a93d588	0.0011278847
211	0x3abfb756	0.0014626782
212	0xc0a487c2	-5.141572
213	0x3be21443	0.006899388
214	0xbaf20381	-0.0018464179
215	0xbb80b971	-0.0039283563
216	0xbace2dc0	-0.0015730187
217	0x3bec48a1	0.0072108065
218	0xbb8971e7	-0.0041944864
219	0xbb740106	-0.0037232055
220	0xbd1adb63	-0.03780688
221	0xbd01e488	-0.031712085
222	0xbc6bc8f4	-0.014391173
223	0x3c8d32d0	0.017236143
224	0xbbcc88fe	-0.0062419167
225	0x3c439f6f	0.011939867
226	0x3addd4b5	0.0016924354
227	0x3d0d23c2	0.03445793
228	0x3b93eed4	0.0045145545
229	0xbb2088da	-0.0024495632
230	0xbc990424	-0.018678732
231	0x3afda778	0.0019352278
232	0x3c348234	0.011017371
233	0x3b24d71d	0.0025152632
234	0x3e61cc26	0.22050533
235	0x3ba5058f	0.005036063
236	0x3c8607e1	0.016361179
237	0x3c6b0fb2	0.014347004
238	0x3e0a03a1	0.13477947
239	0x3b790d40	0.0038002282
240	0x3de3e269	0.11127169
241	0x3d80fe44	0.06298497
242	0x3c38e9cb	0.011286209
243	0x3b5c8d40	0.0033653527
244	0x3d970c4a	0.07375391
245	0x3b4b463f	0.0031017212
246	0x3baebbad	0.0053324313
247	0xbe01c8dd	-0.1267428
248	0xbad306ab	-0.001610001
249	0xbc3f79ff	-0.011686801
250	0x3c1dcf9b	0.0096320165
251	0x3dd983cd	0.10620842
252	0x3cd7fbd6	0.026365202
253	0x3dbb0c18	0.09133166
254	0x3c64ab24	0.013956819
255	0xbbdd9c25	-0.0067629986

_orig_mod.lin2.bias f4 [300]
0	0xc0806a56	-4.0129805
1	0xbfcdf24c	-1.6089568
2	0x3f2ec0ce	0.68262947
3	0xc06782f6	-3.6173682
4	0xc02ded27	-2.7175996
5	0xc03cd72b	-2.9506328
6	0xbe8e9cdd	-0.27854052
7	0xbfec689f	-1.8469428
8	0xbf146a84	-0.5797503
9	0xc0929d33	-4.5816894
10	0xc029424d	-2.6446717
11	0xc044c33c	-3.0744162
12	0xc05f0b93	-3.4850814
13	0xc049e375	-3.1545079
14	0xc0649cd3	-3.5720718
15	0xc0509ff9	-3.259764
16	0xc0699e0f	-3.6502721
17	0xc0874b3e	-4.227935
18	0xc08348e7	-4.102649
19	0xc00459db	-2.0679843
20	0xbf91c587	-1.1388406
21	0xbfe6273a	-1.7980721
22	0xbfc0dbc5	-1.5067068
23	0xbfccf1bb	-1.601127
24	0xc01412d8	-2.3136501
25	0xc0119bd5	-2.2751362
26	0xc01acf6d	-2.4189103
27	0xc0171324	-2.3605433
28	0xc0235966	-2.5523314
29	0xbf8cd2ae	-1.1001794
30	0xbf5ad62c	-0.8548305
31	0xc0206a3a	-2.5064836
32	0xc03d8ac9	-2.9615958
33	0xbff21f1a	-1.8915741
34	0xc0021225	-2.0323575
35	0xc009a2e6	-2.1505675
36	0xc0056537	-2.0843027
37	0xc03acc4c	-2.9187193
38	0xc0609b1f	-3.5094678
39	0xc04edc9a	-3.2322145
40	0xbffd9a3a	-1.9812691
41	0xbf925104	-1.1430974
42	0xc035595b	-2.8335788
43	0xc04f0040	-3.2343903
44	0xbfd4d485	-1.6627356
45	0xc01c1dc3	-2.4393165
46	0xbfd7d73a	-1.6862557
47	0xc09bc720	-4.8680573
48	0xc0976caa	-4.7320147
49	0x3fb7ece3	1.4369167
50	0xbeb10e82	-0.3458138
51	0x3d7ba7dd	0.061439384
52	0xbf55af2b	-0.8347041
53	0x3fb1b86c	1.3884406
54	0xbef9e1ce	-0.48805088
55	0xbf74fce8	-0.95698404
56	0xbd43b57f	-0.04778051
57	0x3f79a6d1	0.97520167
58	0xc00efcca	-2.234179
59	0xbfd67326	-1.675389
60	0x3f4c2054	0.7973683
61	0xbeae5c44	-0.34054768
62	0x3f4ca7b5	0.799434
63	0x3f9b9d06	1.2157295
64	0xbec36f9c	-0.3817109
65	0xc013cff1	-2.3095667
66	0x3f162107	0.58644146
67	0x3f9fbef3	1.2480148
68	0x3f3f9ea2	0.7485143
69	0x3f351694	0.70737576
70	0xbfb59b4e	-1.418802
71	0xbf3054ab	-0.68879193
72	0xc00dfc5d	-2.218528
73	0xbf0482dc	-0.51762176
74	0xc06094fe	-3.5090938
75	0xc0603469	-3.5031989
76	0xc06f84f4	-3.7424898
77	0xc07c9271	-3.946438
78	0xc0583246	-3.3780684
79	0xc05f9d93	-3.4939926
80	0xc01dd8fc	-2.4663687
81	0xbff9488e	-1.9475267
82	0xbff57f6d	-1.9179512
83	0xc07ff530	-3.99934
84	0xc07fb700	-3.9955444
85	0xc07e1a50	-3.970356
86	0xc07eea7f	-3.9830625
87	0xc07f3d24	-3.9881067
88	0xc07fb151	-3.9951975
89	0xc07eff1a	-3.9843202
90	0xc07f75f5	-3.9915745
91	0xc07eb67d	-3.9798882
92	0xc08079fb	-4.01489
93	0xc07c54c0	-3.9426727
94	0xc07d486b	-3.957545
95	0xc0822ae1	-4.0677342
96	0xc0820fe2	-4.064439
97	0xc08161e3	-4.043199
98	0xc07fdb33	-3.9977539
99	0xc081c13a	-4.054837
100	0xc082ca78	-4.0872154
101	0xc080b25c	-4.0217724
102	0xc07e513f	-3.9737089
103	0xc08108b8	-4.0323143
104	0xc08195ba	-4.049527
105	0xc08054fe	-4.010375
106	0xc0802053	-4.003946
107	0xc0813085	-4.037173
108	0xc080e154	-4.027506
109	0xc080af04	-4.021364
110	0xc0816ea5	-4.0447564
111	0xc07f73c7	-3.9914415
112	0xc0805d92	-4.011422
113	0xc08221dc	-4.066633
114	0xc07ef46c	-3.9836683
115	0xc081dd4f	-4.058265
116	0xc0808503	-4.016237
117	0xc07a929d	-3.9151986
118	0xc08011f1	-4.00219
119	0xc081b810	-4.0537186
120	0xc07e2201	-3.9708254
121	0xc07ef34b	-3.9835994
122	0xc07cb0a5	-3.9482815
123	0xc081497c	-4.0402203
124	0xc0814f26	-4.0409117
125	0xc07fd5b1	-3.9974177
126	0xc0804799	-4.00874
127	0xc080ce7d	-4.025206
128	0xc0811b53	-4.0345855
129	0xc0814f70	-4.040947
130	0xc07bd79b	-3.9350345
131	0xc080f840	-4.030304
132	0xc07c423a	-3.9415421
133	0xc08010db	-4.0020576
134	0xc07fd19a	-3.997168
135	0xc080ec0c	-4.0288143
136	0xc0808b08	-4.0169716
137	0xc0809b24	-4.018938
138	0xc0805f29	-4.011616
139	0xc07ecc1c	-3.9812078
140	0xc0826237	-4.074489
141	0xc0829bb7	-4.081508
142	0xc07f9650	-3.9935493
143	0xc07e2f0f	-3.9716222
144	0xc07d543a	-3.9582658
145	0xc081b543	-4.0533767
146	0xc08116c3	-4.0340285
147	0xc0805e8a	-4.0115404
148	0xc0802712	-4.0047693
149	0xc07e6783	-3.9750679
150	0xc0806c41	-4.0132146
151	0xc07ed287	-3.9815996
152	0xc07e3b76	-3.9723792
153	0xc0805eec	-4.011587
154	0xc07c38bb	-3.9409626
155	0xc07debc9	-3.9675162
156	0xc07ea65c	-3.9789038
157	0xc080f507	-4.0299106
158	0xc0801fb1	-4.0038686
159	0xc081ee37	-4.060329
160	0xc07dc380	-3.9650574
161	0xc0802b2a	-4.005269
162	0xc07bdb3c	-3.935256
163	0xc07bce6c	-3.934474
164	0xc0802437	-4.0044208
165	0xc0805d31	-4.011376
166	0xc07b94d0	-3.9309578
167	0xc07c155a	-3.9388032
168	0xc081dfcb	-4.0585685
169	0xc08127ce	-4.036109
170	0xc080d4c7	-4.025974
171	0xc0805138	-4.0099144
172	0xc07fce28	-3.9969578
173	0xc0807fff	-4.0156245
174	0xc080fd10	-4.0308914
175	0xc07e87f8	-3.9770489
176	0xc07fc79f	-3.996559
177	0xc08034c1	-4.0064397
178	0xc0800b99	-4.0014157
179	0xc07eb1b3	-3.979596
180	0xc07e69ed	-3.9752152
181	0xc0800b6c	-4.0013943
182	0xc07e3ea2	-3.9725728
183	0xc080efaa	-4.029256
184	0xc07cfaad	-3.9528
185	0xc07cdb04	-3.9508677
186	0xc0816e5e	-4.0447226
187	0xc07f81e1	-3.9923022
188	0xc08182e8	-4.04723
189	0xc07fbf2c	-3.9960432
190	0xc07b19ab	-3.9234416
191	0xc080fd2f	-4.030906
192	0xc082286a	-4.0674334
193	0xc07f5ce0	-3.9900436
194	0xc081d2eb	-4.056997
195	0xc07c0a29	-3.9381201
196	0xc07e9771	-3.9779932
197	0xc07efaed	-3.9840653
198	0xc0810b9f	-4.0326686
199	0xc07ff838	-3.999525
200	0xc07e9ac7	-3.9781969
201	0xc07f54e9	-3.9895575
202	0xc082309d	-4.0684342
203	0xc081118a	-4.033391
204	0xc081b785	-4.0536523
205	0xc07e15fa	-3.9700913
206	0xc07ab813	-3.917485
207	0xc07f6e34	-3.9911013
208	0xc080c6d1	-4.0242696
209	0xc0800e06	-4.001712
210	0xc081c239	-4.054959
211	0xc0813d14	-4.038706
212	0xc0812fcd	-4.037085
213	0xc0811f9b	-4.035108
214	0xc07fe4e7	-3.998346
215	0xc0806cf2	-4.013299
216	0xc07fb7d3	-3.9955947
217	0xc07f8fe4	-3.9931574
218	0xc07d5d5c	-3.9588232
219	0xc080a7ea	-4.0204973
220	0xc07f5c62	-3.9900136
221	0xc07e5d54	-3.9744463
222	0xc080445d	-4.008345
223	0xc080aff3	-4.021478
224	0xc07fd526	-3.9973845
225	0xc0819338	-4.049221
226	0xc080502d	-4.009787
227	0xc07cff57	-3.9530847
228	0xc081c74b	-4.0555778
229	0xc0801f97	-4.003856
230	0xc0809389	-4.0180097
231	0xc07e6717	-3.975042
232	0xc0809ae5	-4.018908
233	0xc0818a05	-4.048098
234	0xc0800a8f	-4.001289
235	0xc07f7a30	-3.9918327
236	0xc07c6a53	-3.9439895
237	0xc08181f5	-4.047114
238	0xc080adb4	-4.021204
239	0xc080d623	-4.0261397
240	0xc082f62d	-4.0925508
241	0xc07e0067	-3.9687746
242	0xc07ea4fb	-3.9788196
243	0xc08187e8	-4.04784
244	0xc07eea64	-3.983056
245	0xc0811d4a	-4.0348253
246	0xc08145a8	-4.039753
247	0xc07fa7ee	-3.9946246
248	0xc080db68	-4.026783
249	0xc07cdeda	-3.9511018
250	0xc07fd487	-3.9973466
251	0xc0814c89	-4.0405927
252	0xc081836a	-4.0472918
253	0xc07f3b92	-3.988011
254	0xc0806fe7	-4.01366
255	0xc0817e09	-4.046635

_orig_mod.lin3.weight f4 [83, 300]
0	0x3caa983f	0.02082455
1	0xbbcf3700	-0.006323695
2	0x3d318fc6	0.043350004
3	0x3d18fb3c	0.03734897
4	0xbc7bd734	-0.015371133
5	0xbbea3048	-0.007146869
6	0xbcccce07	-0.025000585
7	0x3cd06e22	0.02544314
8	0xbd519cb7	-0.051174846
9	0x3c8d9e2d	0.017287338
10	0x3c91aded	0.01778313
11	0x3ca9e2f5	0.020738104
12	0x3d56e2b6	0.052462302
13	0x3cb7d255	0.022439161
14	0xbd2b403c	-0.041809306
15	0xbb7ab611	-0.0038255493
16	0x3c7b25fc	0.01532888
17	0xbd04d622	-0.032430775
18	0x3b18dbe0	0.0023324415
19	0xbd0e9ea6	-0.034819268
20	0x3aea77a4	0.0017888439
21	0xbd379011	-0.044815127
22	0xbd5dfbad	-0.054195095
23	0xbd4005b2	-0.04688043
24	0x3d10e829	0.035377655
25	0xbce38627	-0.02777393
26	0xbc30c93f	-0.010790168
27	0xbd57b35e	-0.052661292
28	0x3cc08b65	0.023503968
29	0xbc9fee85	-0.019522915
30	0x3d49adcd	0.049238015
31	0x3d45c3c2	0.048282392
32	0xbceb8ded	-0.028754199
33	0xbd408e1a	-0.04701052
34	0xbcc89542	-0.024485234
35	0x3be21cad	0.006900391
36	0x3cffad98	0.031210706
37	0xbd0de8e8	-0.034645945
38	0x3c73367e	0.014844535
39	0x3d522937	0.051308837
40	0x3ad55f92	0.0016279093
41	0xbc707422	-0.014676126
42	0xbc0b6b5c	-0.008509483
43	0xbd6b06d1	-0.057379548
44	0xbc3429b6	-0.010996273
45	0xbd6b5808	-0.057457
46	0x3d5301a2	0.05151523
47	0x3d675b51	0.05648357
48	0x3c97cb2e	0.0185295
49	0xbc516854	-0.012781221
50	0x3c9fb6d2	0.019496355
51	0xbc2f1979	-0.0106872255
52	0xbcdc5031	-0.026893707
53	0xbcc583f2	-0.024110768
54	0x3d23c4bd	0.039982546
55	0x3d33396b	0.04375593
56	0x3d3dde3b	0.046354514
57	0x3d46478c	0.048408076
58	0x3c190675	0.009339918
59	0x3c78fe87	0.015197403
60	0x3d4aa222	0.04947103
61	0xbcb6a1d3	-0.02229396
62	0x3b7f8998	0.0038991924
63	0xbcce4e0a	-0.025183696
64	0x3bd172b1	0.006391846
65	0xbc951084	-0.018196352
66	0xbcf104e3	-0.029421275
67	0xbd20c9c6	-0.039254926
68	0xbb89b1d5	-0.0042021074
69	0x3cd0c5fe	0.025485035
70	0xbd6395ea	-0.05556289
71	0xbd4571dc	-0.048204288
72	0x3d0f2765	0.03494968
73	0x3c96405c	0.018341236
74	0x3d4e7524	0.050404683
75	0x3d1264f6	0.035740815
76	0xbc363bec	-0.011122685
77	0x3b1ed848	0.00242378
78	0x3d28d21e	0.04121601
79	0xbd0dfe87	-0.034666564
80	0xba918441	-0.0011102037
81	0x3a871eac	0.0010308824
82	0x3c2b419d	0.010452655
83	0xbd5f9262	-0.05458296
84	0x3ccf39b3	0.025296068
85	0x3d4d3406	0.05009844
86	0xbc20c3b8	-0.009812288
87	0xbc274f65	-0.0102118
88	0x3d6266fd	0.055274
89	0x3d640d4c	0.055676743
90	0xbd66740f	-0.056263026
91	0x3d2a0626	0.04150977
92	0xbcbdf654	-0.023188747
93	0x3c0f8b13	0.008761185
94	0x3d32581c	0.04354106
95	0x3d1d5866	0.03841438
96	0x3cd38e75	0.025824765
97	0x3c9fbce9	0.01949926
98	0xbcb569f8	-0.022145256
99	0x3c7d8b9f	0.015475183
100	0x3d4f0eaa	0.050551094
101	0x3d64e780	0.055884838
102	0x3ca2cd9e	0.019873437
103	0x3cd79447	0.026315821
104	0x3d1b13e0	0.03786075
105	0x3d0ba8d2	0.034096546
106	0x3c4d2bce	0.012522651
107	0xbc972c9c	-0.018453889
108	0x3d562695	0.05228289
109	0x3c603e3a	0.013686711
110	0x3d25bc0b	0.040462535
111	0xbc2db72f	-0.010602756
112	0x3bdf79c1	0.006819934
113	0x3d441750	0.047873795
114	0x3d268041	0.040649656
115	0x3d28802b	0.041137855
116	0x3d0cacf7	0.03434464
117	0xbd400709	-0.04688171
118	0xbd3771f0	-0.044786394
119	0x3c7d0c33	0.015444803
120	0xbd4dfef1	-0.05029196
121	0x3c8bb387	0.017053379
122	0xbcbac679	-0.022799717
123	0xbd424bbc	-0.047435507
124	0xbd24ef86	-0.04026749
125	0xbbe701a4	-0.007049756
126	0x3d13f9ba	0.03612683
127	0xb9a52797	-0.0003150075
128	0xbc308078	-0.010772817
129	0x3d34daea	0.044154085
130	0xbc7691bc	-0.015049394
131	0xbd29c1f4	-0.041444734
132	0xbc8e4706	-0.017367851
133	0x3d554376	0.05206629
134	0xbd229b45	-0.039698858
135	0xbd277730	-0.04088515
136	0xbd61f38e	-0.055163912
137	0xbbfc2912	-0.0076953257
138	0xbd6a2efd	-0.057173718
139	0xbcc85b3c	-0.024457566
140	0xbca60110	-0.020264179
141	0xbc629eb9	-0.013831788
142	0xbccc6eae	-0.02495512
143	0x3d46faea	0.048579134
144	0xbb97f5cd	-0.004637456
145	0x3c8af80c	0.016963981
146	0xbd2d2e83	-0.042280685
147	0xbd1940b6	-0.03741523
148	0x3d5f1aa0	0.05446875
149	0xbd5584a1	-0.052128438
150	0xbce83feb	-0.028350791
151	0xbcc0d1a8	-0.023537472
152	0xbd45f9fc	-0.048334107
153	0xbce729e2	-0.028218213
154	0xbcc3abfe	-0.023885723
155	0xbcf1e44f	-0.029527811
156	0xbd26bce4	-0.040707484
157	0xbd4c1fe3	-0.049835097
158	0x3d2adead	0.041716266
159	0xbb66a57f	-0.0035193858
160	0xbc0a3664	-0.008435819
161	0xbb304de5	-0.0026901898
162	0x3d3200c9	0.04345778
163	0x3d595cac	0.053066894
164	0x3cc03dc1	0.023466947
165	0x3d447fb6	0.047973357
166	0xbbb35d3e	-0.005473762
167	0x3ce6d250	0.028176457
168	0x3d42a375	0.047519166
169	0xbd0bde44	-0.034147516
170	0x3c9d1f58	0.019179985
171	0x3c4d32a5	0.012524282
172	0xbcb8812b	-0.02252253
173	0x3cbe35e9	0.023219066
174	0x3b84a507	0.004047993
175	0x3c92edd2	0.017935667
176	0xbd6947e4	-0.056953326
177	0x3d00f001	0.031478886
178	0xbcd4d235	-0.02597914
179	0x3d66193c	0.05617641
180	0x3cd634df	0.026148258
181	0xbcd41668	-0.02588959
182	0x3b7723e4	0.0037710601
183	0xbd1e6728	-0.038672596
184	0xbd5e0a29	-0.05420891
185	0x3cc9be59	0.024626898
186	0xbccb1b8f	-0.024793414
187	0xbc659ff5	-0.0140151875
188	0x3c650d2a	0.013980189
189	0xbd48c7df	-0.049018737
190	0x3c70de7b	0.014701481
191	0x3c0e4350	0.008683041
192	0x3d319c5e	0.043362014
193	0xbd03a1ce	-0.03213673
194	0x3cfa22d7	0.030534191
195	0xbb715b73	-0.003682819
196	0xbd6974f0	-0.056996286
197	0x3d5c6ff2	0.053817697
198	0x3d4fb6f6	0.050711595
199	0xbcf756f8	-0.030192837
200	0x3b9e856e	0.0048376834
201	0xbd5aba4d	-0.053400327
202	0xbba34040	-0.0049820244
203	0x3c9f7727	0.019465996
204	0x3d199dee	0.03750413
205	0x3c3bd779	0.011464947
206	0xb96ff611	-0.00022884483
207	0x3c10fbd4	0.008849103
208	0x3d5a2a18	0.0532628
209	0x3d56697f	0.052346703
210	0x3d1619ec	0.036645815
211	0x3cad1685	0.021128902
212	0xbd32af14	-0.043624
213	0xbbdfd7ce	-0.006831146
214	0x3d19c2c4	0.03753926
215	0xbc922728	-0.017840937
216	0x3ac1419b	0.0014744283
217	0x3bfd35d4	0.007727364
218	0x3d03b80e	0.03215795
219	0xbc58f2b3	-0.013241458
220	0x3d083e6e	0.033262663
221	0x3b8883c3	0.004166098
222	0xbd0f71ba	-0.035020567
223	0x3d4bc416	0.04974755
224	0x3b4b6738	0.0031036865
225	0xbc91588d	-0.01774242
226	0x3d4a6889	0.0494161
227	0x3cee3892	0.02907971
228	0x3d4cae7e	0.049971096
229	0xbd1a2cf3	-0.037640523
230	0xbc7413f6	-0.014897337
231	0x3d21a8a2	0.03946746
232	0x3c3c2340	0.011483014
233	0xbd2a13da	-0.04152284
234	0x3c110cb7	0.008853129
235	0x3ac35189	0.0014901619
236	0xbca40adb	-0.020024708
237	0xbd1cd29d	-0.038286794
238	0x3bc66d96	0.006055544
239	0x3d5e806d	0.054321695
240	0x3d6108c2	0.054939993
241	0xbd29ac8d	-0.041424323
242	0xbd24b30a	-0.040209807
243	0x3cd67e09	0.026183145
244	0xbc8eb884	-0.017421968
245	0x3c15a244	0.009132925
246	0xbce75bae	-0.028241958
247	0xbd4b1d50	-0.0495885
248	0x3cae8c24	0.021307059
249	0x3c1d0af3	0.00958513
250	0x3cfc0895	0.030765811
251	0x3d1bd544	0.038045183
252	0xbcfb0870	-0.030643672
253	0xbd18d012	-0.037307806
254	0x3cc072a0	0.023492157
255	0x3ba91891	0.0051603992

_orig_mod.lin3.bias f4 [83]
0	0x3d69c23b	0.05707
1	0x3c4fa2fe	0.012673138
2	0x3d35031f	0.04419243
3	0xbb917366	-0.0044388054
4	0xbd3d9034	-0.0462801
5	0xbd3674ba	-0.044544913
6	0x3c5db1fe	0.013531206
7	0x3cffd1cf	0.031227974
8	0x3d644e79	0.0557389
9	0x3cc6bb02	0.024259094
10	0x3c98deff	0.01866102
11	0xbd1893c2	-0.037250288
12	0x3c5a33ad	0.0133179845
13	0xbcc0e9b4	-0.023548938
14	0x3c6024f0	0.013680682
15	0xbc0d14fc	-0.00861096
16	0xbbf452d6	-0.007456164
17	0xbace15ce	-0.0015723051
18	0xbd662cbe	-0.056195013
19	0x3d39c669	0.045355234
20	0x3cec32ca	0.028832812
21	0xbd353b51	-0.04424602
22	0x3b4dc7dd	0.0031399645
23	0xbbfbffca	-0.0076904045
24	0x3cad2052	0.021133576
25	0x3d28e549	0.04123429
26	0xbb5abde5	-0.0033377346
27	0xbcaa86e2	-0.02081627
28	0x3cbcbb9d	0.02303868
29	0xbd030a8e	-0.031992488
30	0xbd2ee1e6	-0.042695902
31	0x3cb24696	0.021762174
32	0xbd469199	-0.048478696
33	0xbcafbacd	-0.021451378
34	0x3d5f80f1	0.054566327
35	0xbd06b785	-0.03288986
36	0x3cfa9f25	0.030593464
37	0xbd5b4ba6	-0.05353894
38	0x3d2e52b5	0.042559344
39	0x3ccf4645	0.025302062
40	0x3c9fa07e	0.019485708
41	0x3d35c363	0.04437579
42	0xbd035a6c	-0.032068655
43	0x3d29c1d7	0.041444626
44	0xbbd69e80	-0.0065496564
45	0x3d0500ce	0.03247147
46	0xbad13e8f	-0.0015964078
47	0xbd067f49	-0.032836232
48	0x3c9207c7	0.017825974
49	0xbcf65a70	-0.03007242
50	0xbd409793	-0.047019552
51	0xbc8666ba	-0.016406406
52	0xbc934f08	-0.017982021
53	0xbd3256e9	-0.043539915
54	0x3d5d65f8	0.054052323
55	0x38cf9265	9.897797e-05
56	0x3c4b2b9c	0.012400534
57	0x3b490977	0.0030675808
58	0x3bb2ec24	0.005460279
59	0x3d2312c1	0.039812807
60	0x3ae25ca5	0.0017270042
61	0xbc94c821	-0.018161835
62	0x3d596cbe	0.05308222
63	0xbcb02033	-0.021499729
64	0x3d0c8fc8	0.034316808
65	0x3d33eed8	0.04392895
66	0xbd3423eb	-0.043979567
67	0xbc0c6509	-0.0085690105
68	0x3bd4c9bf	0.0064937766
69	0x3c2ec91b	0.0106680645
70	0xbb7f006b	-0.0038910161
71	0x3d2f5eb6	0.042814933
72	0x3a6a0c7c	0.0008928252
73	0x3d5b31a2	0.05351413
74	0x3cc8b332	0.02449951
75	0xbc4ac615	-0.012376328
76	0x3ca92e1e	0.020651873
77	0x3d3b379b	0.045707326
78	0xbd069861	-0.032860164
79	0x3d1e4181	0.03863669
80	0xbd02c6c0	-0.031927824
81	0xbd05fd55	-0.0327123
82	0x3d62f7bc	0.05541204
