gt_eng_model_upper_two_hid_layer_emb1_block_size_15.pth (torch, 737225 bytes, 7 tensors)

_orig_mod.emb.weight f4 [83, 1]
0	0x3d29313a	0.04130671
1	0x3e616dfa	0.22014609
2	0xbfdf9a45	-1.7468954
3	0xbd6987db	-0.057014327
4	0xbfd0d189	-1.6313945
5	0x3e1cf705	0.15328605
6	0xbcc8f42f	-0.024530498
7	0xbfeb8b85	-1.8401953
8	0x4012fbd4	2.2966204
9	0x3f97d29c	1.1861148
10	0x3fb52bb3	1.4153961
11	0xbf45b408	-0.7722783
12	0x3e027879	0.12741269
13	0xbf7d0f4a	-0.98851454
14	0x3fba6795	1.4562861
15	0x3f913398	1.134387
16	0x3faf88da	1.3713639
17	0xbf3c9786	-0.73668706
18	0x3e918f2f	0.28429553
19	0xbd2ab9ff	-0.041681286
20	0xbd43c914	-0.047799185
21	0xc0218b16	-2.5241141
22	0x3f892358	1.0713911
23	0x3e173394	0.14765769
24	0x3ff09576	1.8795612
25	0x3dd9bd82	0.10631849
26	0xbf23ab57	-0.6393332
27	0x3e7ae39b	0.24500887
28	0x3e1a20d4	0.15051585
29	0x3fd89e87	1.6923379
30	0x3fada483	1.356583
31	0x3fdd3ea1	1.7284738
32	0x3dcbecfe	0.09957312
33	0xbb411bff	-0.002946615
34	0xbef9dfdd	-0.48803607
35	0x3e5a3d56	0.2131246
36	0x3f878dbe	1.0590131
37	0x3c3ecdf0	0.011645779
38	0xbc3bb917	-0.011457703
39	0x3ff6550f	1.9244708
40	0x3e936c0b	0.28793368
41	0x3ef76dbc	0.48325908
42	0x3f87737b	1.0582117
43	0x3fc2d4cd	1.5221192
44	0x3eaa8e27	0.3331158
45	0x3fc6e2d5	1.5537974
46	0x3fd3022d	1.6485039
47	0x3fab056b	1.3361028
48	0x3e4328e0	0.19058561
49	0x3f913ad9	1.1346084
50	0xbedf35c8	-0.4359572
51	0x3e8241b9	0.25440767
52	0x3e0e391d	0.13888974
53	0xbf1ac092	-0.6045009
54	0x3e4d0c22	0.2002416
55	0x3e52b656	0.20577368
56	0x3fe37558	1.7770185
57	0x3f4c38ac	0.79773974
58	0x3e3ee16c	0.18640679
59	0xbee54d3d	-0.4478549
60	0x3e5efeda	0.21776906
61	0xbedd8ae0	-0.43270016
62	0x3e76c72c	0.24099416
63	0xbf72317d	-0.94606763
64	0x3e52a562	0.20570901
65	0x3e6c7074	0.23089772
66	0x3e65930e	0.22419378
67	0x3e6d4697	0.23171459
68	0x3e912e24	0.28355515
69	0x3f8a214b	1.079141
70	0xbe94d013	-0.29064998
71	0x3e815073	0.2525669
72	0x3e877566	0.26456755
73	0x3de3db1e	0.11125778
74	0xbe8c1994	-0.27363265
75	0xbf755878	-0.9583812
76	0x3f5c6ef9	0.8610683
77	0x3e5297cb	0.20565717
78	0x3e75e56f	0.24013303
79	0xbfcd5f85	-1.6044775
80	0x3e95679b	0.29180607
81	0xbffebeff	-1.9902037
82	0x3ffe3073	1.9858536

_orig_mod.lin1.weight f4 [500, 15]
0	0xbc9ac79d	-0.018894011
1	0xbb1b5ed9	-0.0023707657
2	0x3cdd8082	0.027038816
3	0xbc21d5d3	-0.00987764
4	0x3c8bedff	0.017081259
5	0x3cca300a	0.02468111
6	0xb9dcb6c9	-0.00042097855
7	0xbcd21db3	-0.025648927
8	0x3cad2c86	0.021139394
9	0x3d0c8ab5	0.03431197
10	0x3d06c8a5	0.032906193
11	0x3d728e7a	0.059217907
12	0x3befa957	0.007313888
13	0x3fbc79a6	1.4724624
14	0x40646480	3.568634
15	0xbc3f24cb	-0.011666487
16	0x3c35ecb8	0.011103801
17	0x3c902577	0.01759599
18	0x3d346b1d	0.044047464
19	0x3b3b6210	0.0028592385
20	0x3d0def46	0.034652017
21	0x3c40d6cd	0.0117699625
22	0x3c34941f	0.011021643
23	0xbbd4b415	-0.006491194
24	0xbcc2ed96	-0.02379493
25	0xbbfd8e04	-0.007737877
26	0x3b306e6a	0.002692128
27	0xbcf1a51d	-0.029497677
28	0x3caab3de	0.02083772
29	0xbb1d4683	-0.0023998327
30	0x3bda4b9b	0.006661845
31	0xbba511dc	-0.0050375294
32	0xbc99ac42	-0.018758897
33	0xbcf07256	-0.029351395
34	0xbb0631ef	-0.002047654
35	0x3c6b78e9	0.014372089
36	0xbce11468	-0.02747555
37	0xbc9570c9	-0.018242257
38	0xbbe06df6	-0.006849046
39	0x3aead332	0.0017915724
40	0xbc1b3a2d	-0.009474319
41	0xbbf0d03c	-0.007349042
42	0x3cca8a02	0.02472401
43	0xbb27c801	-0.002560139
44	0x3bd04e37	0.00635698
45	0xbbcbda13	-0.006221065
46	0xbbbdf3c9	-0.0057968837
47	0xbc9038a3	-0.017605131
48	0xbcb83f6e	-0.022491183
49	0xbc273193	-0.0102046905
50	0xbabc0095	-0.0014343435
51	0xbc8d7930	-0.0172697
52	0x3c8a0002	0.016845707
53	0xbc47772f	-0.012174412
54	0x3ab7dd50	0.0014027748
55	0xbc841bd6	-0.016126554
56	0xbc6ed6d4	-0.014577586
57	0x3d69465a	0.056951858
58	0x3bb6c200	0.005577326
59	0xbca35f7f	-0.019942997
60	0x3c82cf70	0.015968055
61	0xbcd4664c	-0.025927685
62	0x3bd30974	0.006440336
63	0xbceb13b5	-0.02869592
64	0x3c30447d	0.010758516
65	0xbbf57662	-0.007490919
66	0x3c644f52	0.013934927
67	0xbbeb0da3	-0.0071732565
68	0x3c675a3f	0.014120637
69	0x3ca401d8	0.02002041
70	0x3c1b0069	0.009460547
71	0x3c86bbf7	0.01644705
72	0xbbe18205	-0.0068819546
73	0xbcbba2aa	-0.022904713
74	0x3b81f549	0.003966008
75	0x3cdc98f8	0.02692841
76	0x3d40ceb6	0.047072135
77	0x3c82a578	0.015948042
78	0x3b3d770a	0.0028910064
79	0xbd24216a	-0.04007093
80	0xbc2ce819	-0.010553383
81	0xbd3b64d3	-0.04575045
82	0xbc61032e	-0.013733668
83	0xbd0dee95	-0.034651358
84	0xbe6985f5	-0.22805007
85	0x3f81b9df	1.0134848
86	0xbe873cd1	-0.26413587
87	0x3f66034e	0.8984879
88	0xbf188a63	-0.5958616
89	0xbf0eb613	-0.55746573
90	0x3c01cebd	0.007922825
91	0xbc4db135	-0.0125544565
92	0x3c973c30	0.018461317
93	0xbbd49ca7	-0.006488401
94	0x3b243f40	0.0025062114
95	0x3c4960dc	0.0122911595
96	0x3c4e9a03	0.012609961
97	0x3b5e7dec	0.0033949567
98	0xbbd4e517	-0.006497036
99	0x3cb546a0	0.022128403
100	0x3bceae1a	0.0063073756
101	0x3c34b5ff	0.011029719
102	0xbca1c3ab	-0.019746622
103	0x3c1d8eda	0.009616578
104	0x3c4b1541	0.012395204
105	0x3c02f1da	0.007992232
106	0xbc7b33a2	-0.015332134
107	0xbc61cc08	-0.013781555
108	0x3bb75b34	0.005595589
109	0xbbfd4a46	-0.0077298013
110	0xbbc94ec2	-0.006143422
111	0x3c743fc2	0.014907779
112	0x3cab8b30	0.020940393
113	0x3c96e4cb	0.018419644
114	0x3c0c9337	0.008580021
115	0xbcd3605d	-0.025802786
116	0xbc3d33bc	-0.011547979
117	0x3cd8b9a9	0.026455717
118	0x3c92d8bb	0.01792561
119	0xbbe874d3	-0.0070940047
120	0xbbf7396a	-0.007544686
121	0xbc94a9ad	-0.018147314
122	0xbcbe6191	-0.023239883
123	0x3d142706	0.03617003
124	0xbac86370	-0.0015288424
125	0x3c25a9c2	0.010111274
126	0xbc499e64	-0.01230583
127	0x3cb6ec4a	0.022329468
128	0x3c2017f4	0.009771336
129	0xbcc6894b	-0.024235388
130	0x3c00e405	0.007866864
131	0x3c99c93f	0.01877272
132	0x3c1708d9	0.009218418
133	0x3be99e07	0.007129434
134	0x3c722704	0.01477981
135	0xbc4c9795	-0.012487312
136	0x3bf34b9d	0.0074247853
137	0x3d31b1b0	0.043382347
138	0xbd88ce69	-0.066799946
139	0xbb2446a1	-0.0025066512
140	0x3d1c946c	0.038227484
141	0x3ced73a4	0.028985806
142	0x3bee692f	0.0072757225
143	0xbc0ed45e	-0.0087176245
144	0x3e4bd685	0.19906051
145	0x3e40427c	0.18775362
146	0xbdb53de7	-0.088496976
147	0xbffe18d4	-1.9851327
148	0xc00adede	-2.1698527
149	0x3f85c503	1.0450748
150	0x3cbd7cc8	0.02313079
151	0x3c8c6041	0.017135741
152	0xbc3db544	-0.011578862
153	0x3d42f249	0.047594342
154	0x3cf0f49a	0.02941351
155	0x3bcc60b9	0.006237116
156	0x3d23f57d	0.040029038
157	0x3cf2a538	0.029619798
158	0x3da03d2a	0.07824166
159	0x3d5c1c87	0.053738143
160	0xbee7516d	-0.4517931
161	0xbf21a29b	-0.6313874
162	0xbf5a612f	-0.8530454
163	0xbfbeeb72	-1.4915602
164	0x3f459237	0.7717623
165	0xbc2d7e06	-0.010589128
166	0xbc114ac2	-0.008867921
167	0xbaae5a5e	-0.0013302078
168	0x3bb1c2eb	0.0054248474
169	0xbba92736	-0.005162145
170	0xbc4d6032	-0.012535142
171	0xbc08103b	-0.008304651
172	0x3c8ddae8	0.017316297
173	0x3c09cf5e	0.008411257
174	0x3cdc2c9f	0.026876746
175	0x3b345dff	0.0027521846
176	0xbc3ab3a4	-0.011395369
177	0x3bad3310	0.005285628
178	0x3b39dc2f	0.002836
179	0xbcc26472	-0.023729537
180	0x3cf90eb9	0.030402528
181	0xbb8784d5	-0.004135708
182	0x3a9b0020	0.0011825599
183	0x3b02828b	0.0019914235
184	0xbcabf99f	-0.020993052
185	0x3c4b5449	0.012410232
186	0xbbde92aa	-0.006792386
187	0x3d0c80a1	0.034302358
188	0xbc893be8	-0.016752198
189	0x3d2878ba	0.04113076
190	0xbd81c0ef	-0.06335627
191	0xbe3384e7	-0.17531167
192	0xbf0b76ea	-0.54478323
193	0xbee5df78	-0.44897056
194	0x404ba54a	3.1819634
195	0x3d663a8d	0.056208182
196	0x3dca2a2f	0.09871327
197	0x3ca75632	0.020426843
198	0xbca8deb0	-0.020613998
199	0x3d404c02	0.046947487
200	0x3d88170b	0.0664502
201	0x3bb4b603	0.0055148616
202	0xbde9f422	-0.11423518
203	0xbc36236f	-0.011116846
204	0x3e4b76d4	0.19869548
205	0xc00449eb	-2.0670116
206	0xbfb2e740	-1.3976822
207	0xbf170d45	-0.5900462
208	0xbf4e688c	-0.80628276
209	0x3fb52d89	1.4154521
210	0x3ac2c5ca	0.0014859971
211	0x3c692a8c	0.014231335
212	0xbbf02f73	-0.007329875
213	0x3ce218a8	0.027599648
214	0x3b0eaf01	0.002177179
215	0xbc93fedb	-0.01806586
216	0x3c43e3b0	0.01195614
217	0xbbbbac80	-0.0057273507
218	0xbc1ebbee	-0.009688361
219	0x3c38690c	0.011255514
220	0x3c1402d6	0.009033879
221	0x3c838a35	0.016057113
222	0x3b85a868	0.0040789135
223	0xbbb27241	-0.005445749
224	0xbcace1f5	-0.021103838
225	0xbc2fea74	-0.01073705
226	0xbcf1a9c8	-0.029499903
227	0xbcb9ae18	-0.022666022
228	0xbcdc9bbe	-0.026929732
229	0xbcca3596	-0.024683755
230	0xbc0d5ef3	-0.008628595
231	0xbbb9466f	-0.0056541483
232	0xbc9ef9e7	-0.019406272
233	0xba1cc91b	-0.0005980895
234	0x3c354c99	0.011065626
235	0xbac755b7	-0.001520804
236	0xbd08ba2c	-0.033380672
237	0xbd097a74	-0.033564046
238	0xbb669632	-0.0035184738
239	0xbc408758	-0.011751018
240	0xbb0d1305	-0.002152623
241	0xbbecfbbf	-0.007232159
242	0x3c72c25f	0.0148168495
243	0xbc1d7aa9	-0.009611764
244	0xbbe8cc1a	-0.007104409
245	0xbc7fa707	-0.015603787
246	0xb945a0c3	-0.00018847272
247	0x3b3689e2	0.002785318
248	0xbc2ad35c	-0.010426369
249	0x3bca89f2	0.006180995
250	0x3c21297b	0.00983655
251	0xbc71fd45	-0.014769857
252	0xbb391d0a	-0.0028246068
253	0xbcdf4a15	-0.027257005
254	0x3ba83dd9	0.005134326
255	0xbc70fe13	-0.0147090135

_orig_mod.lin1.bias f4 [500]
0	0x3cefad65	0.029257486
1	0x3ac448a7	0.0014975265
2	0x3b13402a	0.0022468665
3	0x3c1da017	0.009620688
4	0xbb0541b5	-0.0020333354
5	0xbf0dfef6	-0.55467165
6	0x3c881efd	0.016616339
7	0xbc587253	-0.013210851
8	0x3bdf3080	0.0068112016
9	0x3fea4968	1.8303652
10	0xbee3d122	-0.44495493
11	0x3c735420	0.0148516
12	0x3f702031	0.9379912
13	0xbf74f7e7	-0.9569077
14	0x3c70e913	0.014704007
15	0xbc402815	-0.011728306
16	0xbbae4b11	-0.005319007
17	0x3b222e41	0.0024746808
18	0x3bcf6398	0.006329011
19	0xbc2e2fb5	-0.010631491
20	0x3b9c09e3	0.004761921
21	0x3c686356	0.01418384
22	0x3cc15664	0.023600765
23	0xbc2fabcf	-0.010722115
24	0xba44b7b6	-0.00075041817
25	0xbca53223	-0.020165509
26	0xbc366e25	-0.011134659
27	0xbb4a064a	-0.0030826502
28	0x3bc5c082	0.0060349116
29	0xbc92bc55	-0.01791207
30	0xba2c5d84	-0.0006575214
31	0xbf2e8921	-0.6817799
32	0xbc054359	-0.008133733
33	0xbbf8c3c3	-0.007591696
34	0x3c5d6f36	0.013515284
35	0x3c7aeb2a	0.015314857
36	0x3ba27f87	0.00495905
37	0x3b8f11ac	0.0043661203
38	0xbba8da3d	-0.005152969
39	0x3faa673f	1.3312758
40	0xbae7977a	-0.0017669045
41	0xba6a5466	-0.0008938968
42	0xbca05cb6	-0.019575458
43	0xbc2be524	-0.010491643
44	0x3c5e9f0d	0.013587725
45	0x3bbd5810	0.00577832
46	0x3c319dc9	0.010840842
47	0x3c04d9a7	0.008108533
48	0x3c1000d1	0.008789257
49	0x398d109f	0.00026906
50	0x3c5333f4	0.012890805
51	0x3fb560e2	1.4170191
52	0x3c14df42	0.009086432
53	0x3fac9425	1.348271
54	0x3eaa86d5	0.33305994
55	0xbb635195	-0.0034686078
56	0x3f3d0625	0.738375
57	0x3ec26ae5	0.3797218
58	0x3f1d80df	0.61524767
59	0xbbf0fbdb	-0.0073542423
60	0x3b9f4b14	0.004861245
61	0xbb00c96c	-0.0019651307
62	0x3b0ff436	0.002196563
63	0xbf24d19e	-0.6438235
64	0xbc36059e	-0.011109738
65	0xbaad2105	-0.0013208693
66	0xbc924fa7	-0.017860247
67	0xbf5b3ae0	-0.8563671
68	0xbb7c2c4e	-0.0038478556
69	0x3cc2ab8a	0.023763437
70	0xbc75b6a6	-0.01499716
71	0xbc466883	-0.0121098785
72	0x3b5c0eb0	0.003357809
73	0xbce448ff	-0.027866838
74	0x3c8cf905	0.017208586
75	0x3c804cab	0.015661558
76	0x3bd7c584	0.006584825
77	0x3a3593ba	0.0006926615
78	0x3cea26d1	0.028582962
79	0x39fdebdf	0.00048431658
80	0xbedbbaef	-0.42916057
81	0x3faea681	1.3644563
82	0x40100bcf	2.2507207
83	0x3e714948	0.23563111
84	0x3a28d384	0.00064402097
85	0xbbf3664e	-0.007427967
86	0xbf0d8908	-0.5528722
87	0x3c2defbb	0.010616238
88	0xbc6cb28d	-0.014446867
89	0x3cbc8ffa	0.023017872
90	0x3c9a6b0b	0.01884987
91	0xbc7df88a	-0.015501151
92	0xbf4af7f4	-0.79284596
93	0xbf5d0050	-0.863286
94	0x3ea51461	0.3224211
95	0x3c89dc3c	0.016828649
96	0x3f8a820f	1.0820941
97	0x3c949197	0.018135829
98	0x3f104fbf	0.5637168
99	0xba80105a	-0.0009770498
100	0xbbf76154	-0.007549444
101	0x3f125e04	0.57174706
102	0xba916267	-0.0011091948
103	0xbca1d47a	-0.019754637
104	0x3f8a63f7	1.0811757
105	0xbc1ea1ca	-0.009682128
106	0x3f8fceb2	1.1234953
107	0x3cc61729	0.024180965
108	0xbb9230a4	-0.004461365
109	0xbb1d32e3	-0.002398663
110	0xbb1952c3	-0.0023395277
111	0x3ca20a61	0.01978034
112	0x3c226b1d	0.009913233
113	0x3c72a056	0.014808735
114	0xbf71554a	-0.94270766
115	0x3f42802d	0.7597683
116	0x3a85f7e2	0.001022097
117	0xbc736a8e	-0.014856948
118	0xbd35825c	-0.044313774
119	0xbaeef23e	-0.0018230153
120	0xbb3bd81a	-0.0028662742
121	0x3a86d72d	0.0010287516
122	0xbec13164	-0.37732995
123	0xb9f0d524	-0.0004593517
124	0xbc1122ac	-0.008858364
125	0xbc611022	-0.0137367565
126	0x3c973b5e	0.018460926
127	0xbd56e7e5	-0.052467246
128	0xbc5bdb20	-0.013418943
129	0x3c5aa21e	0.013344316
130	0x3bf4c45c	0.007469697
131	0x3f63fb51	0.89055353
132	0x3afa7a84	0.0019109999
133	0x3ca1c220	0.019745886
134	0xbbe46fb1	-0.0069713225
135	0xbb78ea75	-0.0037981544
136	0xbc9575a2	-0.018244568
137	0xba7818a0	-0.00094641186
138	0x3c92c7fe	0.01791763
139	0x3aa4dc09	0.0012577783
140	0xbb2053e7	-0.0024464072
141	0x3afbaf02	0.0019201937
142	0x39f90719	0.0004749827
143	0xbf193615	-0.5984815
144	0x3c18d0cc	0.009327125
145	0xbbc7bd7b	-0.006095586
146	0xbc613443	-0.01374537
147	0x3fa8537b	1.3150476
148	0x3ab31ca7	0.0013665155
149	0xbb91e7df	-0.00445269
150	0x3b004ba4	0.0019576335
151	0xbbcd891f	-0.0062724496
152	0xbb146d98	-0.002264833
153	0xbfc4950a	-1.5357983
154	0x3b9d0000	0.0047912598
155	0x3f8ccf4a	1.100076
156	0xbf558c35	-0.83417064
157	0x3a115d77	0.00055452384
158	0xbb7e2360	-0.003877841
159	0x3c938a53	0.018010294
160	0xba9bab53	-0.001187662
161	0xbbe7aa8d	-0.007069892
162	0x3c4347a1	0.011918933
163	0x3c412da0	0.011790663
164	0x3d1b8dce	0.037977032
165	0xba8d701f	-0.0010790861
166	0x3c3effeb	0.011657695
167	0x3bdb0899	0.0066843745
168	0x3c8337d9	0.016017841
169	0xbb31c699	-0.002712643
170	0x3c549e57	0.012977204
171	0x3cc65351	0.02420965
172	0x3b1a1656	0.0023511848
173	0x3f9b5d71	1.2137891
174	0xbf33b6be	-0.7020072
175	0x3b823519	0.003973615
176	0x3baf9584	0.0053584
177	0x3d1eebd5	0.038799126
178	0xb9a6c410	-0.00031808065
179	0xbc0bb23d	-0.008526382
180	0xbb681d9b	-0.0035418037
181	0xbc9e3206	-0.019310962
182	0x3c118d9a	0.008883858
183	0xbbcdad32	-0.00627675
184	0x3cd3ea1a	0.025868464
185	0x3ba8a196	0.0051462157
186	0x3cbea832	0.023273561
187	0x3c6c8560	0.014436096
188	0xbd2bec99	-0.041973684
189	0x40073b91	2.1130106
190	0x3c901fe1	0.017593326
191	0x3aec8732	0.0018045662
192	0xbc6e0e4d	-0.014529777
193	0xbed873a4	-0.42275727
194	0x3c02fbff	0.007994651
195	0xbc4acab6	-0.012377432
196	0xbc1af402	-0.00945759
197	0xb9c73d52	-0.00038001925
198	0xbb397b94	-0.0028302418
199	0xbb23ac08	-0.0024974365
200	0xbc1d2689	-0.009591707
201	0x3b440e43	0.0029915727
202	0x3bd53990	0.006507106
203	0xbc71bee4	-0.0147549845
204	0xbc8177ba	-0.01580416
205	0x3c3705f5	0.011170854
206	0x3cf27144	0.029595025
207	0x3c4ae9be	0.01238483
208	0x3c3fe12a	0.011711398
209	0xbb93444a	-0.0044942247
210	0xbe988c15	-0.29794374
211	0x3ae5a51e	0.0017520522
212	0xbbf40fbe	-0.0074481657
213	0xbc1aceb7	-0.009448699
214	0xb9f9668d	-0.00047569387
215	0x3c85e568	0.016344741
216	0xbc36b5bd	-0.011151728
217	0xbc92c7a4	-0.017917462
218	0x3c3dd3a5	0.0115861045
219	0xbb286c38	-0.002569927
220	0xbc8050b5	-0.015663484
221	0x3c56787e	0.013090251
222	0x3f5763a9	0.84136444
223	0x3c0813a9	0.008305469
224	0xbb9aecde	-0.004727944
225	0x3c89cad8	0.016820356
226	0x3c4b8121	0.012420923
227	0xba2a6cfa	-0.0006501224
228	0xbb8551c1	-0.0040685837
229	0xbcde318c	-0.027123235
230	0xb91b6691	-0.00014820161
231	0xbbc80d34	-0.0061050896
232	0xbf77f61e	-0.9685992
233	0x3c5d1adc	0.013495173
234	0x3ab88dd9	0.001408036
235	0x3ac6b8ef	0.0015161316
236	0x3bb2731f	0.0054458524
237	0x3be05397	0.006845902
238	0x3cde3051	0.027122648
239	0x3c525136	0.012836745
240	0x3ae23acc	0.0017259954
241	0xbb9c0d4f	-0.0047623287
242	0xbc336aaf	-0.010950728
243	0x3c81067e	0.015750166
244	0xba73d32b	-0.0009301181
245	0x3c926ec3	0.01787508
246	0xbaca8d3f	-0.0015453472
247	0x3adbe039	0.0016775198
248	0x3c7d3819	0.015455269
249	0xbc4f169a	-0.012639666
250	0x3aba62ae	0.0014220083
251	0x3aa7d321	0.001280401
252	0x3fefb646	1.87275
253	0x3c919064	0.017769046
254	0xbbc6ec81	-0.006070674
255	0x400eeec5	2.2333233

_orig_mod.lin2.weight f4 [300, 500]
0	0xbdf46f77	-0.11935323
1	0xba839b55	-0.0010040799
2	0xbb7a7829	-0.0038218594
3	0x3ba39bb8	0.0049929284
4	0x3aaf6869	0.0013382557
5	0xbdaaa432	-0.08332099
6	0xbb84d5d6	-0.0040538115
7	0x3b521225	0.0032054272
8	0xbd08af9f	-0.03337061
9	0x3d3cfb02	0.046137817
10	0x3e4537b4	0.1925953
11	0xbb15641c	-0.0022795266
12	0xbe78dca9	-0.24302925
13	0xbe2be2ea	-0.1678578
14	0x3bbf18ce	0.0058318144
15	0x3c717179	0.014736527
16	0xbb275a60	-0.0025536045
17	0xbc9cbb8e	-0.019132402
18	0xbb040d57	-0.0020149553
19	0x3a789f23	0.00094841624
20	0xbb836650	-0.0040099993
21	0xbc20d5a8	-0.009816565
22	0xbbad7408	-0.005293373
23	0xbb063940	-0.00204809
24	0x3c4cd94c	0.0125029795
25	0x3b00bfdf	0.0019645614
26	0x3ba27f52	0.0049590254
27	0xbbc34df0	-0.0059602186
28	0xbbfdabee	-0.007741443
29	0x3bc86a2a	0.0061161714
30	0xbb88f07e	-0.0041790595
31	0xbec19536	-0.3780915
32	0xbc51c8be	-0.012804208
33	0x3ba28a37	0.004960324
34	0xbc4888b8	-0.012239628
35	0xbc99e2fd	-0.018784994
36	0xb986ba2f	-0.0002569719
37	0xbbf02437	-0.007328536
38	0xbbd2df13	-0.006435284
39	0x3e8917d0	0.2677598
40	0x3b734a21	0.0037123042
41	0xbb5c5426	-0.0033619492
42	0x3c0d37ab	0.008619229
43	0xbb286141	-0.0025692733
44	0xbbd312f0	-0.0064414665
45	0x3bc04c1a	0.005868447
46	0x3accc581	0.0015622826
47	0xbc609054	-0.0137062855
48	0xbbbf3234	-0.005834842
49	0x3c01af24	0.007915292
50	0xbca7b4f5	-0.02047203
51	0x3dec4f90	0.11538613
52	0xbceaa835	-0.02864466
53	0x3e3af7ce	0.18258592
54	0xbdc2a93f	-0.095049374
55	0x3c0da3e5	0.0086450325
56	0xbdeca81d	-0.115555026
57	0x3c88558f	0.01664236
58	0x3e544ea3	0.20733123
59	0x3c222e54	0.009898741
60	0xbc4ac715	-0.012376566
61	0xbbebe2c2	-0.0071986625
62	0x3ba1e0e0	0.0049401373
63	0x3d0910dc	0.033463344
64	0xba77d65a	-0.0009454243
65	0x3ae999eb	0.001782236
66	0x3b706d15	0.0036686112
67	0x3d8748be	0.06605671
68	0xbbe03723	-0.0068425103
69	0x3b060a7a	0.0020453022
70	0x3a2c7e5a	0.0006580107
71	0x3c4cfc45	0.012511318
72	0x3c02720e	0.007961763
73	0x3c06177b	0.008184309
74	0xbb74aa2e	-0.003733288
75	0x3bb825f3	0.0056197583
76	0x3c07e266	0.008293724
77	0xbc3dc89d	-0.011583474
78	0x3c3046c9	0.010759064
79	0xbc6c7857	-0.014432988
80	0x3b73e6b5	0.003721637
81	0xbdc12398	-0.09430617
82	0x3d6e9827	0.058250573
83	0xbd274526	-0.04083743
84	0xbb2c4c3e	-0.002629056
85	0x3b94eb96	0.0045446856
86	0x3d6e72ab	0.058214825
87	0xbb8d8d9d	-0.00431986
88	0xbbe9a80f	-0.00713063
89	0xbc02b002	-0.007976534
90	0xbb872113	-0.004123816
91	0x39f41585	0.0004655534
92	0x3ed1c09e	0.40967268
93	0x3f0d7264	0.5525267
94	0xbd4b1861	-0.049583796
95	0xbc6099f3	-0.013708579
96	0x3d4b1201	0.049577717
97	0xbba1323a	-0.0049193176
98	0xbe893026	-0.26794547
99	0x3be56046	0.007000002
100	0xbb511f78	-0.0031909626
101	0xbcd41cad	-0.02589258
102	0xbc971f43	-0.018447524
103	0xbc07c213	-0.008286017
104	0x3e8c0c5b	0.27353176
105	0xb99d5691	-0.0003000987
106	0xbe8d7e7c	-0.27635562
107	0x3bb04f21	0.0053805267
108	0xbba5b6f1	-0.0050572087
109	0x3b2e8bc8	0.002663361
110	0xbb8c9d6d	-0.0042912276
111	0xbb90eb62	-0.004422591
112	0xbc157e0a	-0.009124288
113	0xbbcf683f	-0.006329566
114	0xbbba4770	-0.0056847855
115	0x3ddc0874	0.107438
116	0x3ba48a98	0.0050214045
117	0x3c05d682	0.008168818
118	0x3cd48042	0.025940064
119	0xb9ee70fb	-0.00045479074
120	0xbc245e98	-0.0100323185
121	0xbb5d4b81	-0.0033766928
122	0x3e1fa4c8	0.15590203
123	0x3b5cb1cf	0.0033675318
124	0xbb4af6b5	-0.0030969803
125	0x3c18ece1	0.00933382
126	0x3a8cebdb	0.0010751443
127	0xbcd8df59	-0.026473688
128	0xbc3ef51a	-0.011655116
129	0x3c4cc768	0.012498714
130	0x3c28717b	0.010280962
131	0xbf8b7ad1	-1.0896856
132	0x3a00d4f1	0.0004914543
133	0x3be388ad	0.0069437833
134	0xbb8b9498	-0.004259657
135	0x3c6e1c78	0.014533155
136	0x3d5cacd0	0.053875744
137	0xbc549586	-0.012975102
138	0xbbf80366	-0.0075687645
139	0x3c005ccd	0.007834625
140	0xbbdbe6bd	-0.0067108558
141	0xb96a3d1c	-0.00022338744
142	0xbc41999b	-0.011816408
143	0xbca3ca83	-0.019994026
144	0x3c19d447	0.00938899
145	0x3c2c1529	0.010503092
146	0xbbdac69d	-0.0066765086
147	0xbd7ca8dc	-0.061684474
148	0xba9501a0	-0.0011368282
149	0x3b8c1b15	0.0042756894
150	0x3ba34a83	0.0049832477
151	0x3bfde0e8	0.007747758
152	0x3bb58052	0.0055389786
153	0xbd3e77af	-0.046500858
154	0xbc15bf57	-0.009139857
155	0xbf191d19	-0.59810024
156	0x3e619843	0.2203074
157	0xbbcba971	-0.0062152673
158	0xbbbe79d9	-0.005812865
159	0x3c4c4601	0.012467862
160	0xbbd8c66e	-0.0066154515
161	0xbbe49e68	-0.0069768913
162	0x3aa2e098	0.0012426553
163	0xbc35b075	-0.011089434
164	0xbda19d76	-0.078913614
165	0xbbca32c2	-0.0061706016
166	0x3a242f70	0.0006263172
167	0xbc460747	-0.012086696
168	0x3b03a56b	0.002008761
169	0x3bc7317f	0.0060788984
170	0x3c132b96	0.00898256
171	0xbc10ace3	-0.008830282
172	0x39e64355	0.00043919185
173	0xbe791bea	-0.24327055
174	0x3d301ef2	0.04299826
175	0x3c536f77	0.012904993
176	0x3c349fe1	0.011024446
177	0x3c3ded30	0.011592194
178	0x3a1d3f70	0.00059985276
179	0xbab67e75	-0.0013923185
180	0xbbac10d8	-0.0052510314
181	0xbccebd2e	-0.025236692
182	0x3c8a9f4a	0.016921658
183	0x3b3f31c5	0.0029173952
184	0x3bdd29b1	0.006749355
185	0xbc7090dd	-0.014682976
186	0x3bb12a56	0.005406658
187	0xbc91cbbd	-0.017797345
188	0xbc915661	-0.017741384
189	0xbe96fd21	-0.29489997
190	0xbc0a7986	-0.008451825
191	0xbb43ec04	-0.0029895315
192	0xbc7515cd	-0.014958811
193	0xbc26de1e	-0.010184793
194	0xbc2c240c	-0.010506641
195	0xbb4866bb	-0.003057881
196	0xbc8dea9c	-0.017323785
197	0x3c28d362	0.010304304
198	0x3bc826c5	0.0061081373
199	0xbc2c23c7	-0.010506577
200	0xbb114244	-0.0022164742
201	0xbbea241b	-0.0071454174
202	0xbc5100e9	-0.012756565
203	0xbb08a5ed	-0.0020850853
204	0xbc8b88b5	-0.01703296
205	0x3ad35f06	0.0016126342
206	0x3c70571d	0.014669207
207	0x3be31ca9	0.006930907
208	0xbb4a2224	-0.0030843103
209	0xbb8a234d	-0.004215634
210	0x3d2578bc	0.040398344
211	0x3b97d6ad	0.0046337456
212	0x3d01a703	0.031653415
213	0x3c8ef672	0.017451499
214	0xb9b18d4e	-0.0003386535
215	0x3bcccb13	0.0062497943
216	0xbc5df5e2	-0.013547393
217	0x3bd862f9	0.0066035953
218	0xbc3aee89	-0.01140941
219	0x3c94509c	0.018104844
220	0xbc564123	-0.013077053
221	0x3bb85995	0.0056259134
222	0xbe12a1cd	-0.14319535
223	0x3c386c4e	0.011256291
224	0xbbb2042e	-0.005432627
225	0xbc60729e	-0.013699202
226	0xbbf46691	-0.007458516
227	0x3c0c4a50	0.008562639
228	0x3be7f807	0.0070791277
229	0x3c04e68b	0.008111606
230	0xbbd508b8	-0.0065012835
231	0xb91e83b9	-0.00015117125
232	0xbdc8bcbe	-0.09801625
233	0xbc04b9a9	-0.008100905
234	0xba938fc5	-0.0011258057
235	0x3bd8b355	0.006613175
236	0xbc0f8d57	-0.008761725
237	0x3ba70c02	0.005097867
238	0x3c35dfba	0.011100704
239	0x3baab40c	0.0052094515
240	0xba4eafa1	-0.0007884447
241	0xbbcf2a7d	-0.0063222037
242	0x3bea1851	0.007144012
243	0x3c0729bc	0.008249696
244	0xbadaba8d	-0.0016687677
245	0x3cacbe55	0.021086851
246	0xbc84b86d	-0.016201222
247	0xbbd0def4	-0.0063742343
248	0xbb094abd	-0.0020949089
249	0xbb8d83f8	-0.0043187104
250	0x3aea8e37	0.0017895167
251	0xbc2935b0	-0.0103277415
252	0xbeb349b4	-0.3501717
253	0xbb6d10f0	-0.0036173426
254	0xbb0437fd	-0.0020174973
255	0xbd2cb0aa	-0.042160667

_orig_mod.lin2.bias f4 [300]
0	0xc08869f6	-4.2629347
1	0xbfdba25e	-1.7158926
2	0x3f596cf3	0.8493187
3	0xc0400608	-3.000368
4	0xc0195096	-2.3955436
5	0xc022e98e	-2.545505
6	0xbf4e71d6	-0.8064245
7	0xbfff45c1	-1.9943162
8	0xbf09e802	-0.5386964
9	0xc08d0575	-4.406916
10	0xc02cb3a3	-2.6984642
11	0xc023c098	-2.55863
12	0xc08c1d9a	-4.3786135
13	0xc042c66d	-3.043361
14	0xc0536f28	-3.3036594
15	0xc083d537	-4.119777
16	0xc05cef41	-3.452103
17	0xc06a8ccb	-3.6648433
18	0xc068c719	-3.637152
19	0xbff4d06a	-1.9126103
20	0xbf91fece	-1.1405885
21	0xbff7e4a9	-1.9366657
22	0xbf823020	-1.0170937
23	0xbf704d0c	-0.93867564
24	0xbfccbc26	-1.5994918
25	0xbff7dfb9	-1.936515
26	0xc0128860	-2.2895737
27	0xbfdf770c	-1.7458205
28	0xbfe8d4be	-1.8189924
29	0xbf9741d2	-1.1816962
30	0xbe45430f	-0.19263862
31	0xc00d702f	-2.2099721
32	0xc04eb333	-3.2296875
33	0xbfddec2b	-1.7337698
34	0xbfd799dc	-1.6843829
35	0xc000a8cf	-2.0103033
36	0xbfae1079	-1.3598777
37	0xc002cafb	-2.043639
38	0xc05ab58e	-3.4173312
39	0xc02757d9	-2.6147368
40	0xbfafdf4b	-1.3740019
41	0xbed3feac	-0.41405237
42	0xc00adadc	-2.169608
43	0xc007ea64	-2.123681
44	0xbf8b93e1	-1.0904504
45	0xc008da4a	-2.1383233
46	0xbfa8bff2	-1.3183577
47	0xc06dd18f	-3.7159154
48	0xc0b40e79	-5.6267667
49	0x3e240b62	0.16019967
50	0xbea98ca9	-0.33115128
51	0xbe2fa463	-0.17152552
52	0x3e3f6916	0.18692431
53	0x3f31c1b9	0.6943622
54	0xbe86b0e7	-0.2630684
55	0xbf63f8f6	-0.8905176
56	0xbed35759	-0.41277578
57	0x3e9c3ef4	0.3051678
58	0xbfc9f204	-1.5776982
59	0xbf50f632	-0.81625664
60	0x3f346e40	0.7048073
61	0x3ea2a7d6	0.31768674
62	0x3f2f77e9	0.68542343
63	0x3e87be27	0.26512262
64	0x3b85e416	0.004086028
65	0xbfb7c631	-1.4357358
66	0x3f1ed68a	0.6204611
67	0x3f85664d	1.0421845
68	0x3fa09ff8	1.2548819
69	0x3e80c09a	0.25146943
70	0xbe821d9b	-0.25413212
71	0x3cea7901	0.028622152
72	0xc011e93f	-2.2798612
73	0xbedc8b20	-0.43074894
74	0xc023eaa6	-2.5611968
75	0xc0645d03	-3.568177
76	0xc0578e07	-3.3680437
77	0xc070f528	-3.7649632
78	0xc0663ed9	-3.597586
79	0xc054a1ce	-3.3223758
80	0xc0083c35	-2.1286747
81	0xc00d8687	-2.211336
82	0xbfe7c1f9	-1.8106071
83	0xc0875140	-4.228668
84	0xc08a3acc	-4.3196774
85	0xc08aad9a	-4.3336916
86	0xc0894f89	-4.290959
87	0xc089964f	-4.299598
88	0xc08970d5	-4.2950234
89	0xc0886bf2	-4.263177
90	0xc08bdcba	-4.370694
91	0xc088f55c	-4.279951
92	0xc08a9f65	-4.3319573
93	0xc08aebb5	-4.341273
94	0xc08a62e8	-4.3245735
95	0xc0895584	-4.291689
96	0xc088e630	-4.278099
97	0xc08b17bd	-4.3466477
98	0xc0864b91	-4.1967244
99	0xc08ade5a	-4.3396425
100	0xc08957cf	-4.291969
101	0xc08aaf13	-4.3338714
102	0xc08aaae7	-4.333362
103	0xc08a62c1	-4.324555
104	0xc08c8292	-4.3909388
105	0xc089b658	-4.3035088
106	0xc08a34d7	-4.31895
107	0xc089128c	-4.283514
108	0xc08c917f	-4.3927608
109	0xc08c8df3	-4.392328
110	0xc0895af1	-4.2923512
111	0xc08b68c5	-4.3565392
112	0xc08af29c	-4.3421154
113	0xc08a3a0e	-4.3195868
114	0xc08a21e8	-4.316639
115	0xc089c626	-4.305438
116	0xc08b80fd	-4.3594956
117	0xc08c4085	-4.382876
118	0xc08939a1	-4.288285
119	0xc08a0b67	-4.313892
120	0xc08a68ec	-4.325308
121	0xc08be6a4	-4.3719044
122	0xc08802de	-4.25035
123	0xc08ac81c	-4.3369274
124	0xc08a98b2	-4.3311396
125	0xc08ab5e1	-4.334702
126	0xc0891b41	-4.284577
127	0xc089e063	-4.308641
128	0xc089b812	-4.3037195
129	0xc08a8c54	-4.32963
130	0xc08ab5b5	-4.334681
131	0xc08a1b2c	-4.315817
132	0xc088febd	-4.281096
133	0xc0891180	-4.283386
134	0xc0892eda	-4.286969
135	0xc089a249	-4.30106
136	0xc08963eb	-4.293447
137	0xc08afa76	-4.343074
138	0xc089842c	-4.2973843
139	0xc0896a32	-4.2942133
140	0xc08a00cd	-4.3125978
141	0xc0890004	-4.281252
142	0xc088997d	-4.2687364
143	0xc08993fc	-4.2993145
144	0xc089d7e9	-4.307606
145	0xc08832de	-4.2562094
146	0xc089c032	-4.3047113
147	0xc0899ee2	-4.300645
148	0xc089f669	-4.3113294
149	0xc08a6917	-4.3253284
150	0xc089c431	-4.305199
151	0xc089ae0a	-4.302495
152	0xc08b528c	-4.3538265
153	0xc08ac5f7	-4.3366656
154	0xc08b2eb2	-4.34945
155	0xc08b4e07	-4.353275
156	0xc08a764b	-4.32694
157	0xc08b08c4	-4.34482
158	0xc08b1ab5	-4.34701
159	0xc08ab477	-4.3345294
160	0xc087c8a0	-4.2432404
161	0xc08b83fb	-4.359861
162	0xc088f90b	-4.2804008
163	0xc08ac3f0	-4.336418
164	0xc08bb8d5	-4.3663125
165	0xc08b70b3	-4.357507
166	0xc08ad0d7	-4.337993
167	0xc08b3664	-4.3503895
168	0xc08868ea	-4.262807
169	0xc0887973	-4.2648253
170	0xc0893608	-4.2878456
171	0xc089d7fc	-4.3076153
172	0xc08591b7	-4.1740375
173	0xc088cedd	-4.275252
174	0xc08c7be7	-4.390125
175	0xc0884609	-4.258549
176	0xc088172f	-4.25283
177	0xc0899188	-4.299015
178	0xc0896199	-4.293164
179	0xc08ab805	-4.3349633
180	0xc08a764c	-4.3269405
181	0xc088d088	-4.2754555
182	0xc087ff7a	-4.249936
183	0xc08a57f4	-4.3232365
184	0xc0892b4a	-4.2865343
185	0xc088a3fc	-4.2700176
186	0xc089a3c8	-4.301243
187	0xc0884a5e	-4.259078
188	0xc08a7ef0	-4.3279953
189	0xc0899b77	-4.3002276
190	0xc08a5a60	-4.323532
191	0xc08b927c	-4.3616314
192	0xc0875362	-4.2289286
193	0xc08ae5c7	-4.340549
194	0xc089b9d1	-4.3039327
195	0xc089191f	-4.2843165
196	0xc08ba64b	-4.3640494
197	0xc08ad15a	-4.3380556
198	0xc08b5ac5	-4.3548303
199	0xc089eec9	-4.3103986
200	0xc089f6c1	-4.3113713
201	0xc08aea1c	-4.341078
202	0xc089665d	-4.2937455
203	0xc08a7eed	-4.327994
204	0xc08a7860	-4.327194
205	0xc08963a6	-4.293414
206	0xc08a8bda	-4.3295717
207	0xc089cebc	-4.306486
208	0xc08b4e0e	-4.353278
209	0xc08ab0b9	-4.3340726
210	0xc08a853d	-4.3287644
211	0xc08ad455	-4.3384194
212	0xc08bc9cc	-4.3683834
213	0xc08b685d	-4.3564897
214	0xc0893236	-4.2873793
215	0xc088418b	-4.258001
216	0xc08a4f0c	-4.3221493
217	0xc08ad315	-4.338267
218	0xc08b32fc	-4.3499737
219	0xc0876045	-4.2305017
220	0xc08b12c2	-4.34604
221	0xc08abe53	-4.335733
222	0xc089c8a8	-4.305744
223	0xc08869c9	-4.262913
224	0xc08817c9	-4.2529035
225	0xc088f84a	-4.2803087
226	0xc0893548	-4.287754
227	0xc0890add	-4.282576
228	0xc08800b3	-4.2500854
229	0xc08a733c	-4.3265667
230	0xc08b456b	-4.352224
231	0xc088862c	-4.2663784
232	0xc08868be	-4.262786
233	0xc089b6b9	-4.303555
234	0xc089d1d4	-4.306864
235	0xc08a6047	-4.3242526
236	0xc08964a0	-4.2935333
237	0xc089d842	-4.3076487
238	0xc0885163	-4.259935
239	0xc08881f9	-4.265866
240	0xc089f746	-4.3114347
241	0xc08a2d93	-4.3180633
242	0xc08a3f3c	-4.320219
243	0xc08a960f	-4.3308177
244	0xc08acd34	-4.337549
245	0xc08bc914	-4.3682957
246	0xc08b62d9	-4.3558164
247	0xc089436b	-4.2894797
248	0xc08a49aa	-4.321492
249	0xc08b50af	-4.353599
250	0xc08a8372	-4.3285456
251	0xc08b4f18	-4.353405
252	0xc08a17e6	-4.3154173
253	0xc089fb2d	-4.311911
254	0xc08aef64	-4.3417225
255	0xc08b6826	-4.3564634

_orig_mod.lin3.weight f4 [83, 300]
0	0x3b963138	0.004583504
1	0x3d6c0fd6	0.05763229
2	0xbd2d3c0c	-0.042293593
3	0xbc808c49	-0.015691893
4	0x3d02de07	0.031950023
5	0xbd65d2a4	-0.056109086
6	0xbd5be718	-0.053687185
7	0x3c634acd	0.013872814
8	0xbce02cbb	-0.02736508
9	0xba9ea734	-0.0012104274
10	0x3c2daf1a	0.0106008295
11	0xbc2cb659	-0.010541522
12	0xbd558f99	-0.0521389
13	0x3bf2f4ac	0.007414421
14	0xbcdc4548	-0.026888505
15	0x3c841f37	0.016128166
16	0xbae5ea52	-0.0017541146
17	0xbd032bb5	-0.032024104
18	0x3d497f6c	0.049193785
19	0xbab407cb	-0.0013735233
20	0xbccc0cc6	-0.024908435
21	0x3bebacd0	0.0071922317
22	0x3bf33f7f	0.007423341
23	0x3d60d1ef	0.05488771
24	0x3d27007f	0.040771957
25	0x3d6693b1	0.056293193
26	0x3d2f725b	0.042833667
27	0x3d521ffe	0.05130004
28	0xbc94e8ad	-0.018177355
29	0x3c2aacea	0.0104172025
30	0x3d3f4ac9	0.04670218
31	0x3d03226f	0.03201526
32	0x3c5f848d	0.013642442
33	0x3baf45d1	0.005348899
34	0xbd4133a8	-0.047168404
35	0x3d68286c	0.056679174
36	0x3bcfe91d	0.006344928
37	0x3ce175da	0.027522016
38	0xbc6a8d52	-0.01431592
39	0x3b9797de	0.0046262583
40	0xbc0c0da0	-0.00854817
41	0xbb42058f	-0.0029605364
42	0x3d56fd5f	0.052487727
43	0xbcd748f2	-0.0262799
44	0x3d2f6f52	0.042830773
45	0xbc62b699	-0.01383748
46	0xbd143926	-0.036187313
47	0x3bf7ab1b	0.007558239
48	0x3b5126a8	0.003191391
49	0xbb7d5fea	-0.0038661906
50	0xbc8af720	-0.016963542
51	0x3ce8dae1	0.028424682
52	0xbc220f68	-0.009891368
53	0xbd0bb3d7	-0.034107056
54	0xba82669f	-0.0009948796
55	0xbd23723f	-0.039903875
56	0x3d62da56	0.055384003
57	0xbd3f2823	-0.046669137
58	0x3d1ab233	0.0377676
59	0x3cc4ef82	0.024039987
60	0x3ca89c8e	0.020582464
61	0x3cdb9267	0.026803209
62	0xbb67ec82	-0.0035388772
63	0x3d0556dc	0.03255354
64	0xbd2af2de	-0.041735522
65	0xbd33aadc	-0.043864116
66	0xbc35e603	-0.011102202
67	0xbd2b90bf	-0.041886088
68	0x3d1defcf	0.038558777
69	0x3cab7a7b	0.020932427
70	0x3d0bbe21	0.034116868
71	0xbd4278bb	-0.04747842
72	0xbcc13a7d	-0.02358746
73	0x3ccdfed4	0.025145926
74	0x3d2d0c35	0.04224797
75	0xbd661102	-0.056168564
76	0x3c8c42af	0.017121641
77	0xbcdc418e	-0.026886728
78	0xbce9f7b4	-0.028560497
79	0xbb92ffa2	-0.00448604
80	0xbd4b295f	-0.0496
81	0x3d3fcfd2	0.046829052
82	0x3d598684	0.0531068
83	0xbcee1bb0	-0.029065937
84	0xbc60490d	-0.013689292
85	0xbcd208e0	-0.025638998
86	0xbcf3e623	-0.029772824
87	0xbd2475d5	-0.040151436
88	0xbcfff181	-0.031243088
89	0x3c676ce2	0.014125081
90	0xbcbb6714	-0.0228763
91	0xbd5c1b4d	-0.053736974
92	0x3c9c8d16	0.019110244
93	0xbc46659e	-0.012109188
94	0x3cc82300	0.024430752
95	0x3d3070f4	0.04307647
96	0xbce21215	-0.027596513
97	0xbd49fcbb	-0.04931329
98	0xb8ec3cbf	-0.00011264672
99	0x3c26fe38	0.010192446
100	0xbccd852a	-0.025087912
101	0x3c93aaa8	0.018025711
102	0xbd61cb60	-0.055125594
103	0x3be70edd	0.0070513324
104	0x3c68cecd	0.014209461
105	0xbc860308	-0.016358867
106	0x3bc818d3	0.006106475
107	0x3d3a5c26	0.045498036
108	0x3d47e9cd	0.048806954
109	0xbc85b78f	-0.01632288
110	0xbd21ecca	-0.03953246
111	0x3d1f4c41	0.03889108
112	0xbc58c64d	-0.013230872
113	0xbd4d7bc6	-0.050166868
114	0xbc820aa3	-0.015874213
115	0x3d44b7aa	0.04802672
116	0x3cf6a1d4	0.030106463
117	0xbb74ea46	-0.0037371083
118	0xbd268174	-0.0406508
119	0xbd5d1630	-0.053976238
120	0x3d66a14a	0.05630616
121	0x3d137896	0.03600367
122	0x3c0c117e	0.008549092
123	0xbd18c465	-0.03729667
124	0x3d3f40f6	0.04669281
125	0xbcf0eed5	-0.029410759
126	0x3cf92b90	0.03041628
127	0x3d223521	0.03960145
128	0x3c345afd	0.011008021
129	0xbd04a8fa	-0.03238771
130	0x3c30f8ef	0.010801538
131	0xbd271639	-0.040792678
132	0xbd349dfa	-0.04409597
133	0x3d25139f	0.040301915
134	0x3a47c09b	0.0007619948
135	0x3cc26271	0.023728581
136	0x3d2bebac	0.0419728
137	0xbcd1a97b	-0.02559351
138	0x3d55452a	0.052067913
139	0x3c0f9a49	0.008764812
140	0x3d48e5e6	0.049047373
141	0xbca20f5a	-0.01978271
142	0x3c7dee43	0.015498701
143	0x3d1662f1	0.03671545
144	0xbbee0095	-0.007263253
145	0x3d05dcfc	0.03268145
146	0x3cdb261f	0.026751576
147	0x3cf625bd	0.030047292
148	0x3d59f8b3	0.053215694
149	0xbc5d79ca	-0.013517806
150	0xbd053220	-0.032518506
151	0x3d6b396c	0.05742781
152	0xbcbd8361	-0.023133935
153	0x3c999931	0.018749805
154	0xbd0194d0	-0.03163606
155	0xbafb92f6	-0.0019193578
156	0x3ca77ada	0.020444322
157	0x3b2eaf03	0.0026654608
158	0x3cf785ec	0.030215226
159	0xbc856068	-0.016281322
160	0x3d40476f	0.046943124
161	0xbc5f8537	-0.013642601
162	0xbcca3f3e	-0.02468836
163	0x3d065623	0.03279699
164	0xbb804d0d	-0.003915435
165	0x3d232d66	0.039838217
166	0xbd237f8b	-0.039916556
167	0x3d10a997	0.035317983
168	0xbc742ea3	-0.014903697
169	0xbc0467dc	-0.008081403
170	0x3bc87095	0.0061169364
171	0x3c1897c0	0.009313524
172	0x3be7dd7f	0.007075965
173	0xbd28e08d	-0.041229773
174	0xbae54c96	-0.0017494138
175	0x3bd7f2ac	0.006590208
176	0xba01b66a	-0.0004948141
177	0xbc402bf5	-0.01172923
178	0xbcd6f07b	-0.026237717
179	0x3d39da07	0.045373943
180	0x3d32d2c8	0.043658048
181	0xbcdc4411	-0.026887925
182	0x3d535d14	0.051602438
183	0xbd13860c	-0.03601651
184	0x3c010bc0	0.007876337
185	0x3d58ee25	0.052961487
186	0x3d23b3fc	0.03996657
187	0x3d5514cc	0.052021787
188	0xbd0b9927	-0.034081604
189	0xbd68d1e3	-0.05684079
190	0x3d2b3540	0.04179883
191	0xbccee18d	-0.025254035
192	0x3d2c9b28	0.042140156
193	0x3c693839	0.014234596
194	0x3c8386a2	0.016055409
195	0xbd0f13c9	-0.034930978
196	0x3d3eaf48	0.04655388
197	0x3b3ab872	0.0028491286
198	0xbca15413	-0.01969341
199	0x3caf4d31	0.021399112
200	0x3c557634	0.01302867
201	0xbd16be77	-0.036802735
202	0x3b636d28	0.0034702513
203	0x3c037b51	0.008025006
204	0x3d655e41	0.05599809
205	0x3c9df397	0.019281192
206	0x3c89a0a0	0.016800225
207	0x3ccb08e5	0.024784515
208	0x3d3f97b4	0.046775535
209	0xbd3c9c39	-0.046047423
210	0x3d6141e5	0.054994483
211	0x3d30451e	0.043034665
212	0x3d53e983	0.051736366
213	0x3d49bcca	0.04925231
214	0x3d44581b	0.047935586
215	0xbc0c65ba	-0.008569175
216	0xbccde4c6	-0.025133502
217	0xbd316613	-0.043310236
218	0x3d082b52	0.03324444
219	0xbd130262	-0.035890944
220	0xbce36276	-0.02775691
221	0x3d478790	0.048713267
222	0x3c94acfe	0.018148895
223	0xbc4058bb	-0.011739905
224	0xbce50145	-0.027954707
225	0xbcd1e81c	-0.025623374
226	0x3c9b4527	0.018953873
227	0x3c803ebc	0.015654914
228	0x3d6a3e2b	0.057188194
229	0xbcb1773f	-0.021663306
230	0x3c720366	0.014771318
231	0x3d151a10	0.03640181
232	0xbc88ac70	-0.016683787
233	0xbd07c892	-0.033150263
234	0x3d378158	0.044801086
235	0x3ccbe121	0.024887623
236	0xbd1c187c	-0.038109288
237	0xbcb73e4d	-0.022368575
238	0x3ca0d81e	0.019634303
239	0x3d3f69cd	0.04673176
240	0xbd1e1427	-0.038593438
241	0x3c356441	0.011071266
242	0xbcdf0b47	-0.027227057
243	0x3cab3f0f	0.020904092
244	0x3d6bef48	0.057601243
245	0x3b7cc2c3	0.0038568235
246	0xbd587391	-0.052844588
247	0xbcadabe5	-0.02120013
248	0xbd2b07d5	-0.041755516
249	0xbd02480a	-0.031806983
250	0x3c89d76b	0.016826352
251	0xba4b3006	-0.00077509915
252	0xbca5c539	-0.020235645
253	0x3d5dc04e	0.054138474
254	0xbc8e6246	-0.017380845
255	0xbd0f574f	-0.034995373

_orig_mod.lin3.bias f4 [83]
0	0x3cf858f9	0.030315863
1	0x3d2b6607	0.041845348
2	0xbc36314c	-0.011120152
3	0xbd3f4126	-0.04669299
4	0x3d2772df	0.040881034
5	0x3d0be1bf	0.034150835
6	0xbd385e1e	-0.045011632
7	0x3d045ad9	0.0323132
8	0x3d364c15	0.04450615
9	0x3d3c7524	0.04601015
10	0x3d54583f	0.05184197
11	0x3cd67fa7	0.026183916
12	0x3c83229f	0.01600772
13	0xbcd3a1f5	-0.025834063
14	0xbd47ffb4	-0.048827842
15	0xbd30969b	-0.04311238
16	0x3c981b30	0.018567652
17	0xbbd4d78c	-0.0064954218
18	0xbc9cd987	-0.019146694
19	0x3d3391ef	0.043840345
20	0x3c7fd86f	0.015615567
21	0x3d4a15bb	0.04933713
22	0x3d5076b3	0.05089445
23	0xbd67a421	-0.05655301
24	0xbd630149	-0.055421147
25	0x3b3b1cac	0.0028551025
26	0x3d4c8829	0.04993454
27	0xbd2e40e0	-0.04254234
28	0xbcf5e268	-0.030015185
29	0xbd345e70	-0.044035375
30	0x3b995036	0.0046787513
31	0x3c8d2cdb	0.017233303
32	0xbccd98d6	-0.025097292
33	0xbd01f2e5	-0.031725783
34	0xbba7683f	-0.0051088626
35	0x3c89ca80	0.016820192
36	0xbd292d1f	-0.041302796
37	0xbd65a256	-0.05606302
38	0x3bc71375	0.0060753175
39	0xbca756f5	-0.020427207
40	0x3cc7c52e	0.024386015
41	0xbba07d49	-0.0048977477
42	0x3cfb94da	0.030710626
43	0xbbd0dc4b	-0.006373917
44	0x3d561c20	0.052272916
45	0x3ca2f535	0.019892314
46	0x3d2f9def	0.042875227
47	0x3c1ff672	0.009763347
48	0x3d678425	0.056522507
49	0xbca7894d	-0.020451212
50	0xbd544887	-0.05182698
51	0x3ce4d42e	0.027933206
52	0xbbe67aa8	-0.0070336647
53	0xbd398413	-0.04529197
54	0x3cc0bd13	0.023527658
55	0x3d3fc7f0	0.046821535
56	0xbbbec385	-0.0058216476
57	0xbb459af8	-0.0030152183
58	0xbc650172	-0.013977395
59	0xbd2b7bcd	-0.041866113
60	0x3d1004fd	0.035161007
61	0xbd36443e	-0.044498675
62	0xbd6b14e4	-0.05739297
63	0x3c5be34e	0.013420893
64	0xbce03dd2	-0.027373228
65	0xbb0b3bdf	-0.0021245403
66	0xbca08a90	-0.019597322
67	0xbd07ef34	-0.033187106
68	0xbb0939af	-0.0020938923
69	0xbd0b2d8c	-0.033978984
70	0xbcae1071	-0.021248074
71	0x3a43bbff	0.0007466673
72	0xbbb5217b	-0.005527673
73	0x3d5753b1	0.05257005
74	0x3b98edf3	0.0046670376
75	0xbd47398b	-0.04863886
76	0x3d2a88c8	0.04163435
77	0xbd569e18	-0.052396864
78	0xbcb725bc	-0.02235686
79	0xbc39ee07	-0.011348254
80	0xbd18697a	-0.037209965
81	0x3cce1fd6	0.025161665
82	0xbc8347e4	-0.016025491
